results/fourier_kan/best_model.pt (torch, 701224 bytes, 4 tensors)

layers.0.fouriercoeffs f4 [2, 78, 195, 5]
00000000: ba76 99bd 21ca f6bc 1b1b aebc 48e2 c0bc
00000010: 6a79 08bd 51ec 14bd 6ac1 ab3c 004b ecbb
00000020: 48d3 563c 5f67 e9bc 8a27 1cbd 2054 063b
00000030: 7d6f 4e3b 79e8 883c b95d 7c3b 2be0 003e
00000040: fbfa 47bd cec4 cabc fad5 a03b 0100 8c3b
00000050: e45b a3bc 52eb 89bc 2007 afb9 d152 7d3b
00000060: 6e65 a1ba 9659 9cbd 7b2e af3c 9a73 a63c
00000070: 09b9 953c 2f2f 3d3c 5c4f 2ebd 2cd7 cc3b
00000080: 91df 8b3b 442f 983a 33fe 833c ce1d 8b3d
00000090: 4f71 febc e690 993c c396 efbb b7cf 47bd
000000a0: 957e afbd ca47 a9ba 0a67 383b 62ae 11bc
000000b0: 3bd3 803b de2e 67bd 0570 7bbc 87fe 1abd
000000c0: dcca a6bc 09cf a03b 8b90 9ebd 79d0 093d
000000d0: 059a 413d a945 d23c 8b1c 723c e600 aebc
000000e0: 4e7b 74bc c019 5ebc 1d66 293c 2e28 93bb
000000f0: c6f7 4b3c f5c1 75bc 93e2 9d3b 67b9 1b3c
00000100: d6d8 a53c 268d 8fbc 7b8c 83bc 4645 c8bb
00000110: 4266 673c 4df7 6c3c 6516 8abd 1720 84bc
00000120: 17c7 a2bb 7f88 9d3c 1296 913c 68a2 b13c
00000130: 843f d9bc 2967 0bbb 3e48 ec3b d922 c33c
00000140: 7678 693d 2476 983c 5dce 6fbc cb30 09ba
00000150: 3076 843c 7ca8 f0bc aa91 dfbc 9df0 22bc
00000160: f417 9a3b a6c6 ac3c cf0d 4e3d 1879 2ebd
00000170: 1384 10bb b39e 5b3d e6f0 a7bc ca26 fa3d
00000180: 0a7d 8fbd 4193 80bc 5b20 173c 1e85 d53b
00000190: f9c2 ae3a 989e 0a3c c80d 113c a999 893b
000001a0: eee8 873c 1a2c a5bc e1b8 a3bd 0daf 82bd
000001b0: 4aa4 ecba 8124 a83d b734 233e 22bb 8a3c
000001c0: d741 64bc 9289 81bc a698 533c 3065 d7bd
000001d0: ca0c b7bc f2ee 16bd 3991 54bb d77f f93c
000001e0: 5b36 b73d 4719 ffbc 2925 40bc 68d8 f9bc
000001f0: 27d8 4dbd 6072 94bd 9a9c 2fbc 98e9 39bc
00000200: 08a4 ce3c 9174 25bc 1aba 3e3d 155c 063d
00000210: ed5b babc 10ee cebb 1f53 b33c e065 94bd
00000220: 5e5c 32bd 4559 aebb a53d e73b bb80 84bd
00000230: 1789 2d3d 5d5f 32bd ff1d 2dbd 5be5 8ebc
00000240: 269f 383c 5507 a5bd 9efc 93bb a855 1d3c
00000250: 1807 56bc 3f89 203d 168c 013d a05a 56bc
00000260: fd79 b1bb 1987 753c 82f3 abbb 84e5 dcbc
00000270: 53f5 f1bc 4f4d 8bbd 84f8 93bd b992 a5bd
00000280: 9896 673e d27b b83c 6491 bb3d 55cd ce3d
00000290: 717e a33d a678 083e a2fd 753c 6205 403d
000002a0: eb9c 793d 59a6 a43d 867c 76bd 5b42 f4bc
000002b0: 76a0 33bd a687 96bd b885 b4bd b884 dd3d
000002c0: 0bf7 5aba 6254 97bb fe0c 553c 75d2 413c
000002d0: 9d54 8d3d b726 c13b 6dcc 7e3c 0b81 22bc
000002e0: 836f 7f3d 144c a6bd dbc0 553d 735d b93c
000002f0: df7d 4c3d b422 ae3d abb6 d2bb da62 253c
00000300: 6664 ef3c c719 b4bb 8284 cabc e94a 52bb
00000310: 273a 1dbd b46f bfbc 052e 95bc 9048 0dbd
00000320: 1648 b5bb 5a13 763a 5c22 fa3c c1a7 a2ba
00000330: da16 30bc 95a2 a73d c7c4 0fbd a9ce 78bc
00000340: eb1c cfbb 5f69 0bbb 49e5 e7bc 6077 70bc
00000350: 11f2 d3bc fadc ddbc df37 3bbc 9b3e 4ebd
00000360: ff15 9ebc 05b6 5a3c c2b4 5a3a f53f ecbc
00000370: 6aff 5d3c 45f3 21bd 9d56 6abc 6976 203c
00000380: ea8b 1b3d 67fa a13c 4748 75bd 771d 58bc
00000390: bc6d b53a af1c 033c 0d3d 883c 50bb 20bd
000003a0: d8da aa3c dcce ca3c 9a7f d7bc 6162 983d
000003b0: 5145 943b 267f 3cbc 45e1 a6bc 9150 b63a
000003c0: 684b 843d ada1 b7ba e313 2abc 30c6 bdbb
000003d0: 4fd9 063b c744 8dbd 8990 ce3c 2566 263d
000003e0: 60fd 443c db91 fabb 3a23 1e3d 8c6e 90bc
000003f0: b05e 26bc a674 a1bb 25e1 6b3c b1be cfbd
-0.074933484 -0.03012568 -0.02125316 -0.0235454 -0.033318914 -0.03635818 0.02096625 -0.007211089
0.013111897 -0.028491674 -0.038123645 0.002049692 0.0031499558 0.016712414 0.0038508011 0.12585513
-0.048823338 -0.024752047 0.0049083205 0.0042724614 -0.019941278 -0.016835842 -0.0003338391 0.0038654099
-0.0012313554 -0.07634275 0.021384468 0.020318795 0.018276708 0.011546894 -0.04255615 0.0062512364
0.0042685946 0.0011610766 0.016112423 0.06792794 -0.03105989 0.01874585 -0.0073116734 -0.048782077
-0.085690655 -0.0012915072 0.0028137588 -0.008891674 0.0039314306 -0.05644118 -0.015346532 -0.037840392
-0.020360403 0.004907493 -0.07742413 0.03364608 0.047266025 0.025667982 0.014777313 -0.021240663
-0.014921976 -0.013555944 0.010339287 -0.004490874 0.0124492105 -0.014999856 0.0048182695 0.009504653
0.020244997 -0.01752336 -0.016058197 -0.0061117737 0.014123501 0.014463258 -0.06742553 -0.016128583
-0.004967581 0.019230125 0.017771754 0.021683887 -0.026519544 -0.0021271205 0.0072107604 0.023820328
0.056999646 0.018611021 -0.014636603 -0.0005233406 0.016169637 -0.029377215 -0.027291138 -0.009945062
0.0047025625 0.021090817 0.050306138 -0.042595953 -0.0022051379 0.053618144 -0.020500612 0.1221443
-0.07006271 -0.015695216 0.009224023 0.006516113 0.0013333253 0.008460663 0.008853383 0.004199226
0.016590562 -0.02016263 -0.07994247 -0.063810445 -0.0018054333 0.082100876 0.15938078 0.016934935
-0.013931713 -0.015812669 0.012914812 -0.10517347 -0.022344965 -0.03684897 -0.0032435192 0.030456467
0.08945914 -0.031139983 -0.01172761 -0.030498698 -0.050254967 -0.07248378 -0.010718489 -0.011347197
0.0252247 -0.010098592 0.0465642 0.03280266 -0.022748912 -0.0063150004 0.021890221 -0.072459936
-0.04354512 -0.0053207004 0.007056909 -0.06469866 0.042367067 -0.043547977 -0.042264935 -0.01744335
0.011268413 -0.08058039 -0.0045161983 0.009602942 -0.013063215 0.039193388 0.031627737 -0.01308313
-0.0054161535 0.014985823 -0.0052475343 -0.02696491 -0.029535925 -0.06801855 -0.07225135 -0.08084626
0.2261604 0.02251998 0.091585904 0.10097758 0.07983101 0.13327274 0.015014084 0.046880133
0.060940664 0.08039541 -0.06017735 -0.029816797 -0.0438542 -0.07350092 -0.08814567 0.1081633
-0.00083528523 -0.0046182135 0.013003586 0.011829962 0.06900904 0.0058945077 0.015551669 -0.009918462
0.062362205 -0.081199795 0.052185874 0.022627568 0.049924728 0.08502713 -0.006430467 0.010094369
0.029222678 -0.005496237 -0.024721388 -0.0032088107 -0.038385537 -0.023368694 -0.01821042 -0.03449303
-0.005532275 0.0009387039 0.030533962 -0.0012409614 -0.010747636 0.08185307 -0.03509977 -0.01518599
-0.006320586 -0.0021272523 -0.028307574 -0.014676899 -0.025872262 -0.027082909 -0.011426895 -0.050352674
-0.019297598 0.013349061 0.0008342975 -0.02883909 0.013549665 -0.03953864 -0.014302877 0.009793856
0.03797523 0.019772721 -0.059883382 -0.013190619 0.0013841907 0.008002444 0.016630674 -0.039241135
0.020856306 0.024756841 -0.026305962 0.07440639 0.0045248647 -0.011504924 -0.020371089 0.0013909509
0.06459695 -0.0014009975 -0.010380718 -0.005791448 0.0020576303 -0.06897884 0.025215404 0.040624756
0.0120233 -0.007646782 0.038607813 -0.017630838 -0.010154411 -0.0049272357 0.01439694 -0.101437934

layers.0.bias f4 [1, 78]
00000000: d207 82bc d2be 4a3c 78eb 0ebc d79b 8d3c
00000010: e6d7 2dbc d379 8abb 438b 973b dd8f 21bb
00000020: 871a 1fbc 2a39 d83b e24e 6bbb 86d8 d4ba
00000030: 1f9d 913c 8fe2 59bb 3259 bebb 50a2 0bb8
00000040: 3d19 413d c4f2 6e3c ca93 8c3b 5207 253c
00000050: 93f1 d13b 05f5 4bbc b8d3 fbbb 5d07 edbb
00000060: 55d0 18bc 3fa0 f7ba 2049 3d3c 2c26 b13b
00000070: a191 f9bb 096a 4d3c 3f9d 1abb d570 763c
00000080: bf3c 20bb 6b55 863c 089e 143c ebea 30bb
00000090: d43e 413c 3688 4dbc eb93 04bc 5043 2dba
000000a0: 44f0 9f39 d2cb 27bc 66d1 3dbc 5346 cebb
000000b0: 8111 9e3b 873e 70bc 6c2a 3e3a 2569 2bbb
000000c0: 19d0 1d3a be1d 803b 3d9a 3d3b 8fc7 483c
000000d0: 2921 5bbb 3f29 97ba fe40 41bc 39bf 1dbc
000000e0: 21d1 fc3b 60c8 813c 66d3 faba 6f87 303c
000000f0: 769f ca3b 0b52 1fbc f197 333c 41a5 173b
00000100: 1172 be39 bc16 c9bb 2f03 843c 1803 2cba
00000110: f6ce cd3c 1efb 253b b641 243c 00f5 09bc
00000120: 5d05 a3bb 2ae1 22bc b2ab efba f8fe 043c
00000130: 59a8 153c 057d 11bc
-0.01587287 0.012374597 -0.008723132 0.017286224 -0.010610556 -0.0042259484 0.0046247556 -0.00246524
-0.009710914 0.0065986114 -0.0035905172 -0.0016238845 0.017775116 -0.0033246612 -0.0058089728 -3.3291348e-05
0.04714321 0.014584247 0.0042900788 0.010072546 0.0064069717 -0.012448554 -0.007685151 -0.007233544
-0.009327014 -0.0018892362 0.011553079 0.005406162 -0.0076162373 0.012537488 -0.002359226 0.01504155
-0.002445027 0.016398152 0.009070881 -0.002699549 0.011794765 -0.012544682 -0.008091907 -0.00066094566
0.00030505855 -0.010241466 -0.011585569 -0.0062950044 0.004823864 -0.014663345 0.0007254246 -0.00261552
0.00060200837 0.0039097955 0.0028931045 0.01225461 -0.0033436513 -0.0011532678 -0.0117952805 -0.009628111
0.00771536 0.015842617 -0.0019136488 0.010774477 0.00618356 -0.00972415 0.010961519 0.002313927
0.0003632461 -0.0061367434 0.0161148 -0.00065617403 0.0251231 0.002532668 0.010025432 -0.008420229
-0.0049750046 -0.009941379 -0.0018285422 0.00811743 0.0091343755 -0.008879905

layers.1.fouriercoeffs f4 [2, 29, 78, 5]
00000000: 023a d73d d005 523c c54a 8dbc e051 2fbc
00000010: 3ac1 bebb 3358 0fbe 6805 88bc 25ba abbc
00000020: 9824 11bb 9a91 b13b b37a dcbd f8c9 f23d
00000030: 1a99 e63c 0ec0 cc3d 78a9 de3c c172 69bd
00000040: f259 54bd f624 8abc 6894 f03c e0a5 15bc
00000050: 753c 16be eeed dabb 4e1a d5bc ff29 4d3c
00000060: caeb 36bc 55a0 873c 5847 73be bcc6 c6be
00000070: e984 7bbe c439 43bb d48a 44be 6edd 3fbd
00000080: 1d74 08bd 93ca 053d 44c7 92bb 366d 99bd
00000090: 02e1 363d cb89 6c3b 3a5c 09bd 8115 b63b
000000a0: bbac 023d e8a9 24bd 748c c13d 2e01 f73c
000000b0: a34a 9c3a bca7 80bc 58cc 1b3d 03f3 eebb
000000c0: e55f be3c bc32 7c3c dd34 4dbe de98 f63c
000000d0: ee5e 23bd 9dc4 0f3b ff8c db3b 5dfa cb3d
000000e0: d1e9 763d ffab d73c b436 cdbc 6e45 163c
000000f0: 2c5f e8bd 4b69 84bd 54f5 c83c bf9a 3e3b
00000100: 0e80 56bc 029d c33c d8fb 5e3c 8395 acbb
00000110: 5ce7 5a3b 69e0 6c3b 91f1 183e 7cd8 cbbc
00000120: 8ab7 26bc 365c 683c 4640 933c ab86 06be
00000130: bfb6 8dbc 17f0 273d e5af b3bc 4c9d eaba
00000140: 07c4 363c 95e2 8bbc 83bc 95bb 559f 803c
00000150: a15e 283c 6d52 2839 f08a 1bbd 3cc0 2d3d
00000160: 34cd eb3b ac36 383c 75d9 c6bc 35b2 e3bb
00000170: 1e9c 2a3d c8db 213c 86df 593b c042 4fbd
00000180: 6786 033d fe5e f1bc e538 b43b 5bf7 b73a
00000190: 4b14 6cbe ea06 ecbd 818d 19bc fe9d 403d
000001a0: 6c25 c0bc 7912 2d3c 38a3 943c 87fc 0fbb
000001b0: aea9 c83a af85 f6ba 82c8 643b 2a1e a2bc
000001c0: 4bfd 3ebc 7944 af3c 2c01 d7bb 56e4 f5bd
000001d0: 4c72 7bbd c2e6 a3bd c330 ab3b 9ab8 82bc
000001e0: 968c ddbd 4218 b13c b704 fcbc dd93 fa3c
000001f0: 9ad1 9cbb ee0c 14be 412f 73bc a0b4 09bc
00000200: 9ecc c1bc 634d 813c 72b5 9fbd 1c9d 0ebc
00000210: e866 4cbd f288 b2bc 5f90 b83c 4486 1cbe
00000220: 9311 f5bc 1759 663d af40 093e 600c e9ba
00000230: 6bc6 c5bd ea19 e9bb cd82 433e 8ea3 25be
00000240: 9e65 1c3d b096 15bd 4fe4 15bd 1195 c03d
00000250: f3d6 5dbc 04cd e93c aa01 38bd b2b7 12bc
00000260: 4e6c 7ebc 24b7 1c3c d0ac 0f3c b52c 01bd
00000270: abe2 ca3c 2480 173d ea17 c5bc 9259 29bc
00000280: d481 ce3b e889 f2bb 7455 b03c b6e6 b63c
00000290: dee7 983c 43cc c5bd 4b8b c93d c5fe 86bd
000002a0: f2b0 44bd 6464 303d 141b ce3b b23a be3c
000002b0: 6f8c be3c 3c05 1f3c 7955 333b 71e8 37bc
000002c0: 60eb a9b9 7078 f4bc 065f cb3c 97c9 2fbc
000002d0: 074f 5d3e 6841 4d3c e744 423c 4470 92bc
000002e0: 8bf4 bb3b 3cf1 5a3e 56e7 91bd 69dd 693c
000002f0: f613 373d 2639 253c cf0f 9d3d 71e9 a83b
00000300: 9ee7 8abc a7ae bdbc cb1a d9ba efc3 aebd
00000310: c76c fb3c f66d 043d dd2e df3b 5b74 543b
00000320: e957 4e3d 0307 3bbc b847 edbc 388e 903a
00000330: 5d0d 71ba c05a 813c af3d f83c 36e1 0b3d
00000340: 479f 9f3b c0cc 14bc b129 243d f561 1e3d
00000350: 1d59 b0bc 540c f3bb 0a68 2bbb 8adf 523d
00000360: a441 813d 04db e53c 84e6 1cbc 1099 d3bb
00000370: 3f53 15be 1ea3 ef3c 38f8 83bd 02ba c8bc
00000380: a6c2 143d 5a96 dcbd 5558 6abd 8b0f 4cbd
00000390: 52b2 7ebc 7c54 e13c ff31 043e 49e4 eebc
000003a0: 4848 e83c eab2 983c ac45 3ebc cf19 173d
000003b0: 0d66 7cbd 382f f3bc e1b7 6f3c d961 f43b
000003c0: e515 0dbe fa06 183e 4ec8 0fbc d888 13bb
000003d0: e155 be3b 8fcc b33d 9739 563c e15c 06bd
000003e0: ca0d fbbc 840d 4abb 33e8 6a3d 02a6 d5bd
000003f0: cdf1 0a3d e9cb 19bd dc3d df3c b365 0bbe
0.10509111 0.012818769 -0.017247567 -0.010700673 -0.0058213742 -0.13998489 -0.01660414 -0.020962784
-0.0022147056 0.0054189684 -0.107655905 0.11854929 0.028149176 0.09997569 0.027180418 -0.056994203
-0.05184359 -0.016863327 0.02936764 -0.009133786 -0.146715 -0.0066811955 -0.02601352 0.01252222
-0.011164615 0.016555944 -0.23757684 -0.38823497 -0.2456242 -0.002978907 -0.19193584 -0.04684203
-0.03331386 0.032663893 -0.0044793207 -0.074915335 0.044648178 0.0036092873 -0.03353522 0.0055567627
0.03190301 -0.040201098 0.094506174 0.03015193 0.0011924099 -0.015704982 0.038036674 -0.007292153
0.023239085 0.015392955 -0.20039697 0.03010219 -0.039885454 0.002193726 0.0067001577 0.099598624
0.06028158 0.026327131 -0.025050499 0.009171827 -0.113462776 -0.064653955 0.024531044 0.0029083935
-0.013092054 0.023878578 0.013609849 -0.0052668466 0.003340206 0.00361445 0.149359 -0.024883501
-0.010175595 0.014182141 0.017974984 -0.13137309 -0.017299054 0.041000452 -0.021934459 -0.0017899661
0.011155135 -0.017075816 -0.0045695915 0.015700975 0.010276468 0.00016052435 -0.037974298 0.042419657
0.007196093 0.011243504 -0.024273613 -0.006948734 0.04165279 0.00987906 0.0033244803 -0.050600767
0.032110598 -0.029464241 0.0054999464 0.001403551 -0.23054616 -0.11524756 -0.009372116 0.047025673
-0.023455344 0.010563486 0.018144235 -0.0021970586 0.0015309358 -0.0018808151 0.003490955 -0.019789774
-0.011657069 0.021394955 -0.006561419 -0.12006442 -0.0613883 -0.08002998 0.0052243187 -0.015957166
-0.1081783 0.021618012 -0.030763967 0.030588085 -0.0047857286 -0.14458057 -0.014842809 -0.008404881
-0.02365714 0.015783971 -0.0779828 -0.00870445 -0.049902827 -0.021793816 0.022529779 -0.15285593
-0.029915607 0.056237306 0.13403581 -0.0017780177 -0.09656986 -0.007113685 0.19092865 -0.16175672
0.038182847 -0.03652066 -0.036594685 0.09403432 -0.013540017 0.028540142 -0.044923462 -0.008954929
-0.015528752 0.0095651485 0.008769229 -0.031536777 0.024766287 0.03698744 -0.024059255 -0.010336297
0.006302098 -0.0074016936 0.021525122 0.022326808 0.01866525 -0.096581005 0.09841021 -0.06591562
-0.04802031 0.04306449 0.006289849 0.023221347 0.023260323 0.009705838 0.0027364178 -0.011224852
-0.0003240956 -0.029842585 0.024825584 -0.010729215 0.21612178 0.012527801 0.011857248 -0.017875798
0.005735939 0.21381086 -0.07124202 0.01427398 0.04469677 0.010084426 0.07669031 0.0051547815
-0.016956147 -0.02315457 -0.0016563771 -0.08533465 0.030691518 0.03233143 0.0068110065 0.0032417986
0.050376806 -0.011415246 -0.028964862 0.0011028713 -0.00091954117 0.015790343 0.03030285 0.034150325
0.0048712823 -0.009082019 0.040078823 0.038667638 -0.021526868 -0.007417241 -0.0026154541 0.051482715
0.06311348 0.028058536 -0.009576444 -0.0064574555 -0.14582537 0.029252585 -0.06443828 -0.024502758
0.036318444 -0.10770865 -0.057213146 -0.04981951 -0.015545445 0.027506106 0.12909697 -0.02916159
0.028354779 0.01864 -0.011613291 0.036889847 -0.06162076 -0.029685602 0.0146312425 0.0074579534
-0.13777883 0.14846411 -0.008775784 -0.0022511985 0.0058085774 0.08779251 0.013075254 -0.03280342
-0.030646224 -0.003083081 0.05735035 -0.10432054 0.033922005 -0.03754798 0.027251177 -0.13613014

layers.1.bias f4 [1, 29]
00000000: fd93 9abd b760 75bd dfb6 a3bd f42e 7dbd
00000010: 8327 05be 636a 13be 3361 c2bf 0553 2ebd
00000020: 5408 053f 576b cdbc 59ec 073c 60e8 9b3a
00000030: 50fe 31bd b11b 173f adc5 2bbe 40ac 00bd
00000040: 6425 28bd 70c8 d2ba bebe f83c 619a 14be
00000050: 3223 ddbb cd8f b2bd 14ad 6ebd 749a 8bbc
00000060: 0750 af3d 3704 183c 680f 6d3d 8a2e 8abd
00000070: faee 293c
-0.07547758 -0.059906688 -0.07993864 -0.061812356 -0.13003354 -0.14396052 -1.5185913 -0.042559642
0.5196583 -0.025075598 0.008296096 0.0011894815 -0.043455422 0.5902663 -0.16774626 -0.03141427
-0.041051283 -0.0016081464 0.03036439 -0.14512016 -0.0067485804 -0.08718834 -0.05827053 -0.017041422
0.08560186 0.009278349 0.05787602 -0.06747158 0.010371918
