results_N50_tr30_v10_te10/fast_kan/best_model.pt (torch, 739042 bytes, 24 tensors)

layers.0.layernorm.weight f4 [195]
0	0x403eca9b	2.981116
1	0x3ed50092	0.41601998
2	0x3ec86d7e	0.39146036
3	0x3ececa97	0.4038894
4	0x3f05f257	0.52322906
5	0x3ec33d2c	0.38132608
6	0x4004c2e8	2.0743961
7	0x3ef6e5a5	0.4822208
8	0x3f88db13	1.0691856
9	0x3faf632b	1.3702139
10	0x3fcdebff	1.6087645
11	0x3f0ad582	0.5423204
12	0x3ff10ed2	1.8832648
13	0x3f1474d6	0.5799078
14	0x3f43f341	0.7654305
15	0x400c49e0	2.192009
16	0x3f0ad33d	0.54228574
17	0x4009b9e9	2.151972
18	0x3ee65a0d	0.44990578
19	0x3fc9344e	1.5719087
20	0x40007a56	2.0074668
21	0x3fd1b886	1.6384437
22	0x3f81730f	1.0113238
23	0x3f791550	0.97298145
24	0x4041064c	3.0160093
25	0x4076929f	3.852699
26	0x3ff856f9	1.9401542
27	0x40001114	2.0010424
28	0x3fd34c2f	1.6507624
29	0x3fdd3b87	1.7283791
30	0x3ee0408c	0.43799245
31	0x403181bb	2.7735431
32	0x4065aa39	3.5885146
33	0x408e765f	4.4519496
34	0x40900ee4	4.5018177
35	0x4017ffce	2.374988
36	0x3fb5efd9	1.4213821
37	0x3f687a00	0.9081116
38	0x3f063136	0.5241884
39	0x403128f5	2.7681248
40	0x3ed9df00	0.42552948
41	0x3f11bc78	0.56928205
42	0x3ef9e684	0.48808682
43	0x3ef1e2e1	0.47243407
44	0x3ed49930	0.41523123
45	0x4001926f	2.0245626
46	0x3f139852	0.576543
47	0x3f9c289a	1.2199891
48	0x3f819369	1.0123111
49	0x3fc0dd35	1.5067507
50	0x3eed3083	0.46326074
51	0x3fd430df	1.6577414
52	0x3f0acf33	0.5422241
53	0x3f38e56c	0.7222507
54	0x3fe7e1fb	1.8115839
55	0x3f1394c1	0.57648855
56	0x3ff7e916	1.9368007
57	0x3eeacdac	0.4586004
58	0x3fc0d711	1.5065633
59	0x402fae0d	2.7449982
60	0x3fe7e5ab	1.8116964
61	0x3fa98404	1.3243413
62	0x3f47008a	0.777352
63	0x402a4d4f	2.6609685
64	0x400de02f	2.216808
65	0x3f998f28	1.1996813
66	0x3fbcb31d	1.4742161
67	0x3fc4fae9	1.5389072
68	0x3fd867a4	1.6906629
69	0x3ef3ef0c	0.47643316
70	0x40299c6d	2.6501725
71	0x40321c92	2.7829938
72	0x406500c8	3.5781727
73	0x4051dbbd	3.2790368
74	0x4011089f	2.2661512
75	0x3faf95bf	1.3717574
76	0x400d4529	2.2073462
77	0x3f08af2e	0.53392303
78	0x402f42a1	2.7384417
79	0x3edb3919	0.42817
80	0x3eff983e	0.4992084
81	0x3f10d9e0	0.5658245
82	0x3ee4cd77	0.44688007
83	0x3ea321bd	0.31861678
84	0x3fc79b31	1.5594236
85	0x3f066229	0.5249353
86	0x3f8eaa07	1.1145638
87	0x3f45d040	0.7727089
88	0x3fc18280	1.511795
89	0x3efcddac	0.49387872
90	0x3fbe29af	1.4856471
91	0x3f0442f4	0.5166466
92	0x3f41f321	0.7576161
93	0x3fc493fb	1.535766
94	0x3f095fd7	0.53661865
95	0x3ffcd0f1	1.9751264
96	0x3efd70ea	0.4950021
97	0x3fa7aa68	1.3098879
98	0x4014a936	2.3228278
99	0x3ff5e5e1	1.9210778
100	0x3f50682d	0.8140896
101	0x3f35f19e	0.71071804
102	0x403069bd	2.7564538
103	0x4041c2d9	3.0275176
104	0x3f9f9652	1.2467749
105	0x3f885e97	1.0653867
106	0x3f6de3d4	0.92925763
107	0x3feacacf	1.8343142
108	0x3ef3c456	0.4761073
109	0x403ff653	2.9994094
110	0x4027fbaa	2.6247354
111	0x40847ca8	4.140217
112	0x40500b68	3.2506962
113	0x401cf2f5	2.452329
114	0x3fa86601	1.3156129
115	0x400b181b	2.1733463
116	0x3ef441cf	0.47706458
117	0x403394b9	2.8059523
118	0x3f0ebfb2	0.55761254
119	0x3f0a48e9	0.540175
120	0x3eff7a49	0.49897984
121	0x3ec32f4a	0.38122016
122	0x3ec8514b	0.39124522
123	0x40103605	2.253297
124	0x3f0bfe83	0.5468523
125	0x3fa18e5f	1.2621573
126	0x3fa807b6	1.3127353
127	0x3fc547ac	1.5412498
128	0x3ef69810	0.4816289
129	0x3fb9c2a0	1.451252
130	0x3f0bc43d	0.5459631
131	0x3f3bc71d	0.733507
132	0x3faf96b4	1.3717866
133	0x3ebe844b	0.37210307
134	0x40016c76	2.022245
135	0x3f066173	0.52492446
136	0x3fae1956	1.3601482
137	0x402b929e	2.6808238
138	0x3fffcdf9	1.9984733
139	0x3f6e35db	0.93050927
140	0x3f3b2c3b	0.73114365
141	0x4025c327	2.5900362
142	0x402c9500	2.6965942
143	0x3f9b722b	1.2144216
144	0x3fbe8d71	1.4886914
145	0x3fad743b	1.3551096
146	0x3ff676e0	1.9255028
147	0x3ed7ce1e	0.42149442
148	0x404dedaa	3.2176309
149	0x402a9b7d	2.6657403
150	0x4087a997	4.239452
151	0x4064eab0	3.5768242
152	0x40017f91	2.023411
153	0x3f7683a6	0.9629463
154	0x403a40c2	2.9102025
155	0x3f04f93b	0.51942796
156	0x4039e1ea	2.9044137
157	0x3ef111ad	0.47083798
158	0x3f1ab56c	0.6043308
159	0x3ed60276	0.41798753
160	0x3ec04a0b	0.3755649
161	0x3f06a62b	0.525973
162	0x4011450a	2.2698388
163	0x3ed264cf	0.41092536
164	0x3f92d469	1.1471072
165	0x3fa57539	1.2926399
166	0x3fbcff0d	1.4765335
167	0x3f0957a9	0.53649384
168	0x3fedd204	1.8579717
169	0x3edf0d9a	0.43565065
170	0x3f4008e2	0.75013554
171	0x3fe719b9	1.8054725
172	0x3f14e17e	0.58156574
173	0x4012a1c8	2.2911243
174	0x3ef6c1ee	0.48194832
175	0x3fc2e21a	1.5225251
176	0x404d2ffe	3.2060542
177	0x4005fe05	2.0936291
178	0x3f83016b	1.0234808
179	0x3f80158f	1.0006579
180	0x404230c9	3.0342276
181	0x405e474f	3.4731023
182	0x3fe78273	1.8086685
183	0x4001a5c2	2.025742
184	0x3fdb226f	1.7119883
185	0x4000a5a6	2.0101104
186	0x3ee086cc	0.43852842
187	0x4083eb03	4.122438
188	0x407e049f	3.969032
189	0x40983341	4.7562566
190	0x40959316	4.674205
191	0x401d9ad8	2.462576
192	0x3f909684	1.1295934
193	0x40602003	3.5019538
194	0x3f089470	0.533515

layers.0.layernorm.bias f4 [195]
0	0x3e3fc1f2	0.18726328
1	0x3e22bd47	0.15892516
2	0xbda131f0	-0.07870853
3	0x3bfb67f3	0.007672304
4	0x3d2c3ef2	0.042052217
5	0xbdb84404	-0.08997348
6	0xbe46f14b	-0.19427983
7	0xbc988851	-0.018619688
8	0xbdef76b6	-0.11692564
9	0xbe19154c	-0.1494953
10	0xbe11e293	-0.14246587
11	0xbdc6e866	-0.09712295
12	0xbe93ea2e	-0.28889602
13	0xbd2844e8	-0.04108134
14	0x3ba096a2	0.0049007693
15	0xbeb92a8e	-0.3616528
16	0x3e7d5afd	0.2474174
17	0xbe4ab577	-0.19795786
18	0x3e92c6cb	0.28667292
19	0x3e13a141	0.14416982
20	0xbd985147	-0.074373774
21	0xbe6c8e64	-0.23101193
22	0x3e489e5e	0.19591662
23	0x3df386aa	0.118909195
24	0x3deb24a9	0.11481602
25	0x3ee3a2d3	0.44460163
26	0xbeb01cc6	-0.34396952
27	0xbdb4e3e7	-0.088325314
28	0xbb5319e7	-0.0032211484
29	0x3bc5a398	0.006031465
30	0x3de86e9f	0.11349224
31	0xbc7adf6c	-0.015312057
32	0x3e675326	0.22590312
33	0x3e34235d	0.17591615
34	0x3d1d4d26	0.038403653
35	0xbcbbfc27	-0.022947384
36	0x3e01fe39	0.12694634
37	0xbedc90bf	-0.43079183
38	0x3e8b6f63	0.2723342
39	0x3d8ce14f	0.06878912
40	0xbdd9731d	-0.10617659
41	0x3e3128c1	0.17300703
42	0xbe063779	-0.13107099
43	0x3d5c8135	0.05383416
44	0xbd49ce64	-0.049269095
45	0xbdfb9547	-0.12284332
46	0x3eafaacf	0.34310004
47	0xbe2ca09c	-0.16858143
48	0xbda6ed3c	-0.081507176
49	0xbe5587fb	-0.20852654
50	0xbe3847cb	-0.17996137
51	0xbd6fa068	-0.058502585
52	0xbbe6d582	-0.007044495
53	0x3da9c65a	0.08289786
54	0xbd9838ca	-0.07432707
55	0x3ecc2078	0.39868522
56	0x3cd4694a	0.025929112
57	0x3eafbedb	0.343253
58	0x3ddfd669	0.10929567
59	0xbe429e42	-0.19005683
60	0xbeb1caa3	-0.34724912
61	0x3cee1980	0.029064894
62	0x3e884031	0.26611474
63	0xbccdc2d6	-0.02511732
64	0x3e840f27	0.2579281
65	0x3e2f3bd6	0.1711267
66	0x3c7800c3	0.0151369
67	0x3e230a82	0.15921977
68	0x3e0bf274	0.13666707
69	0x3e300454	0.17189151
70	0x3e775329	0.24152817
71	0x3df55c29	0.11980469
72	0xbd89c389	-0.067267485
73	0x3d1d667b	0.03842781
74	0x3d428a74	0.04749532
75	0x3dd17e51	0.10229171
76	0x3d1fb1fb	0.038988095
77	0x3eb41a3a	0.3517626
78	0xbd09f364	-0.03367938
79	0xbdf92845	-0.12165884
80	0x3e310fbb	0.17291157
81	0xbc3b4ee9	-0.011432388
82	0x3df775e2	0.12083031
83	0xbd6a914f	-0.057267483
84	0xbc867071	-0.016411038
85	0x3e922917	0.28546974
86	0xbdca8776	-0.098891184
87	0x3d8fb910	0.0701772
88	0xbe763780	-0.24044609
89	0xbd303fe1	-0.04302967
90	0xbe098093	-0.13427953
91	0xbd4574db	-0.048207145
92	0xbd39b31a	-0.04533682
93	0xbd766205	-0.060152072
94	0x3f1379e8	0.5760789
95	0x3abf4ceb	0.0014595067
96	0x3e8ffeb0	0.28124
97	0x3d6b74c6	0.05748441
98	0xbdb965c2	-0.09052612
99	0xbec1e17f	-0.37867352
100	0x3d83e366	0.06439857
101	0x3dbed47d	0.09317873
102	0xbc40591f	-0.011739998
103	0x3de8b347	0.113623194
104	0xbde3cb24	-0.111227304
105	0x3de52e35	0.11190454
106	0x3d076052	0.033050843
107	0x3cf87abd	0.030331964
108	0x3e2240a6	0.15844974
109	0x3e54d784	0.20785338
110	0x3e0dbaae	0.13840744
111	0x3d27fa9b	0.04101048
112	0x3e11dd6e	0.14244625
113	0xbe02e494	-0.12782508
114	0xbd9bc9d4	-0.07606855
115	0x3de695c3	0.112590335
116	0x3ec7c070	0.39014006
117	0x3d8fe129	0.07025368
118	0x3ef68a4a	0.4815238
119	0x3dbb84f9	0.09156222
120	0x3d1b8be1	0.037975196
121	0xbd9d59f9	-0.076831765
122	0x3d9ecd1f	0.077539675
123	0xbd070757	-0.032965984
124	0x3df387e5	0.11891154
125	0xbe5d1b77	-0.21592508
126	0xbe08089d	-0.13284536
127	0xbe30f702	-0.17281726
128	0xbe3a8217	-0.18213688
129	0x3c0909eb	0.008364181
130	0xbd9c7dee	-0.07641207
131	0xbdc5d2dc	-0.09659359
132	0x3e59f309	0.21284117
133	0xbe2b2bb5	-0.16715892
134	0xbe216fe0	-0.15765333
135	0x3ee6b1d1	0.45057538
136	0x3e0e1a62	0.13877252
137	0xbe631274	-0.22175008
138	0xbecfc5dd	-0.40580645
139	0x3e4663ac	0.1937396
140	0x3e587bbd	0.21140952
141	0x3d85614e	0.065127
142	0x3e60a9de	0.21939799
143	0x3c80bd0c	0.015715145
144	0x3d719731	0.058982078
145	0xbb36afd7	-0.0027875805
146	0x3e7d71df	0.2475047
147	0xbe13c3db	-0.14430182
148	0x3cc78a4f	0.024357943
149	0x3db7cd87	0.08974748
150	0xbddea786	-0.10871796
151	0x3d57091c	0.05249892
152	0xbc3fc2bb	-0.011704142
153	0xbd1a8347	-0.037722852
154	0x3e8ac780	0.2710533
155	0x3ebe25a5	0.37138095
156	0x3d06d0eb	0.032914083
157	0x3e3f4273	0.18677692
158	0x3eda167d	0.42595282
159	0xbdc12ff1	-0.09432972
160	0xbda16889	-0.078812666
161	0xbe4338b2	-0.19064596
162	0xbea81d6b	-0.32834944
163	0x3e598ae0	0.21244383
164	0xbc86ba56	-0.016446274
165	0x3d79d3a9	0.06099287
166	0xbe964813	-0.29351863
167	0x3e340312	0.17579296
168	0xbe9d1845	-0.3068258
169	0xbe2037e8	-0.15646327
170	0x3dc381c6	0.09546237
171	0xbe3db45a	-0.1852583
172	0x3d785bf5	0.060634572
173	0xbe8fb078	-0.28064322
174	0x3ed9bdc2	0.42527586
175	0x3c88b331	0.016687008
176	0xbef4fc4e	-0.47848743
177	0xbea278ca	-0.3173278
178	0xbcbd8e37	-0.023139102
179	0x3e09fb67	0.13474809
180	0x3df07460	0.11740947
181	0x3e547d30	0.2075088
182	0x3d3f33a0	0.046680093
183	0x3db97cc7	0.090570025
184	0xbd87683c	-0.06611678
185	0x3d935f03	0.071958564
186	0x3c036162	0.008018823
187	0x3c1e1fe6	0.00965116
188	0x3eb399d9	0.35078314
189	0xbe54c5c8	-0.20778573
190	0xbe4757fb	-0.19467156
191	0x3d832907	0.0640431
192	0x3eb2999c	0.3488282
193	0x3ee7b2f8	0.4525373
194	0x3e5575b6	0.20845684

layers.0.rbf.grid f4 [4]
0	0xc03d7bdf	-2.9606855
1	0xbf9f7cf9	-1.2460014
2	0x3eeff73c	0.46868312
3	0x400bbc4a	2.1833673

layers.0.spline_linear.weight f4 [90, 780]
0	0x3ef0ca3b	0.4702929
1	0x3d687476	0.05675169
2	0xbdc1898a	-0.094500616
3	0x3ec7c91b	0.3902062
4	0xbe8bcf6d	-0.2730669
5	0x3dc7e69d	0.09760783
6	0xbca41dcf	-0.020033745
7	0x3e00fa93	0.12595586
8	0x3d2c9f9d	0.042144407
9	0xbc92cba1	-0.017919363
10	0x3e044142	0.12915519
11	0xbe1d37b9	-0.15353288
12	0x3ecf27f7	0.40460178
13	0x3d882e9e	0.066495165
14	0xbb6414d8	-0.0034802463
15	0xbdcde6af	-0.10053765
16	0xbe874aac	-0.26424158
17	0xbdb1fee8	-0.08691198
18	0x3c976f25	0.018485615
19	0x3d34b7ce	0.044120602
20	0xbf17fbb7	-0.5936846
21	0xbdac20d1	-0.08404697
22	0xbcb63781	-0.022243263
23	0x3e6dde1f	0.23229264
24	0xbcca459d	-0.024691397
25	0xbe8183d1	-0.2529588
26	0xbd473a2e	-0.04863947
27	0x3c7418bb	0.014898474
28	0xbe0ed8bf	-0.1394987
29	0xbe41208e	-0.18860075
30	0x3e0fc389	0.14039434
31	0xbe5b1740	-0.21395588
32	0x3ebabb64	0.36471093
33	0xbc3ec5a9	-0.011643806
34	0xbd9932c8	-0.07480389
35	0xbe2a6983	-0.16641812
36	0xbe498a57	-0.19681679
37	0x3dff71a5	0.12472848
38	0x3d38d6c1	0.04512668
39	0xbe33d0b3	-0.17560081
40	0xbe415e0c	-0.18883532
41	0x3dbe4b81	0.09291745
42	0xbe4254c6	-0.18977651
43	0x3ec7909c	0.38977516
44	0xbe05be3b	-0.13060848
45	0xbdbdadda	-0.09261675
46	0x3e11fd94	0.14256889
47	0xbdb83dfc	-0.089961976
48	0x3e77fdce	0.24217913
49	0xbd6c20ce	-0.057648472
50	0xbe99ae7e	-0.3001594
51	0xbe18fc25	-0.14939936
52	0xbe625731	-0.22103573
53	0x3d981f5d	0.07427857
54	0x3cd12c9c	0.025533967
55	0x3d81d052	0.06338562
56	0x3ea5f92a	0.3241666
57	0xbda1307d	-0.078705765
58	0x3e14eb3b	0.14542858
59	0xbe883f59	-0.2661083
60	0x3e1c59cb	0.15268628
61	0xbe8a5b2e	-0.2702269
62	0xbd1af0d4	-0.037827328
63	0x3e38d29d	0.18049093
64	0x3eafbea9	0.3432515
65	0xbd71d487	-0.059040572
66	0x3cfe101c	0.03101354
67	0xbd27ef0c	-0.040999457
68	0xbf84d64f	-1.0377902
69	0xbe8f7cc8	-0.28024888
70	0x3ec753e8	0.38931203
71	0x3ed9a117	0.42505714
72	0xbe4f11bd	-0.2022161
73	0xbe8d4f63	-0.2759963
74	0xbe0d6e7b	-0.13811676
75	0xbe13dc34	-0.1443947
76	0xbe744b35	-0.23856814
77	0xbe394a90	-0.1809485
78	0xbcd1584a	-0.025554795
79	0x3f0c6d69	0.54854447
80	0x3d5d173b	0.053977232
81	0xbd28732b	-0.041125458
82	0x3cffe3b1	0.031236501
83	0xbe63609e	-0.22204825
84	0x3f06bf18	0.52635336
85	0xbd9d20c7	-0.076722674
86	0xbe96ab5a	-0.29427606
87	0x3dbc74ab	0.0920194
88	0xbef4de28	-0.47825742
89	0x3e1d07ea	0.1533505
90	0xbc67edee	-0.014155848
91	0xbe25f2f4	-0.1620596
92	0x3f3cfcdf	0.7382335
93	0x3ca2a1a8	0.019852474
94	0xbe5216b6	-0.20516476
95	0xbe3be46d	-0.18348856
96	0x3d9fa395	0.07794873
97	0xbe9a6803	-0.3015748
98	0x3e58e58f	0.2118132
99	0x3f1d5819	0.6146255
100	0xbef40d1f	-0.4766626
101	0x3f1940f9	0.59864765
102	0x3d2834a3	0.041065823
103	0xc00a36ce	-2.159595
104	0xbe1c4a32	-0.15262678
105	0xbd89bfc7	-0.06726032
106	0xbe015a17	-0.12632023
107	0xbe8b8005	-0.2724611
108	0xbeba5e0a	-0.3639987
109	0xbdddd826	-0.10832243
110	0x3eb3f4b3	0.35147628
111	0xbd872213	-0.06598296
112	0x3f3f2bce	0.74676216
113	0xbdf88fc5	-0.12136797
114	0xbe42de66	-0.19030151
115	0xbe5cc812	-0.21560696
116	0x3f1c5eec	0.6108234
117	0xbe887e42	-0.26658827
118	0xbe81f320	-0.25380802
119	0x3d8e4b31	0.069479354
120	0xbd1c68b6	-0.038185798
121	0xbcaa1765	-0.020763109
122	0x3d426efc	0.047469124
123	0xbe538bcc	-0.20658797
124	0xbc8a9b6f	-0.01691982
125	0xbdb9beb1	-0.090695746
126	0xbd94378d	-0.07237158
127	0xbe6717ea	-0.22567716
128	0xbd8154d9	-0.063150115
129	0x3e799f1b	0.243771
130	0x3ed2ecfe	0.41196436
131	0xbe897199	-0.2684448
132	0x3e3d9f4c	0.18517798
133	0xbe38f33b	-0.18061535
134	0xbe7bf165	-0.24603803
135	0xbdb2bac9	-0.08727033
136	0xbe8ebfd2	-0.27880722
137	0xbe4f6ae7	-0.20255624
138	0x3dee051f	0.116220705
139	0xbeba2705	-0.36357895
140	0xbf074b4c	-0.5284927
141	0xbcbbcdc6	-0.022925269
142	0x3ea7376d	0.32659474
143	0xbedd0eb1	-0.4317527
144	0xbd2a20c0	-0.04153514
145	0x3e488a70	0.1958406
146	0x3d44515b	0.04792915
147	0xbea651ad	-0.3248419
148	0x3f28785d	0.6580866
149	0xbe601553	-0.21883135
150	0xbd9c1324	-0.07620838
151	0xbf4b4fe7	-0.79418796
152	0xbe38c0cf	-0.180423
153	0xbe79935e	-0.24372622
154	0x3e308310	0.17237496
155	0xbe3074e0	-0.17232084
156	0x3e8c0bbf	0.27352712
157	0xbd0b043f	-0.033939596
158	0x3d24a04f	0.040191945
159	0x3dcd94f2	0.10038175
160	0xbdd5dd82	-0.1044264
161	0x3df38e22	0.11892344
162	0xbcb2ecde	-0.021841463
163	0xbd90002d	-0.070312835
164	0xbde16f09	-0.110075064
165	0x3e1fccc4	0.15605456
166	0xbdb05c47	-0.086113505
167	0xbdb1d136	-0.08682482
168	0x3e861b6f	0.26192805
169	0xbdae1ac1	-0.08501197
170	0xbe01a203	-0.12659459
171	0xbbf80acc	-0.0075696465
172	0xbf15db92	-0.5853816
173	0xbe387390	-0.18012834
174	0x3d9b2774	0.075758845
175	0xbdd0c1c1	-0.101932056
176	0xbf0b64c8	-0.54450655
177	0xbc7e2df7	-0.015513889
178	0x3e06238d	0.13099499
179	0xbddf3b6d	-0.109000064
180	0xbe286922	-0.16446355
181	0xbdda1cc6	-0.10650019
182	0x3d2e36c4	0.042532697
183	0x3cb6d959	0.022320436
184	0xbe676b69	-0.22599567
185	0x3dfae9f0	0.12251651
186	0x3db0a379	0.0862493
187	0x3d6d3cc5	0.057919282
188	0xba07cda1	-0.00051804824
189	0x3dbac527	0.09119635
190	0xbdb31ae4	-0.08745363
191	0xbee823b3	-0.45339736
192	0xbe1399ef	-0.1441419
193	0x3dc7c1f3	0.0975379
194	0x3c2d7b28	0.010588445
195	0xbc98152e	-0.018564787
196	0xbda4c84e	-0.080460176
197	0xbd751678	-0.05983588
198	0xbe64e5c2	-0.2235327
199	0x3f13024d	0.57425386
200	0xbedf5e12	-0.43626457
201	0xbe69d396	-0.2283462
202	0x3e9686b8	0.29399657
203	0xbd338b23	-0.043833863
204	0x3dd29f3f	0.1028428
205	0xbd93087d	-0.071793534
206	0xbddb7a9d	-0.10716746
207	0xbe7327d8	-0.23745668
208	0xbdb5be1c	-0.08874151
209	0xbd477544	-0.048695818
210	0x3e01c397	0.12672268
211	0x3bd0e3d1	0.006374814
212	0x3d073290	0.033007205
213	0xbdf9842f	-0.12183415
214	0x3cbbdb7f	0.022931812
215	0xbd320ee2	-0.043471225
216	0x3dcbc2f3	0.09949293
217	0xbe1945d3	-0.14968042
218	0x3ca37121	0.019951405
219	0x3d1b48d8	0.037911266
220	0xbe094842	-0.1340647
221	0xbc96b793	-0.018398082
222	0xbd5bdb3b	-0.05367587
223	0x3d8f0da9	0.06985027
224	0xbfa87888	-1.3161783
225	0x3ce7eb3c	0.02831041
226	0x3eba93ff	0.36441037
227	0x3c74d02b	0.014942209
228	0x3e1464d0	0.14491582
229	0xbe950155	-0.2910258
230	0xbe2956e9	-0.1653706
231	0xbd4ee45a	-0.05051074
232	0xbdad7492	-0.084695
233	0xbd5bce3b	-0.053663474
234	0x3c861c6d	0.016370976
235	0x3ec2d8c4	0.38056004
236	0xbd4f1ad2	-0.050562687
237	0xbc1feada	-0.009760583
238	0xbe0f75b4	-0.14009744
239	0xbed2bb27	-0.4115841
240	0xbdbab895	-0.091172375
241	0xbe8791d4	-0.26478446
242	0xbe55d67c	-0.208826
243	0x3e0c99c7	0.13730536
244	0xbf0f851f	-0.560625
245	0x3dab7582	0.08372022
246	0xbe04be49	-0.12963213
247	0xbe69247d	-0.22767825
248	0x3ef27d48	0.47361207
249	0x3d02a066	0.03189125
250	0xbdc6f92c	-0.097154945
251	0xbe443c5f	-0.19163655
252	0xbdf068a0	-0.11738706
253	0xbe743607	-0.23848735
254	0x3e3774da	0.17915669
255	0x3eb376d2	0.3505159

layers.0.base_linear.weight f4 [90, 195]
0	0xbdba901c	-0.09109518
1	0x3e89bebd	0.26903334
2	0xbdea84f1	-0.11451138
3	0x3c93970f	0.018016366
4	0x3cd58f11	0.026069196
5	0x3df0e473	0.11762323
6	0x3eee2ac4	0.46517003
7	0xbe22e95d	-0.15909334
8	0xbf0617f5	-0.52380306
9	0x3cb8f647	0.022578372
10	0x3ec07231	0.3758712
11	0xbaed05af	-0.0018083359
12	0x3e8ab2a6	0.27089423
13	0x3e6b142e	0.22956917
14	0x3e141102	0.14459613
15	0x3f2b435c	0.6689966
16	0x3ed1e934	0.40998232
17	0xbf31d7a8	-0.6946969
18	0x3d453815	0.048149187
19	0x3e30e5da	0.17275181
20	0x3e012b36	0.1261414
21	0x3f145e6c	0.57956576
22	0x3f19cc4c	0.6007736
23	0xbd98e390	-0.07465279
24	0x3e0c73cf	0.13716052
25	0xbf85d85f	-1.0456656
26	0x3d2715dd	0.040792335
27	0x3e262d59	0.16228236
28	0x3ed6aeb2	0.41930157
29	0x3cdfdab4	0.027325965
30	0x3e40d335	0.18830569
31	0x3e9fe46b	0.31228957
32	0xbeef407f	-0.46728894
33	0x401838ea	2.3784738
34	0xc00a087c	-2.1567678
35	0xbf11eb0a	-0.56999266
36	0xbed94746	-0.4243719
37	0x3e21aef4	0.15789396
38	0x3e56e051	0.20984007
39	0xbd22d5f7	-0.039754834
40	0x3e5885e6	0.21144828
41	0xbd31c0ec	-0.043396875
42	0x3d15daee	0.03658574
43	0xbd57f07a	-0.05271957
44	0x3e1c34ec	0.15254563
45	0x3eff4705	0.4985887
46	0xbdfa97d3	-0.122359894
47	0xbeee2bec	-0.46517885
48	0x3e180827	0.1484686
49	0x3f5780d1	0.84180933
50	0xbdd5023e	-0.10400818
51	0x3ec2083d	0.3789691
52	0x3e1b8cf5	0.1519049
53	0x3ca9d753	0.020732557
54	0x3f0306a6	0.5118202
55	0x3efb91e0	0.4913473
56	0xbf70ef94	-0.9411557
57	0x3d81e50a	0.06342514
58	0x3e05ecc2	0.13078597
59	0x3e0fdfb1	0.14050175
60	0x3f29a551	0.6626788
61	0x3f00df11	0.5034037
62	0xbed06231	-0.40699914
63	0x3e25c11c	0.16186947
64	0xbf462aba	-0.77408946
65	0x3dd4a47f	0.10382938
66	0x3e91c246	0.2846853
67	0x3f044332	0.5166503
68	0x3dfbfd76	0.12304203
69	0x3cd4cd0c	0.02597668
70	0x3f803d8e	1.0018785
71	0xbcbec83d	-0.02328884
72	0x3fa1c7cb	1.2639097
73	0xbf5989b9	-0.84975773
74	0xbe50b434	-0.20381242
75	0xbe44db58	-0.19224298
76	0x3df4c069	0.11950762
77	0x3e6a70b6	0.22894558
78	0xbbf9a8fd	-0.007619022
79	0x3d6cfcef	0.057858404
80	0xbd481149	-0.04884461
81	0x3e11b169	0.14227833
82	0xbe3b331a	-0.18281212
83	0x3e6c37e8	0.23068202
84	0x3f0b5592	0.54427445
85	0xbe69e7b1	-0.2284229
86	0xbf08db6d	-0.5345982
87	0x3e605a7a	0.21909514
88	0x3f7b5a4c	0.9818466
89	0xbe4e47a3	-0.20144515
90	0x3eaad467	0.33365175
91	0x3d487496	0.04893931
92	0x3e77bf4c	0.24194068
93	0x3f37bdc7	0.7177395
94	0x3eb79727	0.35857508
95	0xbf9afdec	-1.2108741
96	0x3e65ed15	0.22453721
97	0x3e82f721	0.2557917
98	0x3e792684	0.24331099
99	0x3f1fdc41	0.62445456
100	0x3eca4d3a	0.39512044
101	0xbed1afba	-0.4095438
102	0x3d16c7bf	0.036811586
103	0xbf19c18a	-0.6006094
104	0x3e21d233	0.15802841
105	0x3e88ab31	0.2669311
106	0x3eb0bd74	0.3451954
107	0x3e51cef4	0.20489103
108	0xbd0affdf	-0.033935424
109	0x3d643ee7	0.05572405
110	0x3db5b986	0.088732764
111	0x3fc45a77	1.5340108
112	0xbf13b43a	-0.5769688
113	0xbdb8735e	-0.090063795
114	0xbdf08af0	-0.1174525
115	0x3e00970a	0.12557617
116	0x3e3c252f	0.1837356
117	0x3e3db75c	0.18526977
118	0xbe01e322	-0.126843
119	0x3bb36ee8	0.0054758675
120	0x3eb2e25c	0.34938323
121	0xbda3fdce	-0.08007394
122	0x3ea28417	0.31741402
123	0x3f42be07	0.7607121
124	0xbdb072a8	-0.08615619
125	0xbdcb6fe7	-0.09933453
126	0x3ecea839	0.4036272
127	0x3fa85c27	1.3153123
128	0xbe049500	-0.12947464
129	0x3f2d4aee	0.6769246
130	0x3e47c0bd	0.19507118
131	0x3e8550dd	0.26038256
132	0x3f71c1bd	0.94436246
133	0x3e73f0d2	0.23822334
134	0xbf9c0f76	-1.2192218
135	0x3df4b61f	0.11948799
136	0x3ebacead	0.36485806
137	0x3ed75668	0.4205811
138	0x3ef5993f	0.4796848
139	0x3eda890f	0.42682692
140	0xbe2e0200	-0.1699295
141	0x3d6272a0	0.055285096
142	0xbef3d168	-0.47620702
143	0x3ec215f7	0.37907383
144	0x3e3f514b	0.18683355
145	0x3e9b51de	0.30335897
146	0x3ec48964	0.3838607
147	0xbd2827bf	-0.04105353
148	0xbcb9633e	-0.02263033
149	0x3ea10480	0.31448746
150	0x3fa64f04	1.2992864
151	0xbf4e6a73	-0.8063118
152	0xbc354c22	-0.011065515
153	0xbe16c33b	-0.14722912
154	0x3e54f13f	0.20795153
155	0x3e9ad3af	0.30239627
156	0x3eac40de	0.3364324
157	0xbd7238fa	-0.05913637
158	0x3df2fbcd	0.118644334
159	0x3e849ebd	0.25902358
160	0xbda5b534	-0.080912024
161	0x3e5263f5	0.20545943
162	0x3f879717	1.0592984
163	0xbe0f3884	-0.13986403
164	0xbdd6f9b0	-0.10496843
165	0x3eee52a7	0.46547434
166	0x3fa2feb9	1.2733985
167	0xbae93c92	-0.0017794541
168	0x3f8289e1	1.0198327
169	0x3dfb928b	0.1228381
170	0x3e49a74f	0.1969273
171	0x3fa1e900	1.2649231
172	0x3dc9c02b	0.09851106
173	0xbf8068aa	-1.0031941
174	0x3cfa3005	0.030540476
175	0xbc6f1282	-0.014591815
176	0x3f47dc58	0.7807059
177	0x3f40cd8a	0.7531363
178	0x3f110f02	0.56663525
179	0x3ecec1d7	0.40382263
180	0x3e288812	0.16458157
181	0xbf0e93f1	-0.5569449
182	0x3ef902f1	0.48635057
183	0x3e957c59	0.29196432
184	0x3db61cfb	0.08892246
185	0x3e677107	0.2260171
186	0xbd84ad56	-0.06478374
187	0x3f8d5d7a	1.1044152
188	0x3f2f6a42	0.6852151
189	0x4029a927	2.6509492
190	0xbf935bd5	-1.15124
191	0xbf257268	-0.64627695
192	0xbe4b8a59	-0.19876994
193	0x3f84bd98	1.037036
194	0x3e7ec102	0.24878314
195	0xbd1d5d9f	-0.038419362
196	0x3d8a4309	0.06751067
197	0x3e596a7c	0.21232027
198	0xbe862411	-0.2619939
199	0xbe81b72b	-0.2533506
200	0x3d671f33	0.05642624
201	0x3cca8ea7	0.024726225
202	0xbe47ac34	-0.19499284
203	0xbf2690f2	-0.6506492
204	0xbf0247ae	-0.50890625
205	0x3e251d98	0.1612457
206	0xbd804a5b	-0.06264182
207	0xbe16e5f0	-0.14736152
208	0xbea734da	-0.3265751
209	0xbd9a4e00	-0.075344086
210	0xbe803c09	-0.25045803
211	0x3d355271	0.044268075
212	0xc0027a60	-2.0387192
213	0xbd801e08	-0.06255728
214	0xbf5d9dbb	-0.865688
215	0x3f10c971	0.56557375
216	0x3e8b403c	0.27197444
217	0x3e53982a	0.20663515
218	0x3f346f76	0.70482576
219	0x3e77d733	0.24203186
220	0x3eb87421	0.360261
221	0xbf2c1550	-0.6722002
222	0x3ed0c849	0.40777805
223	0xbf8d217f	-1.1025847
224	0xbe83a3da	-0.25710946
225	0x3cce12a4	0.025155373
226	0x3dfa848b	0.12232312
227	0xbeae9f81	-0.34106067
228	0xbf55aab9	-0.8346363
229	0x3fb87e58	1.4413557
230	0x3e3a1831	0.18173291
231	0x3e14c15e	0.14526889
232	0x3e3c09d7	0.18363129
233	0x3d9424b0	0.0723356
234	0xbdc4e18b	-0.096133314
235	0x3d168b1d	0.036753763
236	0x3dd11db9	0.10210747
237	0xbe3ede63	-0.18639521
238	0xbcf2b417	-0.02962689
239	0xbd6e5f3d	-0.058196295
240	0x3e22c429	0.15895142
241	0xbdb74ea9	-0.0895055
242	0xbf15aefa	-0.5847012
243	0xbe95cfd4	-0.29260123
244	0x39d825e6	0.00041226967
245	0xbe4a8e26	-0.19780788
246	0xbc9d1a7c	-0.019177668
247	0xbe8c485c	-0.27398956
248	0xbe3aa9da	-0.18228856
249	0xbe211b01	-0.15732957
250	0xbd34d3bd	-0.04414724
251	0xbfb5d746	-1.4206321
252	0xbb104513	-0.0022013828
253	0xbf4ec258	-0.80765295
254	0x3e37fac4	0.17966753
255	0x3ece8d66	0.40342253

layers.0.base_linear.bias f4 [90]
0	0xbd55cf8e	-0.052199893
1	0x3d8e01cc	0.069339365
2	0xbd0e3460	-0.034717917
3	0x3c7494c7	0.014928049
4	0xbd1e293d	-0.038613547
5	0x3ce1125d	0.027474577
6	0xbd7c9953	-0.06166966
7	0xbd101af2	-0.035181947
8	0x3d1cb6b7	0.038260188
9	0x3cf9288a	0.030414838
10	0xbda1106d	-0.07864461
11	0xbd6a47f1	-0.057197515
12	0x3d661a94	0.05617769
13	0x3d5a2ddb	0.053266387
14	0x3c934269	0.017976003
15	0x3d3b0c47	0.045666005
16	0x3da64a24	0.0811961
17	0x3c42886e	0.011873348
18	0x3c9c0b0b	0.019048234
19	0x3c49ed68	0.0123246685
20	0xbd9c1bf4	-0.07622519
21	0xbdbae922	-0.09126498
22	0xbb6a6854	-0.003576775
23	0xbd82cb6f	-0.06386458
24	0xbc975fb2	-0.018478248
25	0xbd598d68	-0.05311337
26	0xbd8fe1e6	-0.070255086
27	0x3d2599d5	0.04042991
28	0xbd0ebae8	-0.034846216
29	0xbb1af73b	-0.0023645896
30	0xbb0b5a93	-0.0021263703
31	0xbd0c930d	-0.034319926
32	0xbdabefc8	-0.08395344
33	0xbcdb4728	-0.026767328
34	0xbb56fcbc	-0.003280445
35	0x3c6e6c87	0.014552242
36	0x3c9e487c	0.019321673
37	0xbd8a83bc	-0.067634076
38	0x3c51ee63	0.0128131835
39	0xbd84ea0a	-0.06489952
40	0xba3ce0a8	-0.0007205107
41	0x3c13edcf	0.009028866
42	0xbd6a61d6	-0.05722221
43	0xbd5c456e	-0.05377715
44	0xbd2c55d2	-0.042074032
45	0x3d06b998	0.03289184
46	0x3da6b83b	0.08140608
47	0xbd448b0f	-0.04798418
48	0xbba40ed5	-0.005006651
49	0x3ba798e4	0.0051146615
50	0xbd4d275a	-0.050086357
51	0xbd9c2626	-0.07624464
52	0x3c333a1e	0.010939149
53	0x3c73c169	0.014877656
54	0x3d083f33	0.033263396
55	0x3d69e523	0.057103287
56	0x3d0e23fc	0.034702286
57	0x3d00952b	0.031392258
58	0xbd4c3e84	-0.049864307
59	0xbd5c3b34	-0.053767398
60	0x3d010143	0.031495344
61	0x3cc427c5	0.023944745
62	0x3c10fc68	0.008849241
63	0xbd0c3392	-0.03422887
64	0x3d0b2261	0.033968333
65	0xbd8c697c	-0.06856057
66	0x3c5d9272	0.013523685
67	0xbc0ebb7c	-0.008711692
68	0x3d648ca0	0.055798173
69	0xbb296f0a	-0.0025853538
70	0xbd6ba014	-0.05752571
71	0x3cbc9bf8	0.02302359
72	0xbc0f93f5	-0.008763303
73	0xbd335703	-0.043784153
74	0xbc733cb0	-0.014846012
75	0xbc15efdf	-0.009151428
76	0xbcb11e9d	-0.021621043
77	0xbd32cc2c	-0.043651745
78	0x3c5c7e28	0.013457812
79	0x389af1ec	7.388354e-05
80	0xbd10cca0	-0.035351396
81	0xbd238cc4	-0.039929166
82	0xbd542e4b	-0.05180196
83	0x3c467dd4	0.012114961
84	0xbd6b93ae	-0.057513885
85	0xbd8c1fb0	-0.068419814
86	0xbc9135d6	-0.017725866
87	0x3c5cd57c	0.013478633
88	0x3b920b56	0.0044569178
89	0x3c5efa84	0.013609532

layers.1.layernorm.weight f4 [90]
0	0x3fc41f3a	1.532203
1	0x4002a105	2.0410779
2	0x3fd6c45e	1.6778677
3	0x3fd2f635	1.6481386
4	0x3fb2af05	1.3959662
5	0x3fc36af4	1.5267015
6	0x3f9e63b1	1.2374173
7	0x3fbe455e	1.4864919
8	0x3fb8ad66	1.4427917
9	0x3fca1266	1.5786865
10	0x3fbdf71c	1.4841037
11	0x3fcf826b	1.6211675
12	0x3fe761e5	1.807675
13	0x3fd78e3e	1.6840284
14	0x3fd4c82c	1.6623588
15	0x3fcaa600	1.5831909
16	0x3ff42907	1.907502
17	0x3fad28da	1.3528092
18	0x3fc7a148	1.5596094
19	0x3ff70b4e	1.9300325
20	0x3fcbdc9b	1.5926698
21	0x400d5e44	2.2088785
22	0x3fc4ae43	1.536568
23	0x3fb7b66a	1.4352543
24	0x3fb9fbc3	1.4529957
25	0x3fbb7272	1.4644301
26	0x40011272	2.0167508
27	0x3fd713e7	1.6802949
28	0x3fb87b12	1.4412558
29	0x3fb13eca	1.3847287
30	0x3fbcfdda	1.4764969
31	0x3ffd6a08	1.9797983
32	0x3fedb472	1.8570693
33	0x3fc77509	1.5582591
34	0x3f8d4527	1.1036729
35	0x40015d1e	2.0213084
36	0x3fe102ad	1.7578942
37	0x3fefd707	1.8737496
38	0x3fc0d8f8	1.5066214
39	0x3fef6768	1.8703432
40	0x400ab217	2.1671197
41	0x3ff8c4a7	1.9435014
42	0x4040193d	3.0015404
43	0x3fe26f5e	1.7690237
44	0x3fd1bb45	1.6385275
45	0x3fd84f2d	1.6899163
46	0x3fcd08cc	1.601831
47	0x3f9dfa30	1.2341976
48	0x3fda2c41	1.7044755
49	0x40196b6a	2.397181
50	0x3fe95610	1.8229389
51	0x3fbe92dd	1.4888569
52	0x3fc935f1	1.5719587
53	0x3fc2457c	1.5177455
54	0x3fb8940f	1.4420184
55	0x3fedd0b5	1.8579317
56	0x3fe79a47	1.8093957
57	0x3fd5e805	1.6711432
58	0x3fcaa6e0	1.5832176
59	0x3fa923b3	1.321402
60	0x3fb3086a	1.3986943
61	0x3fd140c9	1.6347896
62	0x3fc4b08f	1.5366381
63	0x3fb64858	1.4240828
64	0x3fc6d0d4	1.5532479
65	0x3fd4225d	1.6572987
66	0x3fddf374	1.7339921
67	0x3fcc468a	1.5959027
68	0x3fd718d4	1.6804452
69	0x3fefeb15	1.8743616
70	0x3fb18cef	1.3871135
71	0x3fd9bed2	1.7011359
72	0x3fdbb4c6	1.7164543
73	0x3fe3c072	1.7793105
74	0x4008c85b	2.1372287
75	0x3fd61fd6	1.6728466
76	0x3ff49aa7	1.9109696
77	0x3fc4cf3d	1.5375744
78	0x40050ad8	2.0787868
79	0x3fd492b8	1.6607275
80	0x3fad707e	1.3549955
81	0x3f8ac8f0	1.0842571
82	0x3fd9e8aa	1.7024128
83	0x4003f917	2.0620782
84	0x3fe5eafd	1.7962338
85	0x3fd48ebb	1.6606058
86	0x3fb939df	1.4470786
87	0x3fd29bc8	1.6453791
88	0x3fc74913	1.5569175
89	0x3fcd826b	1.6055425

layers.1.layernorm.bias f4 [90]
0	0x3dfc3878	0.12315458
1	0x3ccde5ef	0.025134055
2	0x3d99478b	0.07484349
3	0x3e66bde9	0.22533382
4	0xbdc282de	-0.09497617
5	0x3e035f52	0.1282933
6	0x3ddcc584	0.107798606
7	0x3de0a969	0.109698124
8	0x3da32c16	0.07967393
9	0x3d35d3d8	0.044391483
10	0xbc4ff085	-0.012691622
11	0xbebf0b65	-0.3731338
12	0xbdb15cd7	-0.08660286
13	0xbde5f914	-0.112291485
14	0xbd2cef19	-0.04222021
15	0xbc802a9d	-0.01564532
16	0xbd034407	-0.032047298
17	0x3d8f1538	0.06986469
18	0x3d723818	0.059135526
19	0x3dbf6065	0.09344558
20	0x3ea2fe6b	0.3183473
21	0xbf0f5fd4	-0.560056
22	0xbdd61b35	-0.10454408
23	0xbcdfc576	-0.027315836
24	0x3d2d103f	0.04225182
25	0x3de61ade	0.11235593
26	0xbf59b179	-0.85036427
27	0x3db66037	0.0890507
28	0x3df8fc2f	0.12157475
29	0x3db1736f	0.08664595
30	0xbe374a7b	-0.17899506
31	0x3ddc8d04	0.10769084
32	0xba6d402b	-0.00090503943
33	0xbccb9fb2	-0.024856422
34	0x3d9b9a35	0.07597772
35	0x3eed6a7c	0.46370304
36	0xbef62362	-0.4807387
37	0xbc2ca42c	-0.0105371885
38	0x3dea8b9b	0.11452409
39	0x3e49e0f2	0.19714716
40	0xbf4820b1	-0.78174883
41	0x3df95b34	0.12175599
42	0xbf9eb622	-1.2399333
43	0x3da99de8	0.08282071
44	0xbe4a848a	-0.19777122
45	0x3ec30ea6	0.38097113
46	0x3e9ea9d3	0.3098894
47	0xbd2702e2	-0.040774234
48	0xbd8274af	-0.06369912
49	0x3ef1fc04	0.47262585
50	0x3e5be6f6	0.21474823
51	0x3e107adb	0.14109366
52	0xbe87ad0f	-0.2649922
53	0x3cb0d88c	0.021587633
54	0xbeae8b84	-0.34090817
55	0xbe2ee41f	-0.17079209
56	0xbe57b2e6	-0.21064338
57	0x3e33b3cf	0.1754906
58	0xbdae8576	-0.085215494
59	0x3dbcf66f	0.09226691
60	0xbd246c7e	-0.04014253
61	0xbda95140	-0.0826745
62	0x3e018dfe	0.12651822
63	0x3cdcc22c	0.026948057
64	0x3cb29a8e	0.021802213
65	0x3dca91be	0.09891079
66	0x3e18bc81	0.14915659
67	0xbc227175	-0.009914746
68	0x3df3094d	0.11867008
69	0x3e07eb11	0.13273264
70	0x3d5484e3	0.051884543
71	0x3e2a4bb8	0.16630447
72	0x3ca8e368	0.020616248
73	0x3efc0958	0.4922588
74	0xbd2f066b	-0.04273073
75	0x3b800266	0.003906536
76	0x3e863324	0.26210892
77	0xbd88430f	-0.066534154
78	0x3dd258a1	0.10270811
79	0xbe08709f	-0.13324212
80	0xbe708698	-0.23488843
81	0x3d0db18a	0.034593143
82	0xbe2be923	-0.16788153
83	0xbf21c985	-0.6319812
84	0x3f0be659	0.5464836
85	0xbe0b03e8	-0.13575709
86	0xbe01d160	-0.12677526
87	0x3e2bd69f	0.1678109
88	0x3cc840f9	0.024445044
89	0xbdb9d3f0	-0.09073627

layers.1.rbf.grid f4 [4]
0	0xc03d7bdf	-2.9606855
1	0xbf9f7cf9	-1.2460014
2	0x3eeff73c	0.46868312
3	0x400bbc4a	2.1833673

layers.1.spline_linear.weight f4 [90, 360]
0	0x3e01bcc7	0.12669669
1	0x3d2a1fa9	0.0415341
2	0x3ccdd2eb	0.025124988
3	0xbedc8ebb	-0.43077645
4	0x3ecb9b35	0.3976685
5	0x3d3df16e	0.046372823
6	0xbdd138eb	-0.10215934
7	0x3d8c52d6	0.06851737
8	0x3f2daaab	0.67838544
9	0x3e1cbab6	0.153056
10	0xbec4b518	-0.38419414
11	0xbe1f0c3e	-0.15532014
12	0xbcd071a3	-0.025444811
13	0x3d9139b7	0.07091086
14	0x3e1145dd	0.14186807
15	0x3eca41dc	0.39503372
16	0xbe5be3cc	-0.21473616
17	0x3ce120ec	0.027481519
18	0x3d75fada	0.060053684
19	0x3e51afda	0.20477238
20	0xbea41eaf	-0.3205466
21	0x3c27b81a	0.010236764
22	0x3bb702e9	0.0055850637
23	0xbe94e5f5	-0.29081693
24	0x3f02c739	0.5108524
25	0x3c63777e	0.01388347
26	0xbd97ed63	-0.07418325
27	0xbbf64338	-0.0075153373
28	0xbe5e2d3f	-0.21696948
29	0x3dba5ceb	0.09099754
30	0x3e001893	0.12509374
31	0x3dbb8297	0.091557674
32	0x3e90fa86	0.28316134
33	0x3e215d92	0.1575835
34	0xbdc46859	-0.09590215
35	0xbef33849	-0.4750388
36	0x3e9b7d00	0.30368805
37	0x3c9895a4	0.018626042
38	0xbe83dfa1	-0.25756553
39	0x3e5ea9e2	0.21744493
40	0x3cc04bcf	0.023473648
41	0x3e04530b	0.12922303
42	0x3dbc34f2	0.09189786
43	0xbf1212fb	-0.5706021
44	0x3cb04949	0.02151932
45	0x3cb642b3	0.022248602
46	0xbe7d0fd2	-0.24713066
47	0x3e075d41	0.13219167
48	0x3e3ef6b1	0.18648793
49	0x39a91934	0.0003225297
50	0x3d5a0bea	0.05323402
51	0xbd7d2393	-0.061801504
52	0xbd93a333	-0.07208862
53	0x3e481194	0.19537956
54	0xbdc5efc9	-0.09664876
55	0xbdac029b	-0.083989345
56	0x3ca71bab	0.020398935
57	0x3e7bde7c	0.2459659
58	0x3e17d0fe	0.14825818
59	0xbf0d5b0a	-0.5521704
60	0xbf077a9c	-0.5292146
61	0xbeaaf7d7	-0.33392212
62	0x3e8aa5ec	0.27079713
63	0x3e0cac71	0.13737656
64	0x3ea273b9	0.31728914
65	0x3e7ce1fc	0.24695581
66	0x3e4c694b	0.19962041
67	0xbdf12837	-0.117752485
68	0x3ece6799	0.40313414
69	0xbe2c846e	-0.16847393
70	0xb9fdf839	-0.0004844086
71	0x3eb260a7	0.34839365
72	0x3bfb9164	0.007677244
73	0x3d731225	0.059343476
74	0xbd6c46e4	-0.057684794
75	0x3eb5b06c	0.35486162
76	0xbe904406	-0.28176898
77	0xbdaadc47	-0.08342796
78	0xbca490e7	-0.020088626
79	0x3eed6b9c	0.46371162
80	0x3e1f2d01	0.15544511
81	0xbea0dea9	-0.31419876
82	0x3d1bdd7d	0.038053025
83	0x3ec92023	0.3928233
84	0x3ee83e6b	0.4536012
85	0x3ee7b8cc	0.45258176
86	0x3e80d3a7	0.25161478
87	0x3f195c5b	0.5990655
88	0xbe99f349	-0.30068424
89	0x3cacd13f	0.02109587
90	0x3d26b15f	0.040696498
91	0xbdb94304	-0.09045985
92	0xbe28f806	-0.16500863
93	0xbd2d3dfa	-0.042295434
94	0x3e8e6eb8	0.27818847
95	0x3e5a3827	0.21310483
96	0xbdf1c9aa	-0.118060425
97	0xbe118a6c	-0.1421296
98	0x3d5a4595	0.053289015
99	0x3ec535fa	0.38517743
100	0x3e3c87e7	0.18411218
101	0xbe2cea1a	-0.16886178
102	0xbd74a197	-0.059724417
103	0xbdd04f8f	-0.101714246
104	0x3efb5737	0.49089977
105	0x3e7ed338	0.24885261
106	0xbe83d39f	-0.25747392
107	0xbd24d177	-0.040238824
108	0xbe5ee736	-0.21767887
109	0xbe019a9b	-0.12656634
110	0x3da80b47	0.08205276
111	0x3d4dba91	0.05022675
112	0x3f53f217	0.82791275
113	0x3ec541f5	0.38526884
114	0xbe57fe87	-0.21093188
115	0xbe5462d0	-0.20740819
116	0xbde921e9	-0.11383421
117	0xbd8f4961	-0.06996418
118	0x3d6af690	0.057364047
119	0xbd473c38	-0.048641413
120	0x3f034214	0.512727
121	0x3b9e3117	0.0048276293
122	0x3d802af5	0.062581934
123	0x3d468230	0.048464
124	0xbed1e5ea	-0.40995723
125	0xbe659ada	-0.22422352
126	0x3e8ba7ea	0.27276546
127	0x3e6b6bdb	0.22990362
128	0x3b796953	0.0038057163
129	0x3e541d27	0.20714246
130	0x3e157365	0.14594801
131	0xbec41884	-0.38299954
132	0xbf3c90f1	-0.73658663
133	0xbea9c06e	-0.33154625
134	0xbc5aa485	-0.013344889
135	0x3e963d7f	0.29343793
136	0xbe23b457	-0.15986763
137	0x3dd14964	0.10219076
138	0x3ce58e64	0.028021999
139	0xbc30dbd8	-0.010794602
140	0xbddc91e4	-0.10770014
141	0x3e48bc01	0.19602968
142	0xbe6f17e4	-0.23348957
143	0x3dfdc84c	0.12391719
144	0xbf2790d0	-0.6545534
145	0xbe9cd244	-0.3062917
146	0x3e6d7031	0.23187329
147	0x3e094ec7	0.13408957
148	0x3ec47e28	0.383775
149	0x3d7fda2b	0.06246392
150	0xbe018e58	-0.12651956
151	0xbf1d6d7d	-0.6149519
152	0x3e05ba2e	0.13059303
153	0x3e68af04	0.22723013
154	0xbd2dd362	-0.04243792
155	0xbec97cdb	-0.3935307
156	0xbe967274	-0.29384196
157	0x3cf3bb95	0.029752532
158	0x3ddcc172	0.10779084
159	0xbe76b263	-0.24091487
160	0xbd939efd	-0.07208059
161	0x3e3b2a4f	0.18277858
162	0x3e9388a6	0.28815192
163	0x3f017346	0.5056652
164	0xbe307a6e	-0.17234203
165	0x3da20121	0.079103716
166	0xbde6dcf2	-0.11272611
167	0xbe825de8	-0.2546227
168	0xbfba4c97	-1.4554623
169	0xbf23c3ca	-0.63970625
170	0x3e7af4f2	0.24507502
171	0x3e0d5773	0.1380289
172	0x3cb04a11	0.021519693
173	0xbe66d4c8	-0.22542107
174	0xbdbd1db3	-0.0923418
175	0x3ef10510	0.47074175
176	0x3eb38bf2	0.35067707
177	0xbdd55794	-0.10417095
178	0xbec4e0db	-0.384528
179	0xbf7af211	-0.98025614
180	0x3eb67b73	0.3564106
181	0x3ecbefdf	0.39831445
182	0x3e106c99	0.14103927
183	0x3d547010	0.051864684
184	0x3e687ca0	0.2270379
185	0x3eadbcb5	0.33933035
186	0x3d337110	0.043808997
187	0xbde31848	-0.11088616
188	0x3d746e99	0.059675787
189	0x3de5424e	0.11194287
190	0x3d8d14e2	0.06888749
191	0x3dffa4e6	0.12482624
192	0x3d3ad646	0.045614503
193	0xbcbfd0d9	-0.023415016
194	0xbdeb646a	-0.11493762
195	0x3e5a77d9	0.21334781
196	0xbf6209d0	-0.8829622
197	0xbd85cdf0	-0.0653342
198	0x3e501dcb	0.20323865
199	0x3e94e5b7	0.2908151
200	0x3f14c976	0.58119905
201	0xbe12d1dd	-0.14337869
202	0xbcc483bd	-0.023988599
203	0x3d02fea7	0.031981137
204	0x3f0d2e93	0.5514919
205	0x3d1cc308	0.038271934
206	0xbc0bc253	-0.008530217
207	0xbdfe009e	-0.124024615
208	0x3cd2bc36	0.025724512
209	0x3d79893f	0.060921904
210	0x3c5e08cf	0.013551905
211	0xbe0e38d1	-0.13888861
212	0xbe88e8e2	-0.26740175
213	0x3d9185c9	0.071055956
214	0xbcf2491d	-0.029575879
215	0xbe7bd66f	-0.24593519
216	0x3f3663c5	0.71245986
217	0x3def5a57	0.11687153
218	0x3e4dcddd	0.20098062
219	0x3f1a876f	0.60362905
220	0xbf3b9985	-0.7328113
221	0xbdfe637b	-0.12421318
222	0x3e3a112f	0.18170618
223	0x3e458608	0.1928941
224	0x3ec3fe62	0.38280016
225	0x3ae90415	0.0017777706
226	0xbcdc6dcb	-0.026907822
227	0xbd17475d	-0.03693329
228	0x3e7d77e2	0.24752763
229	0x3ecdb5cd	0.40177765
230	0x3cf60f6f	0.030036656
231	0xbde38c99	-0.11110801
232	0xbe3c2612	-0.18373898
233	0x3c8af63b	0.016963115
234	0x3e8fa39a	0.28054506
235	0x3ef06016	0.46948308
236	0xbd6f94e6	-0.05849161
237	0xbcd4f5a5	-0.025996039
238	0x3d3c18f6	0.045922242
239	0x3ec5e3d6	0.38650388
240	0xbd9ab2fe	-0.07553671
241	0xbd6f366b	-0.058401506
242	0x3e39355d	0.18086763
243	0x3eb22750	0.34795618
244	0x3e1bc057	0.1521009
245	0x3e3736f9	0.17892064
246	0xbdbe1db9	-0.09283013
247	0xbeaef4b3	-0.34171066
248	0xbdf78d4a	-0.120874956
249	0x3dfd4d10	0.12368214
250	0x3dbb639c	0.09149858
251	0xbd4371e9	-0.047716055
252	0x3e891bed	0.26779118
253	0x3e56db7d	0.20982166
254	0xbe9dd2fa	-0.30825025
255	0xbe1db446	-0.154008

layers.1.base_linear.weight f4 [90, 90]
0	0xbe335448	-0.1751262
1	0x3e98a0cc	0.29810178
2	0xbe81c350	-0.25344324
3	0x3d4bbda1	0.04974139
4	0x3e11ba4d	0.14231224
5	0x3e01a0a0	0.1265893
6	0xbe624a66	-0.22098693
7	0x3edf3833	0.43597564
8	0xbf0a79fc	-0.54092383
9	0xbe8e64c3	-0.2781125
10	0xbe81efc8	-0.2537825
11	0x3e90d759	0.28289297
12	0xbe3d9815	-0.18515046
13	0xbdbe7155	-0.0929896
14	0xbe2690c7	-0.16266166
15	0x3e872a5e	0.2639951
16	0xbf0f60f5	-0.5600732
17	0xbeb1dc37	-0.34738323
18	0xbd969470	-0.07352531
19	0xbdd43fdb	-0.10363742
20	0xbd8152ff	-0.063146584
21	0x3ef13cf3	0.47116813
22	0xbd3876d5	-0.045035202
23	0x3d08aab4	0.03336592
24	0xbbb068cd	-0.005383587
25	0xbc94cbcc	-0.018163584
26	0x3d574857	0.052559223
27	0xbe7e7bba	-0.24851885
28	0xbf0e96c8	-0.55698824
29	0x3e0e71bf	0.13910578
30	0x3dd7a5fe	0.10529707
31	0x3e99d73b	0.3004702
32	0xbe83f5ec	-0.2577356
33	0x3f269d9f	0.6508426
34	0x3e40f229	0.18842377
35	0xbdfe89f4	-0.12428656
36	0x3d0f0bc5	0.034923334
37	0xbe852dfb	-0.26011643
38	0xbf2a2487	-0.66461986
39	0xbe2c45ab	-0.16823451
40	0x3d34985e	0.04409062
41	0x3e377ac9	0.17917933
42	0xbf879592	-1.059252
43	0x3e0b5400	0.13606262
44	0xbf11e992	-0.56997025
45	0xbd94c7cd	-0.072646715
46	0xbea5d587	-0.3238947
47	0x3e8b06cb	0.2715362
48	0xbe506514	-0.20351058
49	0xbde3d3e1	-0.11124397
50	0x3d07218a	0.03299097
51	0xbeba352f	-0.363687
52	0x3d3b2f9d	0.045699704
53	0xbe1a3b7d	-0.15061755
54	0x3db60638	0.08887905
55	0xbd88a9f6	-0.066730425
56	0xbeb33b35	-0.3500611
57	0xbea16d54	-0.31528723
58	0xbb377aec	-0.002799685
59	0xbee0a89b	-0.43878636
60	0xbebaed1e	-0.3650903
61	0xbe21dcf2	-0.1580694
62	0xbeea50e4	-0.4576484
63	0xbe3c0595	-0.18361504
64	0xbe97cd6d	-0.29648915
65	0xbe41517b	-0.18878739
66	0x3d227ca1	0.039669637
67	0xbdda6a0c	-0.10664758
68	0xbe3ee1b7	-0.18640791
69	0x3e0e7982	0.13913539
70	0x3dbfd71a	0.09367199
71	0x3cb41fee	0.021987882
72	0x3e145c79	0.144884
73	0xbee31869	-0.4435456
74	0xbe8d6a25	-0.27620044
75	0x3e73818c	0.23779887
76	0x3de61b00	0.112356186
77	0xbf3cee7b	-0.7380139
78	0x3e5d0594	0.21584159
79	0x3c492ab3	0.012278247
80	0xbe0741da	-0.13208714
81	0x3e339f3f	0.17541216
82	0xbe0db69f	-0.13839196
83	0x3f4362c8	0.76322603
84	0xbbccb25d	-0.0062468485
85	0xbf0af9a4	-0.5428717
86	0xbdc17acc	-0.0944725
87	0x3e49ef02	0.1972008
88	0x3e499380	0.19685173
89	0xbea1f8bb	-0.3163508
90	0xbe5016d6	-0.20321211
91	0xbd3605a6	-0.04443898
92	0x3e1f717f	0.15570639
93	0xbe16123b	-0.14655392
94	0xbe83fbc5	-0.25778022
95	0x3d31b3ee	0.043384485
96	0x3e703173	0.23456363
97	0x3de12aa5	0.10994462
98	0xbddad455	-0.1068503
99	0x3e024f32	0.12725523
100	0xbd40a145	-0.0470288
101	0xbe6bbcfb	-0.23021309
102	0xbdcf4e22	-0.101223245
103	0xbe377990	-0.17917466
104	0xbd4eb985	-0.050469894
105	0xbe80155b	-0.25016293
106	0x3d734b82	0.05939818
107	0xbe8e4e18	-0.27793956
108	0xbd405dc2	-0.046964414
109	0xbe46677c	-0.19375414
110	0xbe954ee7	-0.2916176
111	0xbe1b94e5	-0.15193518
112	0x3e2330cd	0.15936585
113	0xbd153002	-0.036422737
114	0x3e392a74	0.18082601
115	0x3e1c543c	0.15266508
116	0x3f437c9f	0.7636203
117	0x3db53a80	0.088490486
118	0xbf08ad23	-0.53389186
119	0x3cce831c	0.025209002
120	0x3e54a18c	0.2076475
121	0x3e554916	0.20828661
122	0x3e5c95fc	0.2154159
123	0x3f046882	0.51721966
124	0x3e0f5a23	0.13999228
125	0xbc87ffd6	-0.016601484
126	0x3f4e40db	0.8056771
127	0xbcd25b1b	-0.025678208
128	0x3ce166c9	0.027514832
129	0xbd594111	-0.053040568
130	0xbe2a3a8f	-0.16623901
131	0x3df7a383	0.12091734
132	0x3f3bf3e7	0.7341904
133	0xbd1d523b	-0.0384085
134	0x3e3e56bf	0.18587779
135	0xbdc8655e	-0.09784959
136	0xbed19785	-0.40935913
137	0xbe192f63	-0.14959483
138	0xbe04e223	-0.1297689
139	0xbd89712d	-0.0671104
140	0x3db4bf1c	0.08825514
141	0xbe690aa6	-0.22757968
142	0x3e1d4977	0.15360056
143	0x3e5673b8	0.2094258
144	0x3d132dc8	0.035932332
145	0xbed355f5	-0.41276518
146	0xbea00f05	-0.3126146
147	0x3e644a3a	0.2229394
148	0x3ea269a7	0.3172123
149	0x3c57a699	0.013162279
150	0x3e6a8511	0.22902323
151	0x3e3ae7c9	0.18252482
152	0x3bcaab4b	0.0061849705
153	0x3c8fadbd	0.0175389
154	0xbf01be0a	-0.506806
155	0xbe7a2ba4	-0.2443071
156	0x3f4f1e55	0.8090566
157	0xbe536330	-0.20643306
158	0x3ea2c905	0.3179399
159	0xbe972090	-0.2951703
160	0xbeadbd7d	-0.3393363
161	0x3d7c25f9	0.06155965
162	0x3dbc5294	0.09195438
163	0x3e840520	0.2578516
164	0x3d0bf13d	0.03416561
165	0xbdc14e96	-0.09438817
166	0x3d692c82	0.05692721
167	0xbe53bfb7	-0.20678602
168	0x3e94dac7	0.29073164
169	0x3e6f8068	0.23388827
170	0xbeb384f6	-0.3506238
171	0x3e8b1d8f	0.2717099
172	0x3e56348b	0.20918481
173	0xbeb9e5e7	-0.36308214
174	0xbe3b4995	-0.18289788
175	0xbe5f3541	-0.21797659
176	0xbe70d636	-0.23519215
177	0x3bac1ec3	0.0052526905
178	0x3e50b861	0.20382835
179	0xbd2af6a1	-0.04173911
180	0xbc096af4	-0.008387316
181	0x3ee89931	0.45429376
182	0xbe832726	-0.25615805
183	0x3d5b6267	0.05356064
184	0x3daae6dc	0.08344814
185	0x3d1d50bd	0.038407076
186	0x3e98de22	0.29856974
187	0x3da8fe5d	0.08251641
188	0x3d85aa4e	0.06526624
189	0xbe8868a7	-0.26642343
190	0xbd8c66fa	-0.06855579
191	0xbe91a06d	-0.28442708
192	0x3eab8f27	0.33507654
193	0xbd1baead	-0.03800838
194	0x3e07c0c1	0.13257124
195	0x3e7efa49	0.24900164
196	0x3d9a0cc2	0.075219646
197	0xbf13b12d	-0.57692224
198	0xbe6904a1	-0.22755672
199	0xbefd6ed9	-0.49498633
200	0x3ed8e2e0	0.42360592
201	0x3ea77d1c	0.32712638
202	0x3e17dbae	0.14829895
203	0xbdd4656c	-0.10370907
204	0x3d69ed1e	0.0571109
205	0x3db8fc58	0.09032506
206	0x3e72f413	0.2372592
207	0xbe0ac00a	-0.1354982
208	0xbe800de9	-0.25010613
209	0xbd623f25	-0.055236
210	0x3b99a55b	0.0046889014
211	0x3ebcfedf	0.369132
212	0xbd28c859	-0.04120669
213	0xbb0013fb	-0.001954316
214	0xbe9f0890	-0.3106122
215	0xbe054b55	-0.13017018
216	0x3ebc1807	0.3673708
217	0x3e258537	0.16164099
218	0xbe905557	-0.2819011
219	0x3ed5597d	0.41669837
220	0xbe897a8d	-0.2685131
221	0xbe00e40c	-0.12586993
222	0xbe0e0e25	-0.13872583
223	0xbdb6ac51	-0.089195855
224	0x3ee8e496	0.45486897
225	0x3e7b930a	0.2456781
226	0x3e849cc9	0.25900868
227	0xbd68bfb9	-0.056823466
228	0xbdc2bf02	-0.09509088
229	0xbdf6b028	-0.12045318
230	0xbe6139e6	-0.21994743
231	0x3c18c7c2	0.00932497
232	0x3e6b2843	0.22964577
233	0x3e933b0c	0.28755987
234	0xbe8731d7	-0.26405212
235	0xbd544933	-0.05182762
236	0xbe82143f	-0.25406072
237	0x3e522a0b	0.2052385
238	0x3e4e0d3a	0.20122233
239	0xbecabf6c	-0.39599168
240	0xbea97492	-0.3309675
241	0x3edc71d6	0.430556
242	0xbe5fa5c6	-0.21840581
243	0xbe460ca0	-0.19340754
244	0xbf1111c1	-0.56667715
245	0x3eec5b61	0.46163467
246	0xbd56c7f3	-0.05243678
247	0xbc555962	-0.013021799
248	0x3e68dda0	0.22740793
249	0xbe8a3b37	-0.26998302
250	0xbdc61509	-0.09671981
251	0x3f048fa1	0.5178166
252	0x3cd37720	0.02581364
253	0x3d6e1b38	0.058131427
254	0xbe09281c	-0.13394207
255	0x3e857d0b	0.26071963

layers.1.base_linear.bias f4 [90]
0	0x3dfbb5b8	0.122905195
1	0xbd0ec52c	-0.034856007
2	0xbdb6dc2c	-0.08928713
3	0xbe2875b1	-0.16451146
4	0xbd1036b6	-0.035208426
5	0xbdb28ae7	-0.087179
6	0xbe067053	-0.13128786
7	0xbcdda2bf	-0.027055142
8	0xbca9c7ea	-0.02072521
9	0xbdcacbc1	-0.09902144
10	0xbd888537	-0.06666034
11	0xbd806f96	-0.06271283
12	0xbc384fcd	-0.011249495
13	0xbe6cbe44	-0.23119456
14	0xbd5b2a5d	-0.053507198
15	0xbccef4e7	-0.025263263
16	0xbe093bc3	-0.13401704
17	0xbc9dfcfa	-0.019285668
18	0x3ca254d6	0.019815844
19	0xbd9bfb31	-0.0761627
20	0x3c93fde1	0.018065395
21	0xbdbbfde7	-0.091792874
22	0xbe01c23c	-0.12671751
23	0xbcd853b5	-0.026407102
24	0x3cb26c17	0.021780057
25	0x3dc09758	0.094038665
26	0xbdbda652	-0.09260239
27	0x3d7a3c5e	0.061092727
28	0xbd07db19	-0.033167932
29	0xbe1e73b7	-0.15473829
30	0xbde807a5	-0.11329583
31	0xbe0ff88a	-0.14059654
32	0xbc3e9029	-0.01163105
33	0x3db7feea	0.08984168
34	0xbc888f9c	-0.01667004
35	0x3b065a78	0.00205007
36	0xbe08d3ba	-0.13362017
37	0xbd8a4465	-0.067513265
38	0xbdbcb420	-0.092140436
39	0x3d4562aa	0.048189797
40	0xbe8bebc2	-0.27328306
41	0xbdefa9fc	-0.11702344
42	0xbcd2caad	-0.025731409
43	0xbe0ecf26	-0.13946208
44	0x3d7bbbab	0.06145827
45	0xbd4f3020	-0.050583005
46	0xbdbb8989	-0.09157092
47	0xbe082eaa	-0.13299051
48	0xbcfa7829	-0.030574875
49	0xbe42f051	-0.19036986
50	0xbd6abf9b	-0.057311635
51	0xbdcfab0a	-0.10140045
52	0xbc89c34e	-0.016816761
53	0x3d04392f	0.032281097
54	0xbe12c3f4	-0.14332563
55	0xbdea0288	-0.11426264
56	0xbde062c1	-0.10956336
57	0x3c1cb949	0.00956566
58	0xbe2054f3	-0.15657406
59	0xbda5003d	-0.08056686
60	0xbdc1d26b	-0.09463962
61	0xbcdb11e1	-0.026741924
62	0xbe17bd97	-0.14818417
63	0xbdd35db9	-0.103206106
64	0xbe1d3f9e	-0.153563
65	0xbe16e817	-0.14736973
66	0x3d3737d1	0.044730965
67	0xbdeafc86	-0.11473946
68	0x3d21c18a	0.039491214
69	0xbe2f7aaf	-0.17136644
70	0xbd6c28e4	-0.057656184
71	0x3d24b179	0.040208314
72	0x3dec4c68	0.11538011
73	0xbd814117	-0.06311243
74	0xbd28dd8f	-0.04122692
75	0xbccfa666	-0.0253479
76	0x3bf6164c	0.007509982
77	0xbdaad791	-0.08341897
78	0xbd551673	-0.052023362
79	0x3cf97253	0.030450022
80	0xbca895f6	-0.02057932
81	0x3dba3fe1	0.09094215
82	0xbe461216	-0.19342837
83	0xbe1a8a8c	-0.15091914
84	0xbe3404b7	-0.17579924
85	0xbdec55e3	-0.11539819
86	0x3c2c8b03	0.01053119
87	0xbcf94282	-0.030427221
88	0xbe178c35	-0.14799578
89	0x3c07dd57	0.008292518

layers.2.layernorm.weight f4 [90]
0	0x4009642d	2.1467392
1	0x400bfc51	2.1872752
2	0x3fe10e75	1.7582537
3	0x401e4f73	2.4735992
4	0x3fcb5547	1.58854
5	0x3ffe35f7	1.9860219
6	0x3fdc81f1	1.7227155
7	0x3fed5d75	1.8544146
8	0x3fd8a8c9	1.6926509
9	0x400d15a0	2.204445
10	0x400a8f65	2.165002
11	0x3ffa82a7	1.9571122
12	0x3fed5863	1.8542598
13	0x40124548	2.2854786
14	0x3fc83711	1.5641805
15	0x400e9ea6	2.2284331
16	0x4013ddff	2.3104246
17	0x3f8f8637	1.1212834
18	0x3fe063d1	1.7530462
19	0x3fbe8e04	1.488709
20	0x3ff9f67a	1.9528344
21	0x3fbd28fe	1.4778135
22	0x3fded59c	1.7408938
23	0x4011fd57	2.2810876
24	0x3ffc157e	1.9694059
25	0x3ff1aa9d	1.8880192
26	0x3ffeafa4	1.9897351
27	0x3fe3d017	1.7797879
28	0x3ff1879b	1.8869509
29	0x3fefa409	1.8721935
30	0x3ff3229e	1.8994939
31	0x3fe6143f	1.7974929
32	0x3fdc78bf	1.7224349
33	0x400204b4	2.031537
34	0x3fdc739d	1.7222782
35	0x3fb9f047	1.4526452
36	0x3fc863ef	1.5655497
37	0x4008cf87	2.1376665
38	0x3fd3cee9	1.6547519
39	0x3ff7fce7	1.9374055
40	0x3fca2719	1.5793182
41	0x3ff73323	1.9312481
42	0x40154127	2.3321016
43	0x3fd76a1a	1.6829255
44	0x40166b27	2.35029
45	0x401d13cd	2.4543335
46	0x3fea1255	1.8286844
47	0x4019e9c6	2.4048934
48	0x3febf16a	1.8433049
49	0x3fd8a7b8	1.6926184
50	0x400ee75e	2.2328715
51	0x40119d57	2.2752283
52	0x3ff48367	1.9102601
53	0x3fb8a5fc	1.4425654
54	0x3fd1ed55	1.6400553
55	0x3ff3acb9	1.9037086
56	0x3fce3c17	1.6112088
57	0x403efcae	2.9841723
58	0x401843dc	2.3791418
59	0x3ff930da	1.9468033
60	0x3fda99b3	1.7078155
61	0x401018e8	2.2515202
62	0x3fcde77a	1.6086266
63	0x3fc002c1	1.500084
64	0x3fd1d492	1.6392996
65	0x4009604f	2.1465032
66	0x3fe5a101	1.793976
67	0x402cd810	2.7006874
68	0x401444fb	2.3167102
69	0x3fc9641f	1.573368
70	0x40076e8d	2.1161225
71	0x3feae55d	1.8351246
72	0x4006d396	2.1066642
73	0x3ff6bd40	1.9276505
74	0x40088c6a	2.1335702
75	0x3fa37836	1.277106
76	0x400e8235	2.2266972
77	0x3feef080	1.8667145
78	0x4001bcea	2.0271554
79	0x40227a89	2.538729
80	0x3fb91180	1.4458466
81	0x4003fcd9	2.0623076
82	0x40143532	2.3157468
83	0x3ff8aaa3	1.9427074
84	0x3ff519d3	1.9148506
85	0x3fd4234e	1.6573274
86	0x40100837	2.2505014
87	0x3fd8237b	1.6885828
88	0x3fec7fef	1.8476542
89	0x3fd098bc	1.6296611
