results_N50_tr30_v10_te10/wavelet_kan/best_model.pt (torch, 294114 bytes, 16 tensors)

layers.0.scale f4 [80, 195]
00000000: d91b 863f 9866 6d3f 9ef6 983f 2919 a83f
00000010: 7af5 8a3f 228f 563f 4993 8f3f 3350 a23f
00000020: 9c00 903f 6a02 833f 0970 963f 9fca 4d3f
00000030: 838c 943f 17bc 923f 92d8 a23f c7dc 983f
00000040: cf9d 803f cb6d 903f b04d b43f e0e1 833f
00000050: 9044 b43f 2049 bd3f fa68 973f 61f1 9f3f
00000060: 1332 683f a653 853f aaf4 503f 3416 843f
00000070: aa37 123f 1160 483f d4d2 a33f 8386 6a3f
00000080: 9886 813f 0c5b 873e 8901 283e b883 823f
00000090: afd8 4a3f 978b ba3e 0a61 993f f115 813f
000000a0: 188e 793f 57ca 6b3f 1add a63f 250d 943f
000000b0: da88 513f 07af 833f 28c6 983f d15d 9a3f
000000c0: 7185 923f b863 943f b787 973f 6437 823f
000000d0: b2ac 883f 9ead 8e3f 651c 8c3f 6455 843f
000000e0: ea40 9c3f 0aac bb3f 3346 8c3f fd5a ae3f
000000f0: 8c40 e23f 35c8 863f e109 863f 4c26 753f
00000100: 0034 403f 93fa 5b3f 07b6 533f 573a 963f
00000110: 4d2c ad3f 33ff 9d3f 3258 4f3f 48d9 783f
00000120: d649 473f 7b85 6a3f b99d 1c3f e09b ae3f
00000130: 5a49 4e3f c2d4 a33f 310c 7b3f 2d65 683f
00000140: 1dbc 833f a292 9d3f 04c9 8f3f 793d 523f
00000150: 43d5 623f 1a5c 773f 44be ad3f 89c1 823f
00000160: 7534 943f 34e8 873f 92a2 893f 36d8 843f
00000170: f1eb 873f f9a3 883f 77bb 843f 4370 743f
00000180: 8ea9 b13f 8dfa 5d3f 2058 9b3f 98b8 d33f
00000190: 8222 873f 5d2b 913f 5946 7d3f 7f7b 8b3f
000001a0: 6954 5c3f b75b 8a3f 48ac 9b3f 2440 843f
000001b0: 0746 603f 514f 6d3f ad23 573f 7107 3d3f
000001c0: 6a3d 933e 44e3 523f b7ad 973f 3f54 4c3f
000001d0: 57cf a03f a703 943f c2ac 5b3f 7ea3 743f
000001e0: 31d5 a93f 945d 983f ef9d 9e3f 4a1c a53f
000001f0: 4ee6 a13f 57c7 0d3f 9262 893f 6b26 963f
00000200: aee2 4b3f e480 8e3f 1ce7 883f ffc3 9d3f
00000210: 116f 943f 3156 753f 0a82 8c3f 9e9d bc3f
00000220: b356 9e3f c40f 863f 30a7 c83f b2ac 7d3f
00000230: fbdc 783f 7f49 8e3f 2ac9 473f fa8e 8d3f
00000240: 328e 983f c480 6e3f 6493 a13f 3356 ad3f
00000250: 8f77 303f 5c3c 803f 0e48 483f 2238 523f
00000260: 2154 103f c942 843f 4ff1 db3e 5774 873f
00000270: b188 673f d23a 7b3f 8f51 843f 1262 a23f
00000280: 572c 713f b947 a53f 156c 4b3f a112 943f
00000290: 2352 893f bb5b 8a3f 40ee 8e3f 868b 533f
000002a0: e8d3 8a3f 1bf0 9e3f d720 853f 70fb a03f
000002b0: 6ddf 8f3f 4158 9b3f c2aa 9d3f b487 963f
000002c0: 90cd 4c3f d060 db3f 3479 6c3f 1573 af3f
000002d0: 8060 743f 1bfc 353f e67e 253f 382e 243f
000002e0: dcbf fc3e d1f1 ab3f dab6 be3f d6ca ac3e
000002f0: dfa2 6c3f ef78 593e abab eb3d 66f1 a23e
00000300: cfb5 713f 015c 9a3e 9061 a43f 8e61 4e3f
00000310: 61f2 6b3f ca25 833f ffcc 973f 77e4 b13f
00000320: ae5e a93f 8682 573f 1cbf 7f3f d045 7d3f
00000330: 47c9 443f f05f 933f c6e4 b13f 000b 4c3f
00000340: b8fa 803f 52ef b63f bf5f 343f fc5f 843f
00000350: 3be7 9c3f ea35 8b3f 6ad0 823f 53c0 123f
00000360: 4520 8a3f 239f a13f 0d5f 563f 0dd7 633f
00000370: a42b 3a3f 2899 5e3f da69 343f b88f 863f
00000380: 59ff 883f 1b25 b43f 9f3d 673f 5dcf 913f
00000390: 43c4 823f 548e 8b3f 0a7e 693f 946a 5d3f
000003a0: f68f 783f 9424 fb3f 672a 903f bc27 3e3f
000003b0: e03e 3c3f c016 a93f e75f c03f 5e52 793f
000003c0: b31c 6f3f 9b85 793f 20c1 943f 859b 673f
000003d0: 7cb3 8c3f 175c aa3f 3dc2 573f c31f 9c3f
000003e0: b7ab 963f 5914 543f 5135 7b3f 7978 8c3f
000003f0: a743 a03f b6f6 843f 30d0 ee3e 1200 a73f
1.0477248 0.9273467 1.1950262 1.3132678 1.0856164 0.83812153 1.1216823 1.2680725
1.1250186 1.0235112 1.175294 0.803873 1.1605381 1.146365 1.2722342 1.1942376
1.0048159 1.1283506 1.4086208 1.0303307 1.4083424 1.4787941 1.1828911 1.2495538
0.9070141 1.0416152 0.8162333 1.0319276 0.57116187 0.78271586 1.2798715 0.916115
1.01192 0.2643665 0.16406836 1.0196447 0.7923688 0.36434624 1.1982739 1.0084821
0.9748244 0.9210562 1.3036225 1.1566511 0.81849444 1.0287789 1.1935472 1.205988
1.1446973 1.1592932 1.1838292 1.0173154 1.0677702 1.1146734 1.0946165 1.0338559
1.220731 1.4661877 1.0958923 1.3621517 1.7675948 1.0529848 1.0471765 0.9576156
0.75079346 0.8592922 0.82699627 1.1736554 1.3529145 1.2343506 0.8099395 0.97206545
0.7784704 0.91609925 0.61178166 1.3641319 0.80580676 1.2799304 0.9806548 0.9077938
1.0291783 1.2310374 1.123322 0.8212505 0.8860666 0.9662491 1.357369 1.0215312
1.1578509 1.0617738 1.0752738 1.0378482 1.0618879 1.067504 1.036971 0.954838
1.3879869 0.86710435 1.2136269 1.6540709 1.0557406 1.1341358 0.98935467 1.0897063
0.860663 1.0809239 1.2161951 1.0332074 0.87606853 0.9269915 0.8403881 0.7383948
0.28757793 0.8237803 1.1849889 0.7981605 1.2563275 1.1563615 0.8581048 0.9556197
1.3268186 1.1903558 1.2391948 1.2899258 1.2648408 0.55382293 1.0733206 1.1730474
0.7964276 1.1133084 1.0695529 1.2325438 1.1596395 0.9583464 1.0977185 1.4735601
1.2370209 1.0473561 1.5676022 0.9909164 0.9721219 1.1116179 0.78041327 1.1059258
1.1918395 0.9316523 1.2623105 1.3541931 0.6893243 1.001842 0.78234947 0.821169
0.5637837 1.0332881 0.4295754 1.0582379 0.9044295 0.9813663 1.033739 1.2686179
0.9420828 1.2912513 0.79461795 1.1568185 1.0728191 1.0809244 1.1166458 0.8263477
1.0845919 1.2417024 1.0400647 1.2576733 1.1240059 1.2136308 1.2317736 1.1760163
0.80001163 1.713892 0.9237244 1.3706995 0.9545975 0.7108781 0.64646757 0.64133024
0.49365127 1.3433172 1.4899552 0.33748502 0.9243602 0.21237539 0.115073524 0.31824797
0.9441804 0.30148318 1.2842274 0.80617607 0.92166716 1.0245907 1.1859435 1.3897847
1.3232019 0.8418354 0.99900985 0.9893465 0.76869625 1.1513653 1.3897941 0.79704285
1.0076513 1.4291785 0.70458597 1.0341792 1.2258066 1.0875828 1.0219853 0.57324713
1.0791098 1.262669 0.83738786 0.89000016 0.7272284 0.8695245 0.70474017 1.051261
1.0702926 1.4073824 0.903284 1.1391407 1.0216144 1.090281 0.91207945 0.8649075
0.97094667 1.9620538 1.126294 0.7427938 0.7353344 1.3210068 1.5029267 0.9739131
0.93403167 0.9746949 1.1621437 0.9047168 1.0992274 1.3309354 0.8428076 1.2197193
1.1771153 0.8284355 0.9812823 1.0974265 1.2520646 1.038779 0.4664321 1.3046896

layers.0.translation f4 [80, 195]
00000000: 037e a13d 87cd 193e f598 30bd 65e7 183e
00000010: f933 d23b d8ea 923d 1af3 38bd 26d2 d2bc
00000020: 2647 b1be 0c6e 4dbe 1d1b ca3c b01e 933e
00000030: 68bb a03d 04d3 e1bd 1a84 213d 55c8 4bbe
00000040: a3c7 6dbd 8a88 ea3d 583c b7be 920d 913d
00000050: 9f83 81be 0823 36be 3cb0 9ebd 58bb b3be
00000060: 9414 76bd bfcd 0ebe bd68 b53d 6fac 69be
00000070: 0220 e63e dd66 7e3e 24ef 263e 8ac0 193e
00000080: 0ac4 e03d 8261 9cbe b74f 1b3e ba41 34bc
00000090: f5db a73e e5cb 6d3e c3b3 0cbd a717 a2bd
000000a0: ae10 753e 87d6 a83e 9899 a4bc 12eb 273e
000000b0: 4bf4 a33c 0c75 1cbd 9f05 3b3e 76f4 19bc
000000c0: 796e 373e 14a9 49be 0420 81be 5dd1 f5bd
000000d0: 61ab df3d 953a 57bd 412a 1e3e 917c dabd
000000e0: 2964 17be cd24 83be 7424 33bc 46ec 6abe
000000f0: 506b 93be 5547 6a3e 2f56 e2be f267 24bd
00000100: ba51 4b3e 124f c73d 46ef ef3d 9b25 9fbe
00000110: 6bc4 5bbd 8cb8 813d 231b d1bd aad8 163e
00000120: 1076 9dbe fb0e 733e 8216 193e 2eef f2bd
00000130: ee67 96be ede9 fcbd a8be 5e3d d364 5f3e
00000140: 50a5 83bd 5a7b 2fbe dfc9 4a3e 12ca cbbc
00000150: 8325 28bc 7a17 bf3d 292e 07be c0d1 3dbe
00000160: 8083 39be dca8 503d b8df 13be 4090 9fbe
00000170: 03b0 2c3a 090e 843d 4c79 23be aef2 5bbe
00000180: 326d f8bc 58de cfbd 525b 87be 2800 29be
00000190: ce94 573e 22bd bcbe 10b1 d53d 8af1 1abe
000001a0: c450 3e3e 8ebb b53c 0729 d2be 9596 8b3e
000001b0: 846f 64bd 41e6 4a3e bf86 053e 8a5f b0be
000001c0: a20c 82be f761 123e b242 163d 4060 123d
000001d0: 5636 e93a f6b3 debd 48a3 693e 29fe 0c3e
000001e0: 09a0 923e 29a0 c3bd feb3 8ebe bf9e 1ebd
000001f0: 1681 a73e cc98 e63e dae0 f6bd 0547 3cbe
00000200: f1f0 953e 320f 4d39 a8a1 38be 1ecb 4d3d
00000210: 6977 4abd 6f67 d2bd 02e8 31be 03f7 1ebe
00000220: 374d 8cbe 129d 0bbe 9d61 2dbe 0673 3b3e
00000230: 5bb3 433e 93ba f7bd f66c 593e a374 e0bd
00000240: 6235 9cbe 6b1f 88be 8233 79bd ec7e 0a3c
00000250: 2444 4cbe 1b06 e3bd 92ac e5be d39a 863e
00000260: 21f3 643e 45df 40ba d36f b23e 77e8 e63d
00000270: e526 fa3d ff8c bfbe 9d89 4d3e 6026 a3bd
00000280: 4f55 143e bbe1 8abe 40f8 abbd d0c3 5e3e
00000290: 1d28 b4be 9529 e0bd 9850 a8be 2eb0 5b3e
000002a0: 6d43 dd3d 4994 85bc 301d 5ebc 7e52 89bd
000002b0: 1acd ae3d 3238 e9bd 26a7 f23c 24eb bbbe
000002c0: a269 a4bd 75da 7ebe 9211 8f3d 5439 e3bd
000002d0: 33c4 3d3e 78b3 5d3e e69e 983c 8c67 e6bd
000002e0: 5157 0d3f 9462 d5bd a5a1 1ebc 6c97 a53e
000002f0: 111d 0b3e ca11 6cbe 23f4 e33d 4cf8 3f3e
00000300: 9035 623e 999a 4f3e 6268 aabb c71a 2f3e
00000310: 6a18 9a3d 486e 4fbe 4636 b4be 3cc7 4d3c
00000320: 47d5 abbc d7d3 903e 54c1 753d a1d8 f8bd
00000330: 208c 9d3e 0376 6e3e 903b 92be afee 983e
00000340: 20af ac3c 3e58 43bd 718a 5e3e cd22 23be
00000350: 3d31 eebb 7b8b fb3c aa59 603e a8e5 c83d
00000360: 5eea 223c b05d ffbd f688 84be 2f6e 283e
00000370: 5af2 af3b 0cbe b9be cf64 5f3e 50ee 4d3e
00000380: 2aa8 673e deb6 d6bc 7d29 64be 3acf 223c
00000390: 7ebb 44be 7fb9 fdbc d5c2 273e 2237 ef3d
000003a0: e58f 5dbe 1c5f bcbd 864c dabd b0b5 6dbd
000003b0: e80d 1dbe 5742 4f3b 2466 27bc e181 f33d
000003c0: 28c6 6abe 9ac0 663d 05eb 003e dd1a 5a3e
000003d0: 1d75 913e 0015 43be 7398 8f3e 5efe 26be
000003e0: 4913 a53b ff64 eb3d 991f 5fbd ac20 983d
000003f0: 8cec 2e3e 2e0c 213e 73b2 d13d ae1b 2dbe
0.07885363 0.15019809 -0.04311462 0.1493202 0.006414887 0.07173699 -0.045153715 -0.025734972
-0.34624594 -0.20061511 0.024671132 0.2873435 0.07848245 -0.11026576 0.039432622 -0.1990064
-0.058051717 0.11451824 -0.35788226 0.070826665 -0.2529573 -0.17786801 -0.07748458 -0.3510387
-0.06007822 -0.13945673 0.08857868 -0.22819684 0.44946295 0.24843927 0.16302162 0.15014854
0.109748915 -0.30543143 0.15167128 -0.011001999 0.32785 0.23222311 -0.03435112 -0.079146676
0.23932144 0.3297617 -0.02009277 0.16398266 0.020013949 -0.038197562 0.18263863 -0.009396663
0.17913236 -0.19693404 -0.25219738 -0.120028235 0.1092136 -0.052546103 0.15445806 -0.106682904
-0.14784302 -0.25614014 -0.010933984 -0.22941694 -0.2879281 0.22878774 -0.44206378 -0.040138192
0.19855395 0.09731878 0.1171556 -0.31083378 -0.053654116 0.06334028 -0.10210254 0.14731088
-0.30754137 0.23736183 0.14949992 -0.11862026 -0.29376167 -0.12349305 0.054381043 0.21815805
-0.06428015 -0.17136899 0.1980357 -0.024876628 -0.01026285 0.0933065 -0.13201202 -0.18537045
-0.1811657 0.050942287 -0.1444081 -0.31164742 0.0006587507 0.064479895 -0.1596424 -0.21479294
-0.030325506 -0.101498306 -0.2643686 -0.16503966 0.21052858 -0.36863047 0.104341626 -0.15131202
0.18585497 0.02218416 -0.41046926 0.27263322 -0.055770412 0.19814397 0.13039683 -0.3444789
-0.25400263 0.14295183 0.0366847 0.035736322 0.0017792683 -0.108741686 0.22816193 0.1376883
0.28637722 -0.095520325 -0.27871698 -0.03872561 0.32715672 0.4503845 -0.12054606 -0.18386467
0.29285386 0.00019555984 -0.18030417 0.050242536 -0.049430285 -0.10273635 -0.1737366 -0.15523915
-0.2740266 -0.13634136 -0.16931768 0.18305597 0.19111387 -0.12096133 0.21232972 -0.10959747
-0.30509478 -0.2658647 -0.060840137 0.008453112 -0.19947869 -0.11085149 -0.44858223 0.26289997
0.22358371 -0.00073574885 0.3485094 0.11274808 0.1221445 -0.3741226 0.20072027 -0.07966304
0.14485668 -0.27125344 -0.08396959 0.21754384 -0.35186854 -0.10945431 -0.32873988 0.21453926
0.10803876 -0.01630606 -0.0135567635 -0.06705187 0.08535214 -0.113876715 0.029620718 -0.36702836
-0.0802796 -0.24888022 0.06985773 -0.11094919 0.18531875 0.21650493 0.018630456 -0.11250219
0.5521136 -0.10419193 -0.009682094 0.32342088 0.13585307 -0.23053661 0.1113055 0.18747061
0.22090745 0.20273818 -0.0052004317 0.17100058 0.07524188 -0.20256913 -0.35197657 0.012559708
-0.020975722 0.2828662 0.059998825 -0.12150694 0.3077097 0.23287205 -0.28561068 0.298696
0.0210796 -0.047691576 0.21732499 -0.15931244 -0.0072690533 0.030706158 0.21909204 0.098094285
0.009943573 -0.12469041 -0.25885743 0.16448282 0.0053694667 -0.36277807 0.21815799 0.2011044
0.22622743 -0.026210245 -0.22281452 0.009937102 -0.19212148 -0.03097224 0.16382916 0.116804376
-0.21636923 -0.09197828 -0.10659127 -0.0580346 -0.15337336 0.0031625235 -0.010217223 0.11890007
-0.22927153 0.056336023 0.12589653 0.2129931 0.28409663 -0.1905098 0.28045997 -0.16307971
0.0050376994 0.11493873 -0.054473493 0.07428107 0.17082423 0.15727302 0.102391146 -0.1690509

layers.0.weight1 f4 [80, 195]
00000000: dc7b d53c 21da 893d 00de 4939 06a5 35bd
00000010: 807b 513a f4cf b93c e85b e53c 004c 8db9
00000020: 004f 203b 209d 5e3c 5c57 81bc bca0 8f3c
00000030: 69b2 3abd 5c17 81bc 6225 1e3d fc50 b33c
00000040: 9222 243d cb59 43bd 96aa acbc 13db 17bd
00000050: 462d 64bd 62d9 f0bc 201a 96bb 40e8 abbb
00000060: 30ff 90bb dc47 39bd 8033 9fbb 248e 9b3c
00000070: 3eaa 523d 4e74 313d af21 75bd 3fde 3abd
00000080: 3e5f 673d 7e1c 473d 2ed2 223d 4c48 17bd
00000090: 925c 773d 207c 8ebd 4d45 69bd a004 d23b
000000a0: 326b 083d 9a3c 8abd 10b6 2c3c c040 8dba
000000b0: 5871 1abc bfbe 65bd 4c9d 0cbd 804e 5c3b
000000c0: d04d 8c3c 08f8 373d f4d3 cfbc f7d1 8a3d
000000d0: 54e3 dc3c 1449 47bd a302 92bd e835 453d
000000e0: f057 b13b f082 ebbb 6c35 c2bc 2ae7 093d
000000f0: 7c19 d3bc 4c99 56bd ecb3 4b3d 1285 fbbc
00000100: 2ee4 283d 48b6 49bd 7cdd 6bbc 7fbb 20bd
00000110: 60c2 473b 38c2 0abc bc04 af3c 9c83 63bd
00000120: 6c5a 81bd 0247 693d e296 60bd 30d0 c53c
00000130: 6fbe 7ebd 20a3 643c c0b5 c7ba 643d 10bd
00000140: 8048 c1ba 200d 103c e054 033b 12e8 5d3d
00000150: 4603 28bd a8d2 043d 2f13 873d fdae 52bd
00000160: 64be 65bd 4c45 c63c 5641 d0bc 40af d3ba
00000170: f3ce 88bd 582b 333d 60ed 9abb 2044 903b
00000180: 18ec cbbc f4a5 cb3c 00ed 99ba bccc e9bc
00000190: 18ba 913c 46d2 d9bc 14b7 d93c d377 8cbd
000001a0: 52fd e2bc bff9 48bd 3096 f93c 62f9 4dbd
000001b0: 6a44 633d 30d7 8e3c fcc4 333d 7656 3fbd
000001c0: 3e46 6ebd b089 40bc fe2a 21bd aab4 c6bc
000001d0: 4e1c 713d 52c6 1c3d 0454 adbc 861d 323d
000001e0: 8878 44bd 0b72 2abd 84ec 013d 3445 fd3c
000001f0: fc9e a9bc 662a 48bd 9862 373c 0d7b 8d3d
00000200: 1f58 903d e2a3 703d 6af6 5bbd 1870 423d
00000210: d0dc 563c d013 6ebd 10b6 963b 07a2 8dbd
00000220: 10e0 7b3c f749 21bd 485b 45bd 605c 643b
00000230: 00d6 453d 14a3 243d 9a84 35bd 70d7 263d
00000240: 4c46 da3c b1cf 43bd a050 97bc c894 8cbc
00000250: e267 6ebd 29d3 85bd fc2e 47bd 9753 853d
00000260: 56df 9bbc d03f e13b 3e92 73bd f0d0 49bc
00000270: 44a3 dd3c 8035 beba 4067 b8bb 800e 7aba
00000280: 4c39 453d 52a2 4ebd 5db4 83bd 6743 8dbd
00000290: fc89 ee3c 5a64 23bd ef49 00bd b02f 1bbc
000002a0: 48f5 2b3d 8028 233a 10a8 653c dcc8 a4bc
000002b0: cea2 1f3d b454 12bd 5e19 623d 7671 713d
000002c0: c7ed 83bd d2c0 b9bc a061 0dbc 2af2 1dbd
000002d0: c0fd 7b3b e88b c0bc 6ed5 723d 40a5 b9bb
000002e0: bcf6 23bd f0a6 11bd 1d11 89bd a246 34bd
000002f0: 68cb 633c 7c34 b13c 22d7 fcbc 8000 3f3a
00000300: c62c 133d b816 1b3c 902d 043c 036c 40bd
00000310: cbe2 893d e430 adbc 8094 c13b 487d 10bc
00000320: 18dd fe3c def4 72bd 5481 853c 4aad 63bd
00000330: 9685 673d 863c e7bc e883 6f3c 004a 9b3b
00000340: 462c e9bc 6496 1cbc df80 8b3d 2950 14bd
00000350: 967d 98bc 4658 413d 3e34 2c3d 884e a23c
00000360: 3f55 80bd a441 3dbc b781 90bd 15f6 10bd
00000370: 70dc fabb 70bb ddbc 00d5 f03c 8037 3c3a
00000380: 10e7 663c d8f9 ab3c 30a1 8d3c dac8 8fbd
00000390: 08e4 6c3c ae59 713d 2c03 c63c 0a90 523d
000003a0: e3d1 1ebd 12ea 94bc 1dcf 85bd 1af1 85bd
000003b0: ca20 5dbd 20e5 153d 8085 2cbd b8eb c43c
000003c0: 8c24 4b3d b085 d13c e0e2 f5bc 3a62 3b3d
000003d0: 6026 d73c 600b 853c 522b 93bc da04 693d
000003e0: b6c1 0d3d dc3a 4ebc 7c46 073d 1476 43bd
000003f0: 9032 cbbb 1685 73bd 52e0 82bd 1eec 6e3d
0.026060037 0.06731058 0.00019251555 -0.04434683 0.000799112 0.022682168 0.027997926 -0.0002695024
0.002446115 0.013587266 -0.015788727 0.017532699 -0.0455803 -0.015758209 0.03860987 0.021889202
0.04007203 -0.047693055 -0.021077435 -0.03707416 -0.05570724 -0.029400531 -0.004580751 -0.005246192
-0.004424952 -0.045234546 -0.004858434 0.018988676 0.051431887 0.043323807 -0.059846576 -0.045622107
0.056487314 0.048611157 0.039751224 -0.036934182 0.060391016 -0.06957269 -0.056950856 0.0064092427
0.033305354 -0.0674984 0.010541454 -0.0010776743 -0.009426437 -0.056090113 -0.034329697 0.0033616126
0.017126948 0.044914275 -0.025369622 0.06778329 0.026963867 -0.048653677 -0.07129409 0.048147112
0.0054120943 -0.00718724 -0.023707114 0.03366772 -0.025768988 -0.05239229 0.049732134 -0.030703101
0.041233234 -0.049246103 -0.014396068 -0.03924131 0.0030480847 -0.008469157 0.021364562 -0.055545434
-0.06316075 0.056952484 -0.054831393 0.024147123 -0.06219333 0.013954908 -0.0015236661 -0.035214797
-0.0014746338 0.008792192 0.0020039603 0.054176398 -0.041018747 0.03242746 0.06595456 -0.051436413
-0.056089774 0.024202965 -0.02542178 -0.0016150251 -0.066800974 0.043742508 -0.0047280043 0.0044026524
-0.024892852 0.024859406 -0.0011743605 -0.028540008 0.017788932 -0.026589524 0.026576556 -0.06858792
-0.027708683 -0.0490663 0.030467123 -0.050286658 0.055485167 0.017436594 0.04388903 -0.046713315
-0.058172457 -0.011751577 -0.03934764 -0.02425607 0.058864884 0.03827507 -0.021158226 0.043485187
-0.04796651 -0.041612666 0.0317197 0.030916788 -0.020705692 -0.04886856 0.01119294 0.06908236
0.07048058 0.05875004 -0.053701796 0.047470182 0.013114169 -0.058124363 0.0045993403 -0.0691567
0.015373245 -0.03937718 -0.048182756 0.00348451 0.04829979 0.040194586 -0.04431591 0.0407328
0.026644848 -0.04780549 -0.018471062 -0.017160788 -0.05820454 -0.06534416 -0.048628792 0.06510084
-0.019027393 0.006874062 -0.05946564 -0.012317881 0.02705539 -0.0014511794 -0.0056275427 -0.0009538904
0.048150346 -0.05044777 -0.06430886 -0.068976216 0.02911853 -0.039890625 -0.03132051 -0.009471819
0.041981965 0.00062239915 0.01401712 -0.020115308 0.038973622 -0.03572531 0.055199973 0.058946095
-0.06441837 -0.022674952 -0.008629233 -0.038561024 0.0038450807 -0.023504212 0.059285574 -0.0056654513
-0.040030226 -0.035559595 -0.06692717 -0.044012673 0.013903476 0.021631472 -0.030864302 0.0007286146
0.03593137 0.009465866 0.008067504 -0.046978008 0.067327105 -0.021141477 0.005907595 -0.008818932
0.031111285 -0.059315555 0.01629702 -0.055585183 0.05652388 -0.028227102 0.014618851 0.004739046
-0.028463494 -0.00955734 0.068116896 -0.03620926 -0.018614572 0.047203325 0.04204201 0.019812837
-0.062662594 -0.0115512945 -0.07055991 -0.035390932 -0.0076556727 -0.027066916 0.029398441 0.0007179901
0.0140931755 0.020993158 0.017288774 -0.07020731 0.014458664 0.058923416 0.024171434 0.051406898
-0.038774382 -0.01817802 -0.06533644 -0.06540127 -0.05398635 0.036595464 -0.042119503 0.02403818
0.0495954 0.025576442 -0.030015409 0.045747973 0.026263416 0.016240776 -0.017964993 0.056889392
0.034608565 -0.012587275 0.033026204 -0.04772003 -0.006201096 -0.059453093 -0.06390442 0.058330648

layers.0.wavelet_weights f4 [80, 195]
00000000: d824 1b3e 8d09 61ba c075 eebb 82db ccbb
00000010: ac58 483c eab9 ad3b 44a5 c6bc df40 5d3c
00000020: 04a0 b33c 0432 85bd 757c c8bc 0ffa 083a
00000030: 73fd 803d 0e5f 1c3b 2b01 0ebc 58b9 40bc
00000040: 60c4 83bb 9a18 e93c f035 353c c79c 70bc
00000050: 35ca 84be 7471 00be 669b 303b 89ae 07bd
00000060: 0b62 99bd 997a 05be 8cae ec3c 94ff b2bd
00000070: f2dc a33d 493f 78bd b87d 533b dca9 02bc
00000080: b496 633e 04fe 3a3e b60a f0be 90f1 133e
00000090: 7bc7 1cbd 3b14 853e c0cc 043c f962 1c3d
000000a0: cae4 2bbc 912f c23b d451 35bb 8202 2f3c
000000b0: c5d7 c43c e673 403d 246f 6fbb 8937 e1bb
000000c0: aa1f 0c3c d862 39bd e26d 9bbc 9818 2bbd
000000d0: 22f7 4bbb 6018 12bc 723a 853d d21f 43bc
000000e0: 4321 a23d 5e64 503b 286b ce3b a7b1 5abe
000000f0: a5c0 5cbe 9305 3cbd 20b8 a5bd fa31 71bd
00000100: 5486 973d 606d 853c 6931 f43b 30c1 febc
00000110: f84f abbc a4b0 feb9 5e6b 1cbd f413 113e
00000120: 12a2 b5bd 534a 453c 461e dcbc 7496 5e3c
00000130: 92f7 c4bc 2ae6 1f3c c84e a63d cedc 6bbc
00000140: 6ff5 32bc 5397 773b 292a 693b b4ac 3a3c
00000150: 127a ac3d 7283 1bbc 3e9f f73a 1d2c 82bd
00000160: 9142 97bd 6332 79bb 2699 79bc dcc3 6e3c
00000170: 2e3b cebc 0f2b 043d 8a15 9fbc d911 793d
00000180: b682 613b 2b2b ac3d 8afa 88bd aa2d 0ebe
00000190: 8d29 0ebd 2047 e9bc 8933 09bd 060c cebd
000001a0: e656 5a3d 1f51 b2bc 30e3 84bc fe5a 47bc
000001b0: 60f5 64bc 048b 0fbd 15ee 583e e899 e0bd
000001c0: 17e3 e93c 78ef 283d ff13 8abb 5d3b 14bd
000001d0: a742 013b cbb6 5abd 5a20 4fbc ff7c e03b
000001e0: fce4 513c 253c 39bc 5df6 11bc 9657 80bc
000001f0: 6104 ef3b a3b2 abbc 5870 d2bc 2b8a 82bd
00000200: 4ddd 173c 0049 b4bd 79c6 863c 540b 85bc
00000210: 902c 03bd 43d3 26bc 33d7 053e d681 2a3a
00000220: 836c 3bbd 5f17 9ebe a8b2 e1bd c091 87bd
00000230: cafe 233d 1fba dfbd 2524 c33d b15b 8cbc
00000240: 0b26 8e3d 46ac a8bd 2087 25bc b9df b23b
00000250: b623 0c3d 387a 5abd eff9 84bd fc46 8e3d
00000260: a0d4 a1bd 587a 0d3c 935e 9c3d 1905 6bbb
00000270: 10a4 903d 557e 8d3c 3c1d 543c 530b 0b3c
00000280: c711 8c3c 92d0 d5bc 0019 b53d 405f 2ebb
00000290: 731d 013c ea29 8f3c b261 ebbb d124 623b
000002a0: 7cdc e0bd 836e 8bba 22c9 b2bc 72f2 99bd
000002b0: cc71 0bbb 09a3 463e 993e eb3a 2574 cebd
000002c0: ed10 b3be 8fa6 55bd eecb 83bd b9ec 29bd
000002d0: 90dd 2eb9 22e8 323e 8cdb fc3d 4e53 9bbd
000002e0: 0a31 073e 6726 7d3d 1ca7 2e3c a8cd 26be
000002f0: 10a1 163d 34ec b23e 7e82 43bf fa6e 80be
00000300: 2e5a 883d 2c7c 6a3e b4a0 d03b c892 883d
00000310: 4606 283b d909 a23b a5c2 d93a d97b 533c
00000320: e474 503a a279 f6bd f281 34bb 356c f9bc
00000330: c963 d7bc e016 99bc fce6 01bc 4496 7bbe
00000340: 10f0 a0bb a44f 81ba 0a87 60be b067 973b
00000350: bc38 683d 8755 79bb 616d c33d 3fdf c93e
00000360: 7e04 de3d 47ec ad3d 0c98 203d a265 e9bc
00000370: bf41 b83e 134b 083d 7001 34be 15f1 14bc
00000380: b021 62bd a1ed b73b b557 893d d9b4 2c3d
00000390: ad47 3f3c 7458 833d 347d 83be 0750 0cbd
000003a0: 1602 663e 0471 0a3d 8b30 643d 5b1a 953b
000003b0: 4f59 0b3c b848 beb9 5027 8b3b c207 40bc
000003c0: 9cd1 0e3d 2a28 40bb cc49 24bc bcfa 3abd
000003d0: 1b39 dbbd f54d 8ebb bc56 0bbe db24 2dbb
000003e0: e04c 0fbc 68f6 02be 93c9 dc3b 0298 cbbd
000003f0: 98c7 babb d6e6 c63d 055f a73e d0d0 393c
0.15150774 -0.0008584492 -0.0072772205 -0.0062517533 0.012228172 0.0053017037 -0.024248727 0.013504236
0.021926887 -0.0650368 -0.024473408 0.000522525 0.062983416 0.0023860368 -0.008667271 -0.011762939
-0.0040212125 0.028454114 0.011060223 -0.014685816 -0.25935522 -0.12543279 0.0026948093 -0.033125434
-0.07489403 -0.13035049 0.028891824 -0.08740154 0.08001126 -0.06060723 0.003227098 -0.007975068
0.22225457 0.18260962 -0.46883172 0.14447618 -0.038276177 0.25991997 0.008105457 0.038180325
-0.010491559 0.0059260805 -0.0027667182 0.01068175 0.024028668 0.04698553 -0.003653475 -0.0068730754
0.008552471 -0.04526028 -0.018973295 -0.0417715 -0.0031122644 -0.008916944 0.06505288 -0.011909442
0.079165004 0.0031798105 0.006299395 -0.21356831 -0.21557863 -0.045903753 -0.0809176 -0.058885552
0.07398668 0.016287506 0.007452179 -0.031097978 -0.020912156 -0.00048578263 -0.03818833 0.14167768
-0.08868803 0.012041646 -0.026869904 0.0135856755 -0.024043832 0.009759465 0.08120495 -0.014395906
-0.010922774 0.0037779405 0.0035578108 0.011393715 0.084217206 -0.009491788 0.0018892062 -0.0635607
-0.073857434 -0.0038024418 -0.015234267 0.014573064 -0.025174703 0.032267626 -0.01941945 0.060808036
0.0034410185 0.08406671 -0.066884115 -0.13884607 -0.034707595 -0.028476298 -0.033496413 -0.10060887
0.05330553 -0.021767197 -0.016221613 -0.01216769 -0.013974518 -0.035044685 0.21184571 -0.10966855
0.028550668 0.041244 -0.0042138095 -0.036189426 0.0019723566 -0.05339698 -0.012641991 0.006850838
0.012810942 -0.0113058435 -0.008908835 -0.015666764 0.007294223 -0.020959204 -0.025688335 -0.0637401
0.009269071 -0.08802986 0.016452061 -0.016240753 -0.03202492 -0.010182205 0.13070373 0.00065043324
-0.04575778 -0.30877206 -0.11020404 -0.066195965 0.040037908 -0.10924172 0.095283784 -0.017133566
0.0694085 -0.082359836 -0.010103017 0.0054587987 0.034213744 -0.053339213 -0.064929835 0.06947133
-0.07901883 0.008635126 0.07635226 -0.0035861193 0.070625424 0.017272154 0.012946423 0.008486587
0.01709832 -0.02610043 0.08842659 -0.0026607066 0.007880556 0.01747604 -0.007183277 0.0034506808
-0.10979554 -0.0010637793 -0.021824423 -0.07516946 -0.0021277545 0.1939813 0.0017947733 -0.100807466
-0.3497385 -0.052160796 -0.06435381 -0.041485522 -0.00016676472 0.17471364 0.12346563 -0.075842485
0.132023 0.0618042 0.010659959 -0.16289389 0.036774695 0.34945834 -0.7637099 -0.25084668
0.066578254 0.2289893 0.0063668136 0.06668621 0.0025638505 0.0049450216 0.0016613795 0.012907946
0.00079519884 -0.12034918 -0.0027543274 -0.030447105 -0.026292698 -0.018687665 -0.007928606 -0.2456904
-0.00491143 -0.0009865654 -0.21926513 0.004620515 0.05669473 -0.0038045363 0.09542347 0.39428136
0.108407006 0.08492332 0.039207503 -0.028490845 0.3598766 0.03327472 -0.17578673 -0.009090682
-0.05520791 0.0056130444 0.06706182 0.042164657 0.011674804 0.064133555 -0.2568146 -0.034256008
0.22461733 0.033799186 0.055710357 0.004550261 0.00850518 -0.00036293804 0.00424663 -0.0117206
0.034867868 -0.0029320815 -0.01002736 -0.045649275 -0.107042514 -0.0043427893 -0.13607305 -0.0026419673
-0.008746356 -0.12789309 0.0067378967 -0.099411026 -0.005700063 0.09711997 0.32689682 0.011341289

layers.0.bn.weight f4 [80]
00000000: 3bb7 523f ced3 823f 39d9 3c3f 2954 763f
00000010: b61f 803f 5897 5b3f b104 6a3f a1b6 573f
00000020: 5f2e 1f3f 055b 183f 32ac 5e3f 1a2e 823f
00000030: 64d7 8b3f c77e 803f 39a8 3e3f 840a 873f
00000040: fc3d 613f 4bc1 703f 38f7 2d3f 006c 2c3f
00000050: cca8 323f 4522 533f 63ac 683f 6e59 7b3f
00000060: 81bd 7f3f 5630 293f 5c57 943f 287f 343f
00000070: c322 663f 74df 4f3f df8e 9c3f 6ac8 8d3f
00000080: 066f 803f 6fa2 833f 342a 9e3f e069 8b3f
00000090: d769 853f 1634 613f 597d 623f 7874 533f
000000a0: 6e54 6c3f 1aaa ce3f 24a7 2a3f 4125 243f
000000b0: cdcd 853f fd65 743f 8dd3 5e3f 93e5 433f
000000c0: c6dd bc3f 199e 953f a0c8 443f 672b 6c3f
000000d0: f0ce 4e3f b9ec 6d3f cd7e 403f 3307 493f
000000e0: cc53 953f 6e74 423f 2b52 663f 5883 4c3f
000000f0: 736e 863f 410f 5c3f d7eb 883f e7eb 473f
00000100: 76dc 603f 93a2 c43f 5ba5 793f 1ba8 933f
00000110: 6611 4a3f 3426 3b3f 62a8 6b3f 5bc1 a33f
00000120: e9cf 783f 170a 603f 7319 3a3f 6ac6 423f
00000130: 9b3f 313f f9da 4a3f ed8e 8f3f 235a 603f
0.8231084 1.0220888 0.73768955 0.9622217 1.0009677 0.8577781 0.9141341 0.84263045
0.6218013 0.59513885 0.869815 1.0170319 1.0925107 1.0038689 0.7447544 1.0550084
0.87985206 0.9404494 0.6795535 0.67352295 0.69788814 0.82474166 0.9088804 0.98183334
0.99898535 0.6608938 1.158916 0.70506525 0.8989679 0.8120034 1.2231101 1.1076787
1.0033882 1.0283946 1.2356629 1.0891685 1.0422925 0.879701 0.88472515 0.8259959
0.9231633 1.6145661 0.66661286 0.64119345 1.045343 0.9546812 0.8704155 0.7652218
1.475518 1.1688873 0.7686863 0.92253727 0.8078451 0.92939335 0.7519348 0.7852661
1.1666198 0.7595891 0.8996913 0.79887915 1.0502456 0.85960776 1.0696973 0.78094333
0.87836397 1.5362114 0.9751794 1.1535677 0.789328 0.7310517 0.92053807 1.2793382
0.97192246 0.87515396 0.7269508 0.76084006 0.6923768 0.79240376 1.1215492 0.8763754

layers.0.bn.bias f4 [80]
00000000: 0414 0b3c ea83 23be 1a04 48bd 7a6b 87be
00000010: 7ea9 97bc ff03 873d ace0 cf3d 341b 653e
00000020: b682 603e bc16 513e 541a 19be 10f0 a63d
00000030: 2461 2abe ddb5 293e 4842 08be a251 163d
00000040: d1e7 39bd ecdf d0bd df3f 93bd 76f1 023e
00000050: 960a c23d 66b9 53be 78fe e53d 376d 48be
00000060: ed93 7e3d ad17 4f3e bf27 dd3d e4d8 cebd
00000070: d664 7cbd 6c26 4ebe bb12 36be dfb1 52bd
00000080: 3e43 5a3e d6ca 143e 9e70 80be 9c8c 9b3d
00000090: 0e92 67be 27e7 46be 3dc7 933e 1e2b abbd
000000a0: 5947 31be 8288 523e 484b 803e 9337 48be
000000b0: e4ef 873e 4d80 5f3d d95f 613d 9b9f 90bd
000000c0: 5cb1 413c 9072 dabc 3adb ff3c 4893 f4bd
000000d0: 5d92 e9ba 32f3 943e 5b37 9a3e 39c5 3abe
000000e0: f374 883d 292b 293d 6278 83bd 73a9 f13d
000000f0: 3d24 8bbd bf1a 24bd 3e43 b6bd 68e9 fb3c
00000100: e664 c63d 5c90 fb3d 1585 6f3e 7297 a3be
00000110: e47e 393c e43c 16be 50fe 18be 4902 613b
00000120: 7e48 acbd f196 9bbd 872e 2c3b 3d5a e93d
00000130: b959 91be 699e 84be e311 b83e 3e22 713e
0.008488659 -0.1596829 -0.048832037 -0.26449186 -0.018513437 0.06592559 0.10150275 0.22373658
0.21924862 0.20418829 -0.1495145 0.08151257 -0.16638619 0.16573282 -0.13306534 0.036698945
-0.045387093 -0.1019896 -0.07189917 0.12787423 0.09474675 -0.20676193 0.11230177 -0.19572912
0.06215279 0.20223875 0.107985966 -0.10099962 -0.061619602 -0.20131844 -0.17780583 -0.051439162
0.21314713 0.14530501 -0.2508592 0.075951785 -0.22614309 -0.19424115 0.28862944 -0.08357833
-0.17312373 0.20559886 0.25057435 -0.1955245 0.2655021 0.054565717 0.055023048 -0.07061692
0.011822071 -0.026665956 0.031232465 -0.11942154 -0.0017820109 0.29091793 0.30120358 -0.18239297
0.06662931 0.041300926 -0.064194456 0.11799898 -0.06794021 -0.04006457 -0.08899544 0.030750945
0.096872136 0.12283394 0.2339061 -0.3195148 0.011321757 -0.14671665 -0.14940763 0.0034333637
-0.08412264 -0.07597149 0.002627285 0.11394165 -0.28388765 -0.25902107 0.35951146 0.23548219

layers.0.bn.running_mean f4 [80]
00000000: 08d1 c53c ca52 61bf f092 e03e dd16 8bbf
00000010: 34a4 483f ca0f 04be 2ec9 9e3f 6f58 463d
00000020: 1f33 24be c667 3d3f be93 95bf f23a 983f
00000030: f0db 7dbf 04eb 913f d5d8 a9be 2a4a 2940
00000040: a89b 44bf 3333 39c0 de1d 97be c42b 87be
00000050: 477a 0b3f 8443 05c0 f179 0540 7bd1 b9bf
00000060: 0c59 423f 29c7 0740 6dc9 153f fa5d e8bf
00000070: 8f4c 0ebe fc66 9dbf bfef 94bf fc6a 1fc0
00000080: 4424 483f 768d a43f 6678 15bf e41f d43f
00000090: d116 4abf e1b8 bcbf 491a 4a40 5a37 3dbf
000000a0: 8908 30c0 d090 893f 6ca2 123f 398e 7fbf
000000b0: 4bf7 d83f ac8d 3d3e 580f 63be ea15 c3be
000000c0: 9050 c4bf 19c1 b7bf 3fd8 823f 6c76 f7bf
000000d0: ba9e cebf cc83 ba3f a8e1 2b3f 12d7 61bf
000000e0: 82dd db3f 981b 97bf 104e 1bbf dd77 233f
000000f0: 872b 18bf 7bf0 c4bf a744 7bbf 7e82 5c3f
00000100: 21f1 d63f bdb7 993f b27e 733f 7ef1 1cbf
00000110: d2e0 bbbe c0c8 b6be 9235 e4be 19c3 9cbf
00000120: 0ec1 38bf 21e7 60bf aeb4 52bd c093 45bc
00000130: 111a eabe a14b 73bf 7e84 243f 41f6 593f
0.024147525 -0.8801695 0.43862104 -1.0866352 0.78375554 -0.12896648 1.2405145 0.04842418
-0.16035126 0.7398647 -1.1685712 1.1892989 -0.99163723 1.1399846 -0.33173242 2.6451516
-0.7680001 -2.89375 -0.29514974 -0.26400578 0.54483455 -2.0822458 2.0855677 -1.4517053
0.75917125 2.1215308 0.58510476 -1.8153679 -0.13896392 -1.2297053 -1.1635665 -2.4909048
0.78180337 1.285567 -0.5838684 1.6572232 -0.78941065 -1.474392 3.1578543 -0.73912585
-2.750521 1.0747318 0.57279086 -0.9982639 1.6950468 0.18511075 -0.22173822 -0.38102657
-1.5337086 -1.4355804 1.0222243 -1.9333014 -1.614219 1.4571471 0.671412 -0.88218796
1.7176974 -1.1805296 -0.6066599 0.6385477 -0.5944142 -1.5385889 -0.9815163 0.86136615
1.6792337 1.2009197 0.95115197 -0.6130599 -0.36694962 -0.35700035 -0.4457212 -1.2247039
-0.7216958 -0.87852675 -0.05144184 -0.012059152 -0.45723012 -0.95037276 0.6426467 0.8514138

layers.0.bn.running_var f4 [80]
00000000: 41ef 9d3d 8aa4 f03d f2e7 bb3d 657c 903d
00000010: dff7 833d 443a d83d 5231 273d 44c5 073d
00000020: 4242 013e fe2b 023e b8ce 413d ef5c ca3d
00000030: 9418 483d 554c 923d 023e a63d 00a9 203e
00000040: 2474 ad3d 5ad6 9d3e bc44 2c3d 6d7c b63d
00000050: 1b06 833d 298e b33d 110d 9f3d 48f0 033e
00000060: f1ff 423c 187e 863d 8234 073c 8c03 113e
00000070: 0e2d 253e d0e8 ea3d 0e96 103e c8a3 003e
00000080: 2719 003d 6881 b43d c852 ea3c 603b e93d
00000090: 4db2 0d3d f877 853d c625 d33d bd5e 5e3e
000000a0: 9de0 c73d 2916 f03c bf81 8d3d 6f7b 793d
000000b0: 080e dd3d 9b2d 403d df99 983d c11b b13d
000000c0: c38c 763d 74c5 593d 0a82 683e e878 e83d
000000d0: a48e a53d 721c 4a3d 7bf7 8b3d 1871 793d
000000e0: bcbd a83d d6e4 b23d 252a 9e3d 5fa3 dc3d
000000f0: 1f72 b93d 0199 0e3e 3be1 c43d b362 063e
00000100: 9ca4 d03d e57e 743d ea5f 493c 8d5f 823c
00000110: c7a0 013e 4de9 983d de8c 833d 91c0 5c3d
00000120: 78fd 053e 7769 6a3e 2b36 a93d d712 643d
00000130: d0be b33d 9ce8 433d a8ea 503d 0ac4 443d
0.0771165 0.11750133 0.091750994 0.070549764 0.06443762 0.10557988 0.04081852 0.03314711
0.12622932 0.12712094 0.047316283 0.09881007 0.048851565 0.071434654 0.08117296 0.15689468
0.08469418 0.308276 0.042057738 0.08910451 0.06397649 0.08767349 0.07766164 0.12884629
0.0119018415 0.06567019 0.008252265 0.1416151 0.16130468 0.11470187 0.14119741 0.12562478
0.031273987 0.08813745 0.028603926 0.11388278 0.03459387 0.06517023 0.10309939 0.21715827
0.097596385 0.029307442 0.06909513 0.06090873 0.10793692 0.046918493 0.074512236 0.08647872
0.060192835 0.05316682 0.22705856 0.11351186 0.08083847 0.049343534 0.068343125 0.06089887
0.08239314 0.08735053 0.07722882 0.10773348 0.0905497 0.13925554 0.09613272 0.13123588
0.10187647 0.05969133 0.012290934 0.015914703 0.12658988 0.074663736 0.06423353 0.053894583
0.13084972 0.22891794 0.08262285 0.05568203 0.08776629 0.047829255 0.051005036 0.04803852

layers.1.scale f4 [29, 80]
00000000: 5780 ab3f c023 583f 5e11 ac3f 9a33 443f
00000010: f5bf 9f3f 7394 8e3f 5d17 5a3f b7ad 593f
00000020: bc25 7b3f fead 8d3f 02d6 663f 10e5 4f3f
00000030: 1d48 4b3f 1d55 463f 378e a93f 9a44 aa3f
00000040: 2400 aa3f c6b5 753f 6bed 593f 2856 a63f
00000050: fb83 a63f 43bb 983f 2c00 773f 3f6b 873f
00000060: a20b 303f 5a11 523f 112e 583f 13ad b33f
00000070: 5663 aa3f ef04 7f3f 69bf ae3f 2537 8f3f
00000080: ab49 a53f 4dcd 1c3f 0c7c 2c3f 22cc f03e
00000090: 6fd1 3f3f 5f40 293f 7c22 a03f 28d2 853f
000000a0: 9ab2 b53f 26e3 403f c74f 9c3f 92e9 923f
000000b0: a5f5 043f 361a e83e 59c7 843f 3964 4d3f
000000c0: 5138 313f f9d9 103f ffb5 803f d09a 493f
000000d0: cfe0 283f 5ebb 463f 2006 8a3f 78c6 3c3f
000000e0: 04c8 9a3f 1131 a93f 4e40 4e3f af68 593f
000000f0: deae 083f 49c8 283f 9314 453f e4db 903f
00000100: 8524 723f 99da 873f 4282 423f 0378 323f
00000110: e7c8 5a3f 48c5 9e3f 591b 1b3f c19a 3d3f
00000120: dc7e 923f efc4 833f c4de 303f 49c5 903f
00000130: a28f 9e3f 6fb7 2c3f ffac 1f3f edac 553f
00000140: 897a b93f 5b0a 8e3f 0b0c 9b3f bcc2 a33f
00000150: 5416 873f a3d9 a43f 8916 a13f 0e1d 6a3f
00000160: 98e9 8e3f 9887 863f 9c02 b73f 33a2 733f
00000170: c3e2 6d3f b83f 9a3f 202d ad3f 198d 9d3f
00000180: 1e99 743f d2f9 7f3f 0aa4 4d3f ee28 903f
00000190: bd3f 873f 8727 bd3f b403 4f3f fcc8 bc3f
000001a0: d034 9a3f c552 9d3f a49d 813f eaff 5e3f
000001b0: 55e7 9f3f d0e9 923f 6050 493f 1011 a03f
000001c0: cc11 4e3f 1633 5f3f 3d47 893f 061b 713f
000001d0: 6d47 b63f 7e13 9a3f 804e 663f b5dc 593f
000001e0: 425b ac3f 5588 f93e 3e5e 873f 3931 bb3f
000001f0: 8233 a33f 4c1a a73f ad64 543f 7ad2 913f
00000200: f7fc 753f de0b 103f 43c5 ac3f 295e 1f3f
00000210: 32dc 593f 6dd3 5c3f aa1b d13f 581f a43f
00000220: bed6 b43f 60a2 873f 08f5 af3f 14e7 553f
00000230: 9e2c a23f 62f4 9c3f 166d 7f3f 0457 9b3f
00000240: ec5c 553f bacb 553f 6e4b 693f d33e 463f
00000250: 918f 2a3f cf51 823f 462f a23f 0b86 a83f
00000260: d9ad 903f 8766 b03f 13d4 943f fa52 9d3f
00000270: 1022 ba3f ad57 573f 2ff6 993f 2c7a a73f
00000280: 6d1c 9b3f da14 503f ee70 543f 7202 323f
00000290: 4e7e 9c3f 061b 733f cbcb 323f b7cc 613f
000002a0: 21e8 9c3f 696a 7a3f 4d62 c13f 256c 9c3f
000002b0: d08e 803f 7a21 873f 38d7 9c3f 007a 6a3f
000002c0: f4f9 253f 1bf6 583f 5452 2d3f 9e29 803f
000002d0: bd19 8b3f 774d 923f 46c5 493f 0953 403f
000002e0: 6287 873f 5951 9b3f 35dc 883f 126f ae3f
000002f0: f574 b03f 090a 2a3f 1505 1e3f 6afc ab3f
00000300: a3d4 9a3f 540a fa3e 248a 813f 8fdc 773f
00000310: 22b0 893f 8a4c 713f c6cc 983f bd8d 873f
00000320: 5314 833f ba90 4f3f 8e71 933f 38c3 573f
00000330: 6efe da3f f903 0740 849d cc3f 84a1 8a3f
00000340: 1356 563f 9f0d 723f 1c55 823f 0b33 7f3f
00000350: 38a9 9c3f 47b3 983f 929b 5b3f 7dfd 8c3f
00000360: bdd2 a93f d8c4 9a3f 17d2 383f 8376 9b3f
00000370: 0158 703f c06b 673f 8027 c93f 631d 8a3f
00000380: 45ac 623f 0841 253f 2e0b 803f 436f 113f
00000390: 29ca 9d3f fad1 d93e 7366 cc3f ae54 353f
000003a0: fa19 883f fad9 863f 1a1b 593f 4e19 313f
000003b0: 3a0b 143f dd78 853f 71a0 933f 5ccc 043f
000003c0: 7c54 8b3f c536 913f 17b2 023f a42e 533f
000003d0: bf1c bf3f a806 7a3f 7618 903f 20bb 8b3f
000003e0: 2d3d 8c3f b2b3 513f 8112 6c3f 7622 323f
000003f0: 1c2f 813f 9051 883f dde1 a23f afcc 363f
1.3398541 0.8442955 1.34428 0.7664124 1.2480456 1.1139053 0.851919 0.8503069
0.98104453 1.1068723 0.901703 0.81208897 0.7940691 0.7747362 1.3246526 1.3302186
1.3281293 0.9598049 0.85127896 1.2995043 1.3009027 1.1932148 0.9648464 1.0579604
0.6876775 0.82057726 0.8444529 1.4037193 1.3311565 0.99616903 1.3652164 1.1188704
1.2913107 0.61250764 0.6737678 0.4703074 0.74928945 0.6611385 1.2510524 1.045476
1.419513 0.753466 1.2211846 1.147753 0.51937324 0.45332497 1.0373336 0.8023105
0.69226557 0.565826 1.0055541 0.7875185 0.6596803 0.7762965 1.0783119 0.7374034
1.209229 1.3218099 0.8056687 0.8492536 0.53391826 0.6593061 0.7698452 1.1317105
0.94586974 1.0613586 0.7598001 0.69714373 0.854628 1.2403955 0.60588604 0.7406426
1.1444964 1.0294474 0.69089913 1.1310207 1.2387583 0.674674 0.62373346 0.8346699
1.449052 1.109691 1.211305 1.2793803 1.0553689 1.2878917 1.2585002 0.91450584
1.1165037 1.051013 1.4297671 0.9516937 0.92924136 1.2050695 1.3529396 1.2308685
0.9554614 0.9999057 0.8032843 1.1262491 1.0566326 1.4777688 0.80865026 1.4748836
1.2047367 1.2290884 1.0126233 0.87109244 1.2492472 1.1477604 0.7863827 1.2505207
0.80495906 0.87187326 1.0724865 0.9418186 1.4240547 1.2037199 0.8996353 0.851024
1.346535 0.48736826 1.0575635 1.4624397 1.2750094 1.30549 0.8296612 1.1392357
0.9608912 0.5626811 1.34977 0.6225305 0.85101616 0.8626011 1.6336567 1.2822065
1.4128034 1.0596428 1.3746653 0.8355572 1.2669866 1.226208 0.99775827 1.213593
0.8334491 0.8351399 0.9113072 0.7743961 0.66625315 1.0181216 1.2670677 1.3165907
1.1303054 1.3781289 1.162722 1.2290947 1.4541645 0.8411816 1.2028254 1.3084159
1.211805 0.81281817 0.8298482 0.6953498 1.2226045 0.9496311 0.69842213 0.88202995
1.225834 0.9781862 1.5108124 1.2220503 1.0043583 1.0557091 1.225318 0.9159241
0.64834523 0.8475053 0.6770375 1.00127 1.086723 1.142989 0.7881664 0.751267
1.058819 1.21342 1.0692202 1.3627646 1.3785692 0.6642156 0.61726505 1.3436406
1.2096142 0.48836005 1.0120282 0.9682092 1.0756876 0.94257414 1.1937492 1.059013
1.0240577 0.8108021 1.1519029 0.84282255 1.7108896 2.1096175 1.598557 1.0830541
0.8372509 0.94552034 1.0182223 0.9968726 1.2239141 1.1929711 0.85784256 1.1014858
1.3267437 1.2091322 0.7219557 1.2145542 0.93884283 0.9039879 1.571518 1.0790218
0.8854411 0.64552355 1.0003412 0.56810397 1.2327319 0.42543012 1.5968765 0.70832336
1.0632927 1.0535271 0.8480698 0.69179237 0.5782963 1.042751 1.1533338 0.5187433
1.0885158 1.1344839 0.51052994 0.8249304 1.4930648 0.97666407 1.1257465 1.0916481
1.0956169 0.8191482 0.92215735 0.69583833 1.0092502 1.0649891 1.2725178 0.7140607

layers.1.translation f4 [29, 80]
00000000: 57e1 87be 7bde 8e3e 6767 e8be 92c9 543e
00000010: ac10 973d 82c9 61be cf6e f0bd f088 90be
00000020: ab00 0f3e 1812 b8bd 07be 393e 2915 863c
00000030: 5d02 2f3e 6b33 853d abd8 a53c b7d3 14bf
00000040: 7823 80be 8d56 993e 1dcc a43e 7800 8a3e
00000050: 308e ea3d c4c2 a0bd aa4b c3be fa3e 9d3e
00000060: e723 21be df9e 5ebe 42d6 10be 8b75 913e
00000070: 30ea c3bc 17bd 1dbd 3624 cb3e 87ad ae3e
00000080: 9aed cb3a d5be a8bd 23e3 293e 0daa 173e
00000090: 961b 083e ee56 20be 644f aabe a624 a9bd
000000a0: 0eef f13d 08c9 febd 17c6 e93e e7b5 9cbe
000000b0: a332 8dbe 8c82 a8be d00a 803e a118 993d
000000c0: 3a70 c1bc 14fd 2ebd 7dec 833c 1470 b33d
000000d0: 0e11 523e 7e9e 0abe 7880 56be 03a1 5abd
000000e0: a7f6 d7be 79dd 8bbe 7b7b 15bb 118a 96be
000000f0: c0f3 0d3e 3531 bd3d 634d ab3d 228f 8a3c
00000100: f48f 8cbd d78e 9ebd bf2e 38be cc33 8e3d
00000110: f516 9e3e 831a e7be 3df7 4d3e 829f d23d
00000120: 251b 343e 45ce c0be a791 0ebe 9fe0 89be
00000130: e67b 3c3e a362 cb3e 0590 80bb 2f55 ecbb
00000140: aaf3 d4bc a68c f43e 634d b3bc 9e5d 21bf
00000150: 87e9 09bd 3793 89bd e206 e53e 9c8f 023e
00000160: 01e9 23be 720d 12bc 6259 b13e bcf3 39be
00000170: dc39 e93c a54c 8a3d 96fc 2abe 45d6 333d
00000180: 5355 2a3e 5ea4 eb3d e84f 38bc 0e9c 99be
00000190: 5f34 41be ef16 11be ef3c cf3d 9a07 cabd
000001a0: 2af1 a23c bee3 52bc 7ce0 f53c 180f d13e
000001b0: d06c 313b 07e1 34be 1894 cfbc 0678 723e
000001c0: 1d02 78be c8f6 c93e 9096 383d f443 873d
000001d0: b62d 883e 7253 cebd af27 e0be 5864 3d3e
000001e0: a480 98bd e215 013e f900 b53d 4097 9ebc
000001f0: fd3d c6bd 2794 08bf e39b b7bd 579c 613e
00000200: 1641 9c3e 066c 21be 89a9 f33c 91f2 9d3e
00000210: 6f96 fdbe d25b 00bf 8d75 093f c8cf f03d
00000220: a223 0abe 0440 bdbe 9cc1 bf3d 5a20 e6bc
00000230: 6343 503e c9e5 34bb 95d5 3d3e 503e 303d
00000240: c88e 463e 08ba f53d 868c b3bd 9bcb 45bd
00000250: 7343 ebbd a39c 573c b8f4 d63e 3f19 59be
00000260: 2626 173c b3ff 843e 6a40 1e3e 06f8 6b3c
00000270: 83a3 933d 6fe1 7a3d 5e6a f6bc 0d10 093f
00000280: 1507 06be 0540 febe 4afc 8dbe d86f af3e
00000290: 2ebe 2ebe 36d2 7b3e 9d49 c8bd 2e4c 2dbe
000002a0: d82a a0be 7165 06be c53f 023e 3491 b13c
000002b0: f9d7 a2be 6e6f 87be 1c37 263e 4a4b 96be
000002c0: bf38 f5bd dbbe b03e 5b0a 44be d113 853d
000002d0: c89b d1bc 21a1 76bd 3abd 353e ed15 c53e
000002e0: 13eb 2cbe d5be a9bb 53b1 933d ae69 9c3d
000002f0: aef6 e43e 0c6d 3ebe 4bb9 9bbd 14e7 843e
00000300: 9f4d 3c3f 9c11 d53c 2d3d 703f ce9d a53e
00000310: e650 5dbc af82 4bbe e33a 04be fa53 1b3d
00000320: 81f6 513e 2530 69be 3b17 983d 0282 5b3d
00000330: 0c82 353e 1bf0 1b3e 5a60 c13d 51da 28bd
00000340: d748 ab3e f68c ffbd b6d5 883e 5e32 ba3e
00000350: 879a ad3e d244 513e 5448 ca3d 95ac 41be
00000360: 94f0 c8bc 44c5 233e 2505 48be dd3b 1f3e
00000370: fd60 05be 6bfe 4c3e 7931 233f 1b8a 863d
00000380: 46e1 e43e a1cf afbe 7165 e1bd 4d14 55be
00000390: 7a4f 37be 49fa 37bc 7950 923d 75c0 ff3e
000003a0: 926b d93c 065e 803c dff1 5ebd 282f 9b3d
000003b0: 96ce 86bf 59d1 dc3d 9b7c 9fbe 4d97 233f
000003c0: 8965 55bc badd 29be cad6 8f3e 3d00 573e
000003d0: 96ad 8abd 6853 4bbd 08b5 4f3e db29 673e
000003e0: 77a4 18bc eebb 06bf bf72 77be c01b 963d
000003f0: 2987 013e 8bf2 e33d 5922 d7bd 3d22 a9bc
-0.26539108 0.27904114 -0.4539139 0.20780018 0.07376227 -0.22049525 -0.11739885 -0.28229475
0.13965099 -0.08987826 0.18138896 0.016367512 0.17090745 0.06503948 0.020244917 -0.5813555
-0.2502706 0.29948846 0.32186976 0.26953483 0.11452901 -0.078496486 -0.38143665 0.3071211
-0.15736352 -0.21740292 -0.14144233 0.2840999 -0.02391538 -0.03851041 0.39676064 0.34116766
0.0015558482 -0.08239523 0.16590552 0.14810963 0.13291773 -0.15658161 -0.33263695 -0.08258943
0.11813174 -0.124406874 0.45658943 -0.3060753 -0.27577695 -0.329121 0.2500825 0.07475401
-0.023613084 -0.042721823 0.016103977 0.087616116 0.20514318 -0.13537022 -0.20947444 -0.05337621
-0.42180368 -0.27317408 -0.0022809196 -0.2940221 0.13862514 0.09237901 0.0836437 0.016913954
-0.068633944 -0.07742088 -0.17986582 0.06943473 0.3087689 -0.45137414 0.20113845 0.1028433
0.1758848 -0.3765737 -0.1392275 -0.26929185 0.18406639 0.3972369 -0.0039234185 -0.007212303
-0.025995094 0.47763556 -0.021887487 -0.63033473 -0.033669975 -0.06717532 0.44731814 0.12750095
-0.16006853 -0.008914338 0.34638506 -0.18159384 0.028469972 0.067529 -0.16697916 0.043905515
0.16634111 0.1150596 -0.01124952 -0.30001873 -0.18867634 -0.14168905 0.10119044 -0.09864731
0.019890387 -0.012871681 0.030014269 0.40831828 0.0027072914 -0.17663966 -0.025339171 0.23678598
-0.24219556 0.39446092 0.045065463 0.06604758 0.26597375 -0.1007451 -0.43780276 0.1849531
-0.07446411 0.12606004 0.08838076 -0.019359231 -0.09679792 -0.5335106 -0.0896528 0.22032295
0.30518407 -0.15763864 0.029743927 0.30849126 -0.49528834 -0.50140107 0.53694993 0.11758381
-0.13490155 -0.36962903 0.093631 -0.028091598 0.20338206 -0.0027602783 0.18538506 0.043028176
0.19390404 0.11998373 -0.08767037 -0.048289876 -0.11487474 0.013159904 0.4198358 -0.21201037
0.009225404 0.25976333 0.1545426 0.014402395 0.07208922 0.061250146 -0.030080017 0.53540117
-0.13088639 -0.49658218 -0.27731544 0.34265018 -0.17064735 0.24591908 -0.097796656 -0.16923591
-0.31282687 -0.13124634 0.12719639 0.021675684 -0.318054 -0.26452202 0.1623196 -0.29354316
-0.11973714 0.3452061 -0.19144575 0.0649792 -0.025586978 -0.06021226 0.17747965 0.3849329
-0.16886549 -0.0051802197 0.07211556 0.07637344 0.44719452 -0.18596286 -0.07603701 0.2595755
0.7355594 0.026009373 0.93843347 0.32346958 -0.013508057 -0.1987407 -0.12913089 0.037921883
0.2050419 -0.22772272 0.07426306 0.053590782 0.1772539 0.15228312 0.09442206 -0.041223828
0.3345401 -0.12478058 0.26725549 0.36366552 0.33906958 0.20436409 0.09877077 -0.18913491
-0.02452878 0.1599322 -0.19533212 0.1555018 -0.1302528 0.20018928 0.63747364 0.0656931
0.4470312 -0.34338096 -0.110056765 -0.20808525 -0.17901412 -0.011229106 0.07144255 0.4995152
0.026540551 0.015669834 -0.054429885 0.07577354 -1.0531795 0.107821174 -0.31149754 0.6390274
-0.013024696 -0.16588488 0.2809356 0.20996185 -0.0677139 -0.04964009 0.20283902 0.2257456
-0.009316555 -0.5263051 -0.24164866 0.07329512 0.12649216 0.11130246 -0.10504598 -0.020646209
