results/wavelet_kan/best_model.pt (torch, 275682 bytes, 16 tensors)

layers.0.scale f4 [75, 195]
0.6789011 0.97513586 0.965357 1.0161018 1.2748808 1.19338 1.0085831 1.0518819
1.1740079 1.0737213 0.9552712 1.211218 0.939131 1.2689645 1.0502084 1.1358238
0.92853653 1.1933647 0.96915805 1.2341924 0.99476004 0.523113 1.661433 1.3849604
1.0930251 0.851896 0.9433505 1.0408305 0.9496353 1.4584363 0.95201856 0.67212814
0.84375894 0.78419334 1.0358677 1.6768532 1.388679 0.97953653 1.5904921 0.7051881
1.0952042 0.87886786 1.1190432 1.1503333 1.103772 1.0301902 1.0531502 1.0808772
0.92982185 1.0902452 1.3668003 0.78896636 0.9549176 1.0276202 0.95267075 1.064279
1.1088963 0.9987848 0.8279488 0.8518792 0.5102666 0.9384325 1.0996506 0.7057881
0.5127549 1.1448585 0.8070845 0.87198216 1.3598138 1.0191967 0.9500726 0.6616786
0.832374 0.8950464 1.548841 1.3675106 1.0322859 1.6022216 0.7015504 0.9540885
0.8621189 1.2320094 1.2562362 1.1730602 0.96839976 1.0544468 1.111719 1.1122242
1.09418 1.0035106 0.8585765 1.2733461 1.0013602 1.0284894 1.0905898 0.88841474
1.0586802 0.97156006 0.75915205 0.5067905 0.971176 0.89629966 0.71701735 0.45413297
0.9363305 1.2118491 0.8841914 1.358753 0.8603626 0.77843755 0.7715543 0.7878637
0.9725594 1.3206267 0.86947054 0.95883983 1.6144702 0.72952306 1.0479323 0.8738406
1.1485631 1.0979041 1.1548358 0.9689304 0.9490762 0.9909183 1.4541628 0.755741
1.0635959 1.0179867 1.0121347 0.9584916 1.1195652 1.222187 0.82306224 0.96580577
0.90689844 0.31793052 0.47898424 1.5160085 1.147182 0.7195578 0.47526386 1.2116648
0.977759 0.9046153 1.2855023 1.0516124 0.7877716 0.78785616 0.8041666 0.9065011
1.208152 1.2861662 0.86257845 1.593056 1.1072665 0.94922936 0.95015055 1.030483
1.1113731 1.2386146 0.94856316 0.9801591 0.95672864 1.1352096 0.6564421 1.0787275
1.0168111 1.1696068 0.9874465 1.0003989 1.1488541 0.87134385 0.9384069 0.9790598
0.79154295 0.47831994 0.9633218 1.1651417 0.78107363 0.83095276 0.85321057 1.1059929
0.9447483 1.2484845 0.97857344 0.37533072 1.0942105 0.8443644 1.017615 1.0762049
0.9201856 0.8563255 1.5762962 0.61221474 0.94193393 1.2276729 1.2919263 1.0574204
1.0130273 1.0274972 0.903141 1.0528036 1.5880879 0.83594704 1.1645281 1.218444
1.0744873 1.1301208 0.87251306 1.0293045 1.0137228 1.1536965 1.0093483 1.3888679
0.43250132 1.2203032 1.3461777 0.56359184 1.1048566 1.4747475 1.3005012 0.97159845
1.0785843 1.2634869 0.8952391 0.30875272 0.7020116 0.3792455 0.42598745 0.90528125
0.39952403 1.0230294 1.125446 1.0864618 0.91638327 1.2169068 1.0500051 1.074081
1.107091 1.098402 0.74323416 1.5273982 0.82685757 0.89054394 1.0045117 0.9826078
1.208817 1.1019478 1.024764 0.8732118 1.1211877 1.1851375 1.3967896 0.8301111
00000000: 76cc 2d3f 81a2 793f a321 773f a00f 823f
00000010: 4b2f a33f adc0 983f 4019 813f 11a4 863f
00000020: e445 963f b36f 893f a78c 743f 3109 9b3f
00000030: e46a 703f 6e6d a23f 3b6d 863f ad62 913f
00000040: 92b4 6d3f 2dc0 983f be1a 783f 04fa 9d3f
00000050: 98a8 7e3f bcea 053f d6a9 d43f 6246 b13f
00000060: 3fe8 8b3f db15 5a3f 6b7f 713f ef39 853f
00000070: 4d1b 733f 0aae ba3f 7db7 733f 9710 2c3f
00000080: 9600 583f e5c0 483f 5097 843f 20a3 d63f
00000090: 3cc0 b13f e8c2 7a3f 3f95 cb3f 3587 343f
000000a0: a72f 8c3f 7cfd 603f cf3c 8f3f 1f3e 933f
000000b0: 6748 8d3f 46dd 833f a0cd 863f 2f5a 8a3f
000000c0: ce08 6e3f 288d 8b3f 50f3 ae3f b3f9 493f
000000d0: 7b75 743f 0f89 833f 3be2 733f 4b3a 883f
000000e0: 50f0 8d3f 5cb0 7f3f 74f4 533f c114 5a3f
000000f0: d5a0 023f 1d3d 703f 5ac1 8c3f 87ae 343f
00000100: e843 033f b98a 923f 179d 4e3f 393a 5f3f
00000110: 610e ae3f 0a75 823f f537 733f c563 293f
00000120: 7616 553f c321 653f 6c40 c63f 960a af3f
00000130: f221 843f 9915 cd3f cf98 333f 253f 743f
00000140: d3b3 5c3f 7cb2 9d3f 59cc a03f d626 963f
00000150: 0ce9 773f 1df8 863f cf4c 8e3f 5d5d 8e3f
00000160: 170e 8c3f 0973 803f abcb 5b3f 01fd a23f
00000170: 922c 803f 8aa5 833f 7298 8b3f 266f 633f
00000180: d582 873f 29b8 783f ca57 423f 06bd 013f
00000190: fe9e 783f e573 653f 738e 373f 1e84 e83e
000001a0: 5bb3 6f3f df1d 9b3f 5e5a 623f 9eeb ad3f
000001b0: b940 5c3f af47 473f 9584 453f 6fb1 493f
000001c0: a7f9 783f 4c0a a93f 9f95 5e3f 8776 753f
000001d0: f6a6 ce3f 06c2 3a3f a522 863f 04b4 5f3f
000001e0: 1e04 933f 1f88 8c3f a9d1 933f d30b 783f
000001f0: a8f6 723f d2ac 7d3f 0222 ba3f 3e78 413f
00000200: e923 883f 634d 823f a18d 813f b55f 753f
00000210: ea4d 8f3f a070 9c3f 35b4 523f 0c3f 773f
00000220: 7f2a 683f cac7 a23e 6c3d f53e 910c c23f
00000230: dcd6 923f f134 383f c955 f33e d517 9b3f
00000240: 6a4e 7a3f de94 673f 578b a43f 3c9b 863f
00000250: 66ab 493f f1b0 493f dddd 4d3f 7510 683f
00000260: baa4 9a3f 18a1 a43f f1d1 5c3f 42e9 cb3f
00000270: e9ba 8d3f b200 733f 113d 733f dee6 833f
00000280: 7941 8e3f ec8a 9e3f 09d5 723f b5eb 7a3f
00000290: 2bec 743f 8c4e 913f 970c 283f be13 8a3f
000002a0: de26 823f adb5 953f 4bc9 7c3f 120d 803f
000002b0: a70d 933f 6410 5f3f 6f3b 703f aaa3 7a3f
000002c0: 8fa2 4a3f 5ae6 f43e 429c 763f 5d23 953f
000002d0: 71f4 473f 52b9 543f 026c 5a3f 2d91 8d3f
000002e0: 06db 713f 57ce 9f3f ca83 7a3f 592b c03e
000002f0: 170f 8c3f 4428 583f 3541 823f 15c1 893f
00000300: 4991 6b3f 2638 5b3f 13c4 c93f 1bba 1c3f
00000310: 9522 713f 6324 9d3f d75d a53f 8d59 873f
00000320: e1aa 813f 0785 833f 4034 673f 45c2 863f
00000330: 7746 cb3f a000 563f 420f 953f f9f5 9b3f
00000340: cd88 893f cca7 903f 045d 5f3f 40c0 833f
00000350: abc1 813f 54ac 933f 5332 813f 6cc6 b13f
00000360: d070 dd3e e532 9c3f 8d4f ac3f 8e47 103f
00000370: f16b 8d3f 87c4 bc3f d376 a63f adba 783f
00000380: 0d0f 8a3f f0b9 a13f 642e 653f d614 9e3e
00000390: 08b7 333f 772c c23e 071b da3e 83c0 673f
000003a0: 6a8e cc3e a1f2 823f 9d0e 903f 2e11 8b3f
000003b0: 1898 6a3f 9ac3 9b3f 9166 863f 7c7b 893f
000003c0: 28b5 8d3f 7098 8c3f 9844 3e3f c981 c33f
000003d0: f0ac 533f b0fa 633f d793 803f 2f8c 7b3f
000003e0: 84ba 9a3f a00c 8d3f 772b 833f cf8a 5f3f
000003f0: 1483 8f3f 96b2 973f 00ca b23f 2982 543f

layers.0.translation f4 [75, 195]
0.22001712 -0.066199034 -0.0032049823 -0.42612916 -0.04051684 0.123067446 0.24612397 -0.05779159
-0.0063994154 -0.3266737 0.35124195 -0.05552321 0.35923937 0.08522532 -0.09313931 -0.33535665
-0.1448837 -0.00011615044 -0.25804934 -0.23520312 0.07966326 -0.32836288 -0.39659518 -0.058663413
-0.3335519 -0.27089146 0.29650614 -0.06755703 -0.1532398 0.37339655 0.009622429 0.3677794
0.31414232 -0.20938143 0.056601908 0.097669594 0.5418673 -0.06796867 -0.9105534 0.1942428
0.059488896 -0.05166602 -0.22838883 -0.23953173 -0.018291028 -0.13529709 -0.0064303377 0.10307043
0.18588676 0.228289 -0.0872695 -0.38597885 -0.064651616 0.037978727 0.38258493 0.07150592
-0.3241954 -0.27873775 0.11655375 -0.28092965 -0.3350737 0.0943879 -0.05808856 0.22667709
0.23278259 -0.3565476 -0.19873688 -0.21852358 0.23800397 -0.054147728 0.27896145 -0.20075248
-0.14789899 -0.09118667 0.07288377 0.37979722 0.06449538 -0.82408345 0.17371331 0.15049997
0.09619996 -0.38469347 0.09836954 -0.05387208 -0.26840422 0.05644715 0.17880282 0.2792371
0.27660522 0.024721365 -0.45975348 0.02262775 -0.060039178 -0.31921825 0.13834837 -0.34163818
-0.1023594 0.15113404 0.19321722 -0.325863 0.08243539 0.011608794 0.24510844 0.316992
0.18664858 -0.009588227 -0.15147457 0.2712363 -0.0005189369 0.25224856 0.30348054 -0.21284766
0.0817385 -0.02215607 -0.11007592 0.11797033 -0.818438 0.2120266 0.041358676 0.028855992
-0.3810122 -0.21573386 -0.04056705 -0.09435479 0.009443306 0.18766977 -0.38656294 -0.30329472
0.108387694 -0.2641787 -0.04871843 -0.027032442 -0.110573694 0.17061892 0.28498557 0.20253986
0.07468204 0.3740899 -0.33869842 0.10746484 -0.016930759 0.16762997 0.30404475 -0.26000863
-0.107880116 -0.28617498 0.2602965 0.052938 0.24666816 0.25836048 -0.2980282 0.0076636747
0.047526468 0.1513147 0.038736682 -0.9312292 -0.25203767 -0.023637421 -0.1163703 -0.16082926
-0.13968804 -0.078372486 -0.038154475 0.030875813 0.251658 0.15823676 -0.28711033 0.09881256
-0.14988671 0.08994555 -0.031471085 -0.09002264 0.13912952 -0.39561424 -0.111424275 0.2379802
0.34602004 -0.32666406 0.0060049826 -0.0456707 0.21937233 -0.22526671 0.017621579 0.099930726
-0.20501009 0.36724156 -0.13601394 -0.3733881 -0.15891524 0.2680558 0.08930391 -0.042582635
0.05955701 0.06949286 -0.99486816 0.31004065 -0.15731524 0.018265197 0.08344371 -0.31041703
0.10231916 0.15033515 -0.057211116 0.34081945 0.05559234 -0.28000444 0.2659874 0.14210635
0.046218522 0.42264262 0.21232729 -0.12565432 0.11291007 -0.08934762 0.21516097 -0.5169487
-0.34247988 0.41504452 0.65384835 0.43233365 -0.11908143 0.033036288 -0.29147026 0.17753908
0.0559053 -0.034864355 0.1961806 0.27854773 0.31102976 0.38937816 0.13065287 -0.09520418
0.3679214 -0.103148796 -0.36555707 0.010635465 -0.13585971 -0.08843162 0.33221045 -0.20065697
0.042414594 -0.14677352 -0.58119214 0.031908143 -0.39513007 -0.41985184 0.14126633 0.009048222
-0.34052482 0.14310896 -0.048182715 0.31142262 -0.13920969 -0.15224823 -0.45689777 0.28841057
00000000: 2b4c 613e 5c93 87bd ae0a 52bb 9a2d dabe
00000010: fcf4 25bd c90a fc3d ec07 7c3e e0b6 6cbd
00000020: 30b2 d1bb c641 a7be fcd5 b33e 4e6c 63bd
00000030: 39ee b73e 9d8a ae3d d3bf bebd deb3 abbe
00000040: 655c 14be cb95 f3b8 0b1f 84be 16d9 70be
00000050: 7e26 a33d 2e1f a8be 860e cbbe 0c49 70bd
00000060: 51c7 aabe 49b2 8abe a7cf 973e 575b 8abd
00000070: e5ea 1cbe d52d bf3e 64a7 1d3c 954d bc3e
00000080: 43d7 a03e 1668 56be 67d7 673d ff06 c83d
00000090: d1b7 0a3f 2833 8bbd 071a 69bf 96e7 463e
000000a0: a1aa 733d c09f 53bd c3de 69be ce47 75be
000000b0: 11d7 95bc 528b 0abe 95b5 d2bb 9716 d33d
000000c0: 1959 3e3e 97c4 693e 5aba b2bd 059f c5be
000000d0: 1168 84bd 958f 1b3d 2ce2 c33e b271 923d
000000e0: f1fc a5be b7b6 8ebe bcb3 ee3d 03d6 8fbe
000000f0: c88e abbe 714e c13d 45ee 6dbd 0a1e 683e
00000100: 8f5e 6e3e 688d b6be ae81 4bbe a5c4 5fbe
00000110: 50b7 733e 02ca 5dbd 09d4 8e3e 0f92 4dbe
00000120: d572 17be 14c0 babd 1644 953d c874 c23e
00000130: 2716 843d 22f7 52bf e7e1 313e aa1c 1a3e
00000140: 7c04 c53d 8bf6 c4be f875 c93d f8a8 5cbd
00000150: 476c 89be 2035 673d 1618 373e 2af8 8e3e
00000160: 339f 8d3e 7684 ca3c cf64 ebbe d55d b93c
00000170: a4eb 75bd 9370 a3be 32ab 0d3e 33eb aebe
00000180: cea1 d1bd e2c2 1a3e bcda 453e 84d7 a6be
00000190: e3d3 a83d d032 3e3c b5fd 7a3e c74c a23e
000001a0: ce20 3f3e f017 1dbc 261c 1bbe 7cdf 8a3e
000001b0: 4409 08ba b926 813e cd61 9b3e bdf4 59be
000001c0: 8466 a73d a680 b5bc 7c6f e1bd 6e9a f13d
000001d0: 2785 51bf 801d 593e b767 293d 6763 ec3c
000001e0: 0814 c3be 56e9 5cbe a329 26bd 163d c1bd
000001f0: 19b8 1a3c 812c 403e 94eb c5be 7249 9bbe
00000200: 5efa dd3d 6e42 87be fa8c 47bd 2473 ddbc
00000210: 7674 e2bd bab6 2e3e a1e9 913e 9c66 4f3e
00000220: e6f2 983d b688 bf3e e169 adbe 8716 dc3d
00000230: 60b2 8abc 31a7 2b3e c1ab 9b3e da1f 85be
00000240: 40f0 dcbd 8785 92be 9545 853e 84d5 583d
00000250: 9496 7c3e d347 843e 2797 98be 901f fb3b
00000260: 1dab 423d 3ef2 1a3e 5baa 1e3d 0965 6ebf
00000270: 150b 81be 44a3 c1bc 8d53 eebd 6db0 24be
00000280: 620a 0fbe c181 a0bd de47 1cbd 46ef fc3c
00000290: 51d9 803e d108 223e 2000 93be 3d5e ca3d
000002a0: e77b 19be 5f35 b83d d3e7 00bd ca5d b8bd
000002b0: f877 0e3e f38d cabe 6932 e4bd 15b1 733e
000002c0: 8a29 b13e 8340 a7be 72c5 c43b 3311 3bbd
000002d0: 24a3 603e 51ac 66be 215b 903c 7ba8 cc3d
000002e0: 2aee 51be 1607 bc3e 3d47 0bbe ba2c bfbe
000002f0: adba 22be 9c3e 893e f8e4 b63d 216b 2ebd
00000300: 0df2 733d 4652 8e3d aeaf 7ebf a6bd 9e3e
00000310: 3f17 21be e5a0 953c 89e4 aa3d fbee 9ebe
00000320: b58c d13d 75f1 193e 3456 6abd e37f ae3e
00000330: cbb4 633d be5c 8fbe 802f 883e 5484 113e
00000340: a24f 3d3d 9d64 d83e 536c 593e 87ab 00be
00000350: 653d e73d e3fb b6bd 2853 5c3e c056 04bf
00000360: 8659 afbe b780 d43e 9b62 273f d65a dd3e
00000370: f7e0 f3bd 0f51 073d 973b 95be cecc 353e
00000380: f5fc 643d edcd 0ebd 91e3 483e cf9d 8e3e
00000390: 4b3f 9f3e 935c c73e dec9 053e 69fa c2bd
000003a0: 3260 bc3e ad3f d3bd 4c2a bbbe 6040 2e3c
000003b0: cf1e 0bbe a31b b5bd 7d17 aa3e 0579 4dbe
000003c0: edba 2d3d cc4b 16be 02c9 14bf 1db2 023d
000003d0: 7d4e cabe d2f6 d6be 1fa8 103e fe3e 143c
000003e0: 4559 aebe 288b 123e 3d5b 45bd c972 9f3e
000003f0: fc8c 0ebe f6e6 1bbe 81ee e9be 8daa 933e

layers.0.weight1 f4 [75, 195]
-0.03266864 -0.030987896 0.038725816 0.014582269 0.028915964 -0.045138977 -0.024363171 -0.04657995
0.016306527 0.014581509 -0.035864323 -0.039067697 0.033300497 0.005816743 0.014647976 -0.016689729
-0.06344403 0.0459958 0.06704532 0.060737558 -0.052738037 -0.03380425 -0.051898148 0.064745314
0.057492383 -0.032250527 0.012846269 0.05132769 0.054761626 -0.03323508 -0.02708562 -0.054814722
-0.06443833 -0.019289497 -0.022346407 0.04288525 0.054167993 -0.015630856 0.031849466 0.00044932961
0.035984553 -0.06321441 -0.0126088895 -0.023838725 0.057851158 0.033941314 0.02785933 0.03573554
-0.04777968 -0.05400962 -0.04231725 -0.012167793 -0.036797408 0.030700035 0.0619198 0.070911266
0.048417173 0.029585704 0.00082591176 -0.038238686 0.012366325 0.041175544 0.008181579 -0.007868424
-0.006000325 -0.06379381 0.0025726706 0.011335768 0.061113603 0.025970891 0.067669965 -0.0014863908
0.055034034 -0.04284762 0.020642951 0.068289004 0.018008888 -0.039993796 0.029817209 -0.06835168
0.031103767 -0.039466817 0.05041989 0.006516628 0.023118287 -0.03252086 -0.0066185147 -0.037320208
0.060955755 0.028240308 -0.037846923 -0.026859012 0.034137458 -0.043705724 0.01418063 -0.03530075
-0.008807071 0.049240716 -0.010685183 0.039752506 -0.047246438 0.05609835 -0.06754477 -0.06821026
-0.07057054 -0.061933972 -0.006287165 -0.06838156 0.016146153 -0.03751901 0.011511095 -0.0048976988
0.026599228 -0.009487938 -0.057310212 0.008873731 0.016724601 -0.0018389523 -0.015192069 -0.0072671548
0.004690014 0.003649287 -0.020178009 0.04876806 -0.059994977 0.049725726 -0.044536717 0.051002808
-0.049462494 -0.044439003 0.009610951 0.06641578 -0.008384317 -0.011602834 0.027725048 0.024359643
-0.022177361 0.004804775 0.071537934 -0.000989601 -0.06443552 -0.0643542 0.039620645 -0.049648955
-0.06537488 0.004453853 -0.017587457 0.07080867 -0.055715922 0.05009356 0.020919345 0.013084397
0.025271833 0.040469475 0.051311426 -0.054491334 0.067843564 0.024557449 0.01094687 -0.032293953
0.06936505 -0.03731387 0.013179995 0.029848121 -0.057050414 0.06463843 -0.00053747743 0.008609377
-0.06626085 0.023204446 -0.056569837 -0.015924282 0.008383937 -0.041851662 0.06414687 -0.058374036
0.01529637 0.02654966 -0.05031311 -0.0051162913 -0.067206256 -0.07120713 0.051269285 -0.009924233
-0.022986919 -0.05767312 0.0665817 -0.030097727 0.05719129 -0.06849799 0.022833183 -0.02613021
0.049946427 0.0020889193 -0.026767172 -0.029603902 -0.026617352 0.06167964 -0.00030565262 -0.06773048
-0.0008866787 -0.0031838715 0.060710914 -0.060422823 0.00035291165 0.05578267 0.008278415 -0.0018677786
-0.06399036 -0.054412052 -0.021735601 -0.05954662 0.026807822 0.02155979 -0.060251996 0.070956014
0.00823123 0.047090814 -0.026774071 0.059266217 0.0601471 -0.06354288 -0.02892103 -0.051731374
-0.00046932697 -0.048501357 -0.0304684 0.02635134 0.032832175 0.054885425 0.065128826 0.023006476
-0.015078828 0.015345283 0.06783592 0.06810158 -0.07115895 0.06464129 -0.022052784 -0.024518035
-0.063866325 0.037348166 0.021310143 0.049549915 -0.03682924 0.04772927 -0.06703268 0.052528553
0.050563395 -0.06390231 -0.0566666 0.013856538 0.034031466 0.07005111 0.036401905 -0.04924597
00000000: 8dcf 05bd 54da fdbc f69e 1e3d 78ea 6e3c
00000010: 2ce1 ec3c a6e3 38bd 4695 c7bc 9eca 3ebd
00000020: 4495 853c 48e7 6e3c 78e6 12bd 7305 20bd
00000030: 1a66 083d 609a be3b 10fe 6f3c e6b8 88bc
00000040: f2ee 81bd 1866 3c3d 0f4f 893d f2c7 783d
00000050: d703 58bd 5376 0abd 2793 54bd 3199 843d
00000060: 227d 6b3d 2119 04bd 2879 523c fc3c 523d
00000070: ba4d 603d 8221 08bd aae2 ddbc 6785 60bd
00000080: 3ef8 83bd 0205 9ebc d00f b7bc 72a8 2f3d
00000090: 42df 5d3d 480c 80bc 9674 023d 0094 eb39
000000a0: 8a64 133d 8e76 81bd 8495 4ebc 6e49 c3bc
000000b0: 56f5 6c3d 0c06 0b3d 4039 e43c 6e5f 123d
000000c0: a0b4 43bd 3139 5dbd da54 2dbd 6c5b 47bc
000000d0: e1b8 16bd a47e fb3c 9e9f 7d3d ed39 913d
000000e0: 1651 463d b85d f23c 0082 583a 2ba0 1cbd
000000f0: 209c 4a3c b0a7 283d 080c 063c 90ea 00bc
00000100: 609e c4bb 54a6 82bd 409a 283b a8b9 393c
00000110: 4252 7a3d e8c0 d43c 8d96 8a3d 00d3 c2ba
00000120: 5e6b 613d fc80 2fbd 681b a93c 1bdb 8b3d
00000130: 6087 933c 89d0 23bd 3843 f43c f7fb 8bbd
00000140: 54cd fe3c f5a7 21bd 1685 4e3d 7089 d53b
00000150: 9062 bd3c 9834 05bd 20e0 d8bb 13dd 18bd
00000160: beac 793d 3858 e73c 6005 1bbd 6e07 dcbc
00000170: b8d3 0b3d c604 33bd e055 683c 8597 10bd
00000180: 884b 10bc a2b0 493d e810 2fbc 86d3 223d
00000190: 7b85 41bd 62c7 653d ea54 8abd d2b1 8bbd
000001a0: 4a87 90bd 7aae 7dbd 9004 cebb a20b 8cbd
000001b0: f044 843c 89ad 19bd 0899 3c3c e07c a0bb
000001c0: a0e6 d93c 4c73 1bbc 1dbe 6abd 2063 113c
000001d0: 0802 893c 0009 f1ba 28e8 78bc 5021 eebb
000001e0: b0ae 993b e028 6f3b 5a4c a5bc 04c1 473d
000001f0: 4bbd 75bd 34ad 4b3d 226c 36bd 52e8 503d
00000200: 2f99 4abd ac05 36bd 4077 1d3c ff04 883d
00000210: 605e 09bc d019 3ebc a41f e33c e08d c73c
00000220: 4cad b5bc 6071 9d3b 7b82 923d 80b5 81ba
00000230: c5f6 83bd 23cc 83bd 4249 223d b45c 4bbd
00000240: 44e3 85bd a0f1 913b 9213 90bc 2304 913d
00000250: 6136 64bd e82e 4d3d 0c5f ab3c f05f 563c
00000260: e006 cf3c 52c3 253d ee2b 523d 4e32 5fbd
00000270: 91f1 8a3d b42c c93c 805a 333c aa46 04bd
00000280: 430f 8e3d 6ed6 18bd e8f0 573c 0c84 f43c
00000290: b2ad 69bd 2761 843d 80e5 0cba 580e 0d3c
000002a0: c5b3 87bd 4017 be3c c6b5 67bd a473 82bc
000002b0: c85c 093c a66c 2bbd 6f5f 833d 9d19 6fbd
000002c0: a09d 7a3c ac7e d93c 1f15 4ebd 90a6 a7bb
000002d0: 6fa3 89bd 0bd5 91bd beff 513d 4099 22bc
000002e0: 104f bcbc a63a 6cbd fd5b 883d 828f f6bc
000002f0: 6a41 6a3d ad48 8cbd a80c bb3c 060f d6bc
00000300: a094 4c3d 40e6 083b d446 dbbc e283 f2bc
00000310: a20c dabc caa3 7c3d 0040 a0b9 47b6 8abd
00000320: 0070 68ba 80a8 50bb 02ac 783d ec7d 77bd
00000330: 0007 b939 5e7c 643d 30a2 073c 40d0 f4ba
00000340: 610d 83bd 2cdf 5ebd dc0e b2bc 28e7 73bd
00000350: 149c db3c 289e b03c ccca 76bd 6351 913d
00000360: 48dc 063c 4ce2 403d 4c55 dbbc 22c1 723d
00000370: ce5c 763d c522 82bd cceb ecbc 47e4 53bd
00000380: 0010 f6b9 5ca9 46bd de98 f9bc c4de d73c
00000390: 087b 063d 8acf 603d 4362 853d 1478 bc3c
000003a0: 300d 77bc c86a 7b3c 8fed 8a3d d778 8b3d
000003b0: c9bb 91bd a762 843d 0aa8 b4bc 0cda c8bc
000003c0: 59cc 82bd 64fa 183d 9c92 ae3c daf4 4a3d
000003d0: 42da 16bd c47f 433d 6e48 89bd 2e28 573d
000003e0: 901b 4f3d 37df 82bd 3d1b 68bd 8806 633c
000003f0: 9464 0b3d f576 8f3d 2a1a 153d 24b6 49bd

layers.0.wavelet_weights f4 [75, 195]
0.08615483 0.003203405 -0.029715868 -0.011496916 -0.010901165 0.02175535 -0.011758431 -0.014228335
-0.0056605395 0.08277546 0.14253162 -0.007843147 -0.06307285 -0.012387345 0.027219148 0.13649689
-0.018794438 0.07433603 0.022118753 0.022463532 -0.029773252 -0.3610757 0.0046022935 -0.025409497
-0.07011731 -0.07721614 -0.029641092 0.09036628 -0.01825669 0.015794005 0.0028789544 0.08553856
-0.07533185 -0.09138548 0.025594477 -0.28348842 -0.018991804 -0.16878489 -0.09904142 0.08193744
0.006034965 -0.027233044 -0.007278029 -0.008117197 0.033092733 0.052828107 -0.029371245 -0.02162186
-0.083721444 0.07563939 -0.0025298926 0.09963073 0.0050995755 0.036202017 -0.03852555 0.00068311696
0.10086106 0.013162942 -0.08694953 -0.10268856 -0.27989215 -0.03586666 -0.116082266 0.06480311
0.13742201 0.07534086 0.07287071 -0.0885059 -0.057225984 0.0008624038 0.037352867 0.15011042
-0.07326788 0.08434776 -0.29556113 0.027011031 -0.1514452 -0.082570486 0.11695832 0.011362485
-0.021128774 0.0019032577 -0.009660854 0.025151376 0.06560752 -0.016803807 -0.046400722 -0.0056412593
0.0677124 0.002698658 0.0037802418 -0.012826396 0.047008716 0.108117774 0.008480291 0.07008958
0.0049741925 -0.058283206 -0.04619968 -0.27692607 -0.026981834 0.022754004 0.044607196 0.13663764
-0.033744574 -0.08943849 -0.121871 -0.11045317 -0.01459585 0.15270385 -0.14526555 -0.05648163
0.13106227 -0.20729032 -0.052852936 -0.19058254 -0.08892016 0.052765265 0.0054603643 -0.010828645
-0.0029371323 -0.01953606 0.011786465 0.104227416 -0.0073072226 -0.040354434 0.0073538315 -0.018246511
0.00052593864 0.04767057 0.0041208896 0.05655593 0.036733072 0.010417754 -0.032177158 -0.0026919546
-0.049814582 -0.019060107 -0.2563865 -0.002022277 -0.038720306 0.09646353 0.09840385 0.0778027
0.0006951015 -0.08457477 -0.15641928 -0.0022768036 0.15377328 -0.20572245 -0.09417646 0.09123815
-0.25116012 -0.061209604 -0.12561421 -0.0924488 -0.096740745 -0.005061184 -0.013519747 -0.022137221
-0.024662662 0.007827255 0.15249914 -0.012856748 -0.055231046 -0.0010350497 -0.061172236 -0.008402968
0.1546016 -0.010064084 0.05202693 0.18773416 0.009218835 0.1443194 -0.011049066 -0.06131971
0.07404683 -0.26526415 -0.029635144 -0.04266463 0.03128996 -0.07937203 -0.051584117 -0.04204384
-0.090229206 -0.08968635 -0.019127939 -0.18930724 -0.07030259 -0.015456548 0.083812095 -0.06690924
-0.016868627 -0.13837449 -0.08950211 -0.15423125 0.020701768 -0.009617584 0.025829183 -0.00500664
0.010103971 0.02974092 -0.010921033 0.044716284 -0.0035285773 0.122191936 0.0013081568 0.0024228983
-0.016255619 -0.029425971 0.06749361 0.0025957935 0.05096022 0.01882284 0.07199759 -0.11781171
0.080327466 -0.000101381265 0.02882368 -0.1064647 0.08615575 0.036633015 -0.04541771 0.014411554
0.043367874 0.021056388 -0.043769773 -0.53783345 0.09489696 0.25693566 0.26318797 -0.01784331
-0.27363062 0.013632729 0.14180812 -0.0064220172 -0.027041273 0.001005583 -7.561884e-05 0.0010511698
0.0051814266 -0.015482879 -0.006382851 -0.006072236 0.20176937 0.014066929 0.071997926 -0.011396009
-0.0122663425 0.072514705 0.007088161 0.098251686 0.013999683 0.03894606 -0.10523693 -0.15692672
00000000: f271 b03d 38f0 513b b16e f3bc 905d 3cbc
00000010: cd9a 32bc 4738 b23c 6fa6 40bc f61d 69bc
00000020: 0c7c b9bb 2e86 a93d cff3 113e 8b80 00bc
00000030: 572c 81bd 4af4 4abc b1fa de3c d7c5 0b3e
00000040: cbf6 99bc 7d3d 983d 6332 b53c 7105 b83c
00000050: 09e7 f3bc eade b8be d6ce 963b 9427 d0bc
00000060: aa99 8fbd 7f23 9ebd e0d1 f2bc f511 b93d
00000070: 0e8f 95bc 6e62 813c d7ac 3c3b d72e af3d
00000080: 9647 9abd 4f28 bbbd 82ab d13c 6525 91be
00000090: b394 9bbc f2d5 2cbe 3ad6 cabd d1ce a73d
000000a0: f5c0 c53b d517 dfbc 887c eebb fefd 04bc
000000b0: 3f8c 073d 4962 583d f79b f0bc 5420 b1bc
000000c0: 2676 abbd d3e8 9a3d 8ecc 25bb 320b cc3d
000000d0: 571a a73b 9148 143d f8cc 1dbd 3413 333a
000000e0: 3e90 ce3d 61a9 573c 9812 b2bd 614e d2bd
000000f0: 064e 8fbe ebe8 12bd 8abc edbd 7eb7 843d
00000100: 5bb8 0c3e 4f4c 9a3d 3d3d 953d 9542 b5bd
00000110: cb65 6abd f012 623a 52ff 183d 8cb6 193e
00000120: 780d 96bd 85be ac3d ca53 97be 3d46 dd3c
00000130: 7314 1bbe b71a a9bd d887 ef3d b729 3a3c
00000140: 4016 adbc bb76 f93a 8f48 1ebc 420a ce3c
00000150: 3c5d 863d 23a8 89bc af0e 3ebd 50da b8bb
00000160: ccac 8a3d f8db 303b efbd 773b ce25 52bc
00000170: 368c 403d da6c dd3d ebf0 0a3c 208b 8f3d
00000180: 8dfe a23b 5fba 6ebd e03b 3dbd 41c9 8dbe
00000190: 0209 ddbc 9b66 ba3c 09b6 363d bdea 0b3e
000001a0: c037 0abd 872b b7bd 8197 f9bd 4635 e2bd
000001b0: 6f23 6fbc 665e 1c3e 7ec0 14be 4859 67bd
000001c0: 3035 063e ea43 54be 527c 58bd 1228 43be
000001d0: c61b b6bd 6420 583d dbec b23b a16a 31bc
000001e0: e77c 40bb 160a a0bc 041c 413c 2f75 d53d
000001f0: 6d71 efbb b14a 25bd 69f8 f03b b579 95bc
00000200: 25df 093a 3742 433d 8708 873b 31a7 673d
00000210: 6b75 163d 3aaf 2a3c 32cc 03bd 816b 30bb
00000220: 600a 4cbd f123 9cbc 1745 83be 2e88 04bb
00000230: 2f99 1ebd ac8e c53d f587 c93d 0657 9f3d
00000240: 7937 363a 8935 adbd 602c 20be 6d36 15bb
00000250: be76 1d3e e8a8 52be 96df c0bd 11db ba3d
00000260: 0f98 80be ecb6 7abd 03a1 00be cc55 bdbd
00000270: 0320 c6bd 4ad8 a5bb ee81 5dbc 1e59 b5bc
00000280: 5a09 cabc e33d 003c bc28 1c3e 1ca5 52bc
00000290: f339 62bd 81aa 87ba bd8f 7abd 9aac 09bc
000002a0: e24f 1e3e d4e3 24bc 311a 553d 623d 403e
000002b0: 990a 173c 77c8 133e 2407 35bc 602a 7bbd
000002c0: dda5 973d b4d0 87be 67c5 f2bc 1bc1 2ebd
000002d0: e729 003d ce8d a2bd de49 53bd 2936 2cbd
000002e0: 17ca b8bd 7aad b7bd 32b2 9cbc c2d9 41be
000002f0: cefa 8fbd 763d 7dbc ada5 ab3d b607 89bd
00000300: 1330 8abc 0bb2 0dbe e24c b7bd ccee 1dbe
00000310: c196 a93c 1293 1dbc b997 d33c be0e a4bb
00000320: 208b 253c 3ba3 f33c 22ee 32bc 6c28 373d
00000330: b43f 67bb c43f fa3d 7576 ab3a 7dc9 1e3b
00000340: 812a 85bc bc0e f1bc 173a 8a3d 301e 2a3b
00000350: aabb 503d 5b32 9a3c 7973 933d 4447 f1bd
00000360: ba82 a43d a79c d4b8 a31f ec3c 2a0a dabd
00000370: 6d72 b03d 800c 163d ec07 3abd 701e 6c3c
00000380: 83a2 313d 727e ac3c ef47 33bd 74af 09bf
00000390: 5659 c23d 128d 833e 93c0 863e 222c 92bc
000003a0: 5019 8cbe cf5b 5f3c 2636 113e c96f d2bb
000003b0: a985 ddbc c4cd 833a 8e95 9eb8 68c7 893a
000003c0: f5c8 a93b e7ab 7dbc 3c27 d1bb 9cf9 c6bb
000003d0: a19c 4e3e fa78 663c a673 933d 53b6 3abc
000003e0: c5f8 48bc 9782 943d ce43 e83b 2e38 c93d
000003f0: ed5e 653c e785 1f3d 7686 d7bd 66b1 20be

layers.0.bn.weight f4 [75]
0.831904 0.7196294 0.8527457 0.80540425 0.89322597 1.1339209 1.0892671 1.1011977
0.75832874 0.5220314 1.3136268 1.1447246 0.8045144 1.3404964 0.72271717 0.6880226
0.732758 1.2528108 1.2019979 0.7276602 0.7505212 1.0899718 1.0401778 0.85628027
0.7736041 0.796397 0.72764194 0.72568536 0.67039585 0.6176082 0.5863682 0.82897687
0.9376842 0.78436345 0.8739115 0.91192603 0.9643739 0.6224689 0.7527837 0.66398674
1.1108524 0.8181361 0.5976304 0.7462342 0.8348097 0.65644 0.68065494 1.0146706
1.0783615 0.92474395 1.061096 0.87546355 0.7241745 1.4186109 0.5290675 1.0503409
0.99572676 0.9336294 0.8237071 0.6102439 0.6062099 0.5627462 0.84970444 0.78760743
1.3335985 0.905998 0.99517024 1.0967175 1.132684 0.79897094 1.0564744 0.6324998
0.8056494 1.0094705 0.67340654
00000000: a9f7 543f a239 383f 8b4d 5a3f f92e 4e3f
00000010: 75aa 643f 5224 913f 1b6d 8b3f 0cf4 8c3f
00000020: d521 423f daa3 053f ec24 a83f 5686 923f
00000030: a8f4 4d3f 6395 ab3f fe03 393f 4022 303f
00000040: 0796 3b3f 1b5c a03f 11db 993f f047 3a3f
00000050: 2822 403f 3284 8b3f 8c24 853f 2f35 5b3f
00000060: eb0a 463f ace0 4b3f be46 3a3f 84c6 393f
00000070: 109f 2b3f 921b 1e3f 3a1c 163f d437 543f
00000080: 120c 703f 0bcc 483f aab8 5f3f fc73 693f
00000090: 35e1 763f 1f5a 1f3f 6fb6 403f 09fb 293f
000000a0: 6930 8e3f 5e71 513f 4efe 183f 3409 3f3f
000000b0: 17b6 553f 740c 283f 673f 2e3f bae0 813f
000000c0: c007 8a3f 05bc 6c3f fed1 873f 611e 603f
000000d0: 8063 393f 0b95 b53f f870 073f 9271 863f
000000e0: f3e7 7e3f 5602 6f3f 78de 523f f238 1c3f
000000f0: 9230 1b3f 2310 103f 3b86 593f a4a0 493f
00000100: 5bb3 aa3f 7cef 673f 7ac3 7e3f 3d61 8c3f
00000110: cafb 903f 5c89 4c3f 8e3a 873f 82eb 213f
00000120: 0a3f 4e3f 5436 813f 5f64 2c3f

layers.0.bn.bias f4 [75]
0.14220256 -0.13683774 -0.13128199 -0.17077626 -0.108673245 0.06265192 0.004769631 -0.17622474
0.16024134 -0.26403186 0.16184309 0.0985098 0.11838102 0.093382396 -0.1037479 -0.022648131
-0.09026789 0.107977584 0.0071035945 0.07999206 0.032120828 0.054782268 -0.07975443 0.13624455
0.14036137 0.034128286 0.008415483 -0.23978236 -0.14044768 0.12521662 0.037434824 -0.43242326
0.18693505 0.13634165 0.13219841 0.07553612 -0.12634008 0.10746528 0.070789605 0.041036226
0.14863393 0.12090947 0.009355764 0.0006511604 -0.070406176 0.16998355 0.121345 -0.09275733
0.023258291 -0.05918645 0.20540936 0.15768072 -0.05057333 0.14553614 0.15379563 -0.14464003
-0.1491691 0.15976167 0.03854919 -0.19387197 -0.04363402 -0.118265845 0.18129936 0.085184135
-0.060724348 0.0902267 -0.0803819 -0.07827685 0.1507518 0.11659281 0.0076555214 -0.016830005
0.20815165 0.06772962 -0.22600761
00000000: 8c9d 113e 311f 0cbe c96e 06be f9df 2ebe
00000010: 1490 debd a64f 803d 914a 9c3b 4274 34be
00000020: 4e16 243e 2f2f 87be 32ba 253e 82bf c93d
00000030: c071 f23d 453f bf3d c779 d4bd 9388 b9bc
00000040: 5fde b8bd 5a23 dd3d 45c5 e83b e1d2 a33d
00000050: 2191 033d 5f63 603d 4a56 a3bd b183 0b3e
00000060: e4ba 0f3e 1aca 0b3d 18e1 093c 8289 75be
00000070: 84d1 0fbe c938 003e 4255 193d 9566 ddbe
00000080: e76b 3f3e 259d 0b3e 055f 073e aeb2 9a3d
00000090: 4b5f 01be c216 dc3d 24fa 903d 9a15 283d
000000a0: 7e33 183e 629f f73d eb48 193c a2b2 2a3a
000000b0: 1d31 90bd 2b10 2e3e ba83 f83d 8ef7 bdbd
000000c0: 2c88 be3c 7e6d 72bd d556 523e 0e77 213e
000000d0: fb25 4fbd 6d07 153e 9a7c 1d3e 841c 14be
000000e0: c9bf 18be 9098 233e c1e5 1d3d 6086 46be
000000f0: 96b9 32bd 5d35 f2bd 8aa6 393e 0575 ae3d
00000100: 18ba 78bd c7c8 b83d 449f a4bd 9d4f a0bd
00000110: ae5e 1a3e 36c8 ee3d 2bdb fa3b 14df 89bc
00000120: b525 553e d4b5 8a3d 8a6e 67be

layers.0.bn.running_mean f4 [75]
0.6634607 -1.5240461 -1.5122058 -1.6478701 -0.6315935 1.280385 2.8287952 -1.4701654
-0.34264225 0.023064943 0.6546701 1.8150969 2.1858861 0.49159497 0.5320223 1.2979754
0.52308947 0.6674981 -1.2992847 1.4146297 -1.3913552 1.2730496 -0.16172609 2.4143078
1.7381748 1.0113393 3.8292575 -1.5208417 -1.41959 -0.48727065 0.8275053 -0.55002797
1.790785 1.9264156 1.7426353 0.14290746 -0.6434787 1.2834349 -0.6586808 -0.55108875
4.7049766 -1.254381 -0.12950373 1.707992 -1.3056316 1.6005261 0.005254792 -0.64419216
2.982384 -1.2587467 0.89775735 0.25096735 -0.8964582 -4.62895 -1.4820185 -2.2539186
-1.5424277 2.102527 1.9174087 0.42769268 0.12714836 -0.17474177 0.7660898 0.8825161
-1.7592038 0.2972789 3.2253377 -2.0800173 1.473517 3.0640042 2.1584287 0.0069013233
0.79503316 -0.55332935 -0.16044024
00000000: 8fd8 293f f113 c3bf f68f c1bf 68ed d2bf
00000010: 1db0 21bf a8e3 a33f fb0a 3540 612e bcbf
00000020: ce6e afbe b1f2 bc3c 7698 273f 1855 e83f
00000030: 8fe5 0b40 56b2 fb3e 9d32 083f 0f24 a63f
00000040: 31e9 053f 28e1 2a3f f64e a6bf 9612 b53f
00000050: ed17 b2bf 4af3 a23f 869b 25be 0584 1a40
00000060: 837c de3f 9173 813f 8e12 7540 f1aa c2bf
00000070: 20b5 b5bf 8a7b f9be 63d7 533f a2ce 0cbf
00000080: 7138 e53f c994 f63f ac0e df3f 5556 123e
00000090: 05bb 24bf 9847 a43f 4e9f 28bf 2714 0dbf
000000a0: 2b8f 9640 8e8f a0bf a09c 04be 7b9f da3f
000000b0: f01e a7bf 0ade cc3f 6430 ac3b c7e9 24bf
000000c0: 61df 3e40 9d1e a1bf 6dd3 653f cb7e 803e
000000d0: 497e 65bf 5c20 94c0 c8b2 bdbf 3440 10c0
000000e0: 456e c5bf cd8f 0640 a66d f53f 89fa da3e
000000f0: 2e33 023e 82ef 32be 761e 443f 93ec 613f
00000100: 972d e1bf f134 983e ef6b 4e40 011f 05c0
00000110: 349c bc3f a518 4440 b223 0a40 7f24 e23b
00000120: 4b87 4b3f fea6 0dbf 724a 24be

layers.0.bn.running_var f4 [75]
0.16375455 0.15149455 0.04762973 0.082765214 0.08074071 0.019528901 0.15910262 0.09577625
0.14143275 0.12518308 0.024613531 0.09184245 0.11823578 0.024684649 0.0949677 0.16597854
0.16014291 0.069433324 0.011685187 0.07984804 0.12440441 0.12497109 0.02239667 0.10882617
0.26932582 0.14006278 0.1750321 0.122017846 0.12999173 0.11446202 0.075155295 0.06294278
0.4336702 0.16889033 0.13675164 0.07797911 0.07830074 0.06565934 0.058797315 0.100438796
0.27770904 0.08814284 0.06346261 0.15247321 0.14351839 0.15138175 0.11383907 0.008433558
0.17227753 0.02566439 0.03848782 0.08603039 0.17796461 0.18418938 0.06912847 0.2414668
0.04522303 0.1326854 0.13792631 0.024976065 0.10061065 0.06733643 0.07754284 0.114110745
0.1147218 0.09408787 0.16645783 0.14707927 0.08256347 0.16032535 0.11436064 0.12988904
0.1385726 0.2276786 0.13418591
00000000: 46af 273e 6321 1b3e 6417 433d cf80 a93d
00000010: 635b a53d 13fb 9f3c cceb 223e 5726 c43d
00000020: bfd3 103e fe2f 003e 51a2 c93c e517 bc3d
00000030: 9a25 f23d 7637 ca3c 6d7e c23d 47f6 293e
00000040: 81fc 233e 0f33 8e3d 3a73 3f3c 5f87 a33d
00000050: bdc7 fe3d d8f0 ff3d 3979 b73c 41e0 de3d
00000060: 13e5 893e 9e6c 0f3e 9d3b 333e 7ee4 f93d
00000070: 8d1c 053e 106b ea3d 05eb 993d 25e8 803d
00000080: 050a de3e 96f1 2c3e 9f08 0c3e 83b3 9f3d
00000090: 235c a03d 6778 863d 74d5 703d dbb2 cd3d
000000a0: e12f 8e3e 3c84 b43d aff8 813d f021 1c3e
000000b0: 7cf6 123e d103 1b3e 7524 e93d e82c 0a3c
000000c0: 8569 303e 203e d23c 68a5 1d3d b330 b03d
000000d0: 5b3c 363e 249c 3c3e 3a93 8d3d 1343 773e
000000e0: c93b 393d aede 073e 8e3c 0d3e 9b9a cc3c
000000f0: f50c ce3d afe7 893d c8ce 9e3d e5b2 e93d
00000100: 43f3 ea3d 24b1 c03d ec73 2a3e f39b 163e
00000110: 0917 a93d 542c 243e e935 ea3d a201 053e
00000120: fae5 0d3e 9424 693e 0868 093e

layers.1.scale f4 [29, 75]
1.1588172 1.194569 0.8490949 0.7900924 0.9943031 0.75201064 0.89128923 0.6982709
1.0591016 1.2827419 0.70758235 0.8442211 1.2221513 0.6942624 0.77854455 0.93466693
1.096607 0.7099186 0.8454413 1.2719152 1.2010175 0.6563577 0.7889521 0.94034296
1.2053416 0.8109055 0.9445821 1.1489937 1.2160916 1.2818545 1.2451524 0.68146706
0.8502667 1.0306604 1.2950199 0.86764556 1.0772088 1.1187724 0.76978344 0.9973616
0.95154107 1.1839094 0.92218935 1.0921973 0.9488515 0.86826944 1.2233047 0.7985619
0.7150393 0.58533466 0.62671167 0.9206727 1.1209779 0.5582698 1.1505868 0.4605755
0.7880077 0.93354815 0.77761763 0.7450549 0.8891741 1.0706202 0.81550676 1.4599575
0.6243077 1.2574552 0.70763254 0.7085739 0.64075816 0.78485787 0.69384634 1.0810364
0.86483127 0.8375146 1.1992078 1.1598294 1.4191989 1.4539951 1.0619098 0.9858796
0.8354168 1.5266702 1.0098885 1.1928062 0.5966454 0.85915536 1.0931503 1.0114418
0.5996026 1.5731853 0.9738789 1.0504307 1.1650059 0.85504407 1.2008972 0.9689505
1.1015856 1.0001973 1.3980191 0.8522812 0.8633134 1.158618 1.1046215 1.4551487
0.8289303 1.134608 0.88679194 0.9880292 0.8083726 1.0586207 0.86595964 1.0263205
1.1793047 1.2226578 0.78823256 0.81430656 1.2251313 1.01982 0.9669941 0.989925
1.1618325 0.9619275 1.2439314 1.0822072 1.1543927 1.0077448 0.803656 1.01759
1.3401375 1.3102458 1.3674622 0.8723472 0.9103097 1.0845258 0.9526467 1.5959677
1.3460373 0.7800281 1.2502866 0.8960525 1.1189018 1.1893504 0.8884089 1.131908
1.0318682 1.192275 1.0561944 1.3234936 1.503069 1.3068794 0.8569324 1.0704869
0.98004395 0.9455762 0.8106874 0.79173684 0.92551064 0.69670886 1.1118592 1.1663287
0.6523493 0.42363966 1.0008461 0.57767177 0.9677961 0.9527166 1.1445309 0.7034912
0.93074197 1.0626303 0.84665215 0.7012981 0.81180483 0.8411436 1.153518 1.2448844
0.65394545 1.2455248 1.0199667 1.1866364 1.2400787 1.885797 1.1637815 1.1248368
0.71024066 0.8377694 0.9889498 1.0543196 0.689501 1.2510797 0.8770812 0.64826226
1.1275607 0.57328755 1.0296556 0.6977628 0.7899682 1.3155888 1.1129154 0.8052201
0.42837614 0.78771514 1.2406172 1.2141399 1.0763319 0.7424275 1.4300932 1.0387559
1.3990304 0.87519795 0.89873844 1.1466048 1.1483372 1.199431 1.272439 1.2401234
1.3036804 1.6842314 0.7796252 1.2978591 1.1063364 0.88994664 0.97845167 0.5791407
1.3165522 1.3243277 1.2575479 1.182074 1.2597774 1.2072498 0.5798499 0.4696515
0.85372454 1.419475 0.7793196 0.46692866 0.55944747 0.9562334 1.6450295 1.0342543
1.216382 1.1875991 0.27490953 0.60138834 0.9834233 1.0714494 0.80862576 0.32038602
1.5130701 0.97273725 1.4150654 0.8003476 1.2504075 1.2531306 1.0815525 1.2258403
00000000: 1f54 943f a3e7 983f 495e 593f 7f43 4a3f
00000010: a68a 7e3f c583 403f 882b 643f e2c1 323f
00000020: a490 873f e330 a43f 1e24 353f e01e 583f
00000030: 746f 9c3f 2ebb 313f b24e 473f 5546 6f3f
00000040: 9e5d 8c3f 3abd 353f d76e 583f 1ece a23f
00000050: f1ba 993f 0f07 283f c4f8 493f 51ba 703f
00000060: a248 9a3f 8197 4f3f 22d0 713f 3a12 933f
00000070: e4a8 9b3f cf13 a43f 2761 9f3f a074 2e3f
00000080: 14ab 593f aeec 833f 36c3 a53f 051e 5e3f
00000090: fae1 893f ef33 8f3f 8710 453f 1753 7f3f
000000a0: 3298 733f 588a 973f 9a14 6c3f 1fcd 8b3f
000000b0: efe7 723f e846 5e3f 4095 9c3f 8d6e 4c3f
000000c0: d10c 373f 7ed8 153f 2d70 203f 35b1 6b3f
000000d0: 347c 8f3f c5ea 0e3f 6e46 933f 8dd0 eb3e
000000e0: dfba 493f 03fd 6e3f f311 473f ebbb 3e3f
000000f0: eaa0 633f 150a 893f 0dc5 503f e3df ba3f
00000100: a1d2 1f3f 4bf4 a03f 6827 353f 1965 353f
00000110: ba08 243f 72ec 483f ea9f 313f 675f 8a3f
00000120: 9565 5d3f 5b67 563f a47f 993f 4a75 943f
00000130: 4fa8 b53f 831c ba3f a9ec 873f 9b62 7c3f
00000140: e0dd 553f ee69 c33f 0744 813f e0ad 983f
00000150: c1bd 183f 9bf1 5b3f 59ec 8b3f ed76 813f
00000160: 8e7f 193f 235e c93f 2150 793f 8374 863f
00000170: ea1e 953f 2be4 5a3f 00b7 993f 240d 783f
00000180: c200 8d3f 7706 803f 4af2 b23f 1a2f 5a3f
00000190: 1b02 5d3f 984d 943f 3d64 8d3f 5042 ba3f
000001a0: c734 543f d63a 913f cc04 633f 7bef 7c3f
000001b0: 82f1 4e3f e280 873f 88af 5d3f 785e 833f
000001c0: 75f3 963f 0d80 9c3f 9cc9 493f 6576 503f
000001d0: 1ad1 9c3f 7689 823f ed8c 773f ba6b 7d3f
000001e0: edb6 943f e140 763f 2539 9f3f c485 8a3f
000001f0: 24c3 933f c8fd 803f 66bc 4d3f 6440 823f
00000200: a089 ab3f 22b6 a73f 0009 af3f 2552 5f3f
00000210: 0e0a 693f bed1 8a3f a7e0 733f ab48 cc3f
00000220: f34a ac3f ecaf 473f 6409 a03f b263 653f
00000230: 2d38 8f3f a23c 983f c46e 633f 5de2 903f
00000240: 4214 843f 789c 983f 6131 873f 3d68 a93f
00000250: 9164 c03f d347 a73f ec5f 5b3f b705 893f
00000260: 29e4 7a3f 4811 723f 3689 4f3f 44af 4a3f
00000270: 44ee 6c3f 835b 323f 6751 8e3f 424a 953f
00000280: 5d00 273f 4ce7 d83e ba1b 803f 4ce2 133f
00000290: 7cc1 773f 3ce5 733f fd7f 923f 0018 343f
000002a0: 1b45 6e3f 4504 883f 32be 583f 4688 333f
000002b0: 71d2 4f3f 3055 573f 7aa6 933f 5f58 9f3f
000002c0: f868 273f 5b6d 9f3f 458e 823f b4e3 973f
000002d0: e6ba 9e3f cc61 f13f cbf6 943f a7fa 8f3f
000002e0: 55d2 353f 0e78 563f d02b 7d3f f2f3 863f
000002f0: 2383 303f 6123 a03f 6588 603f 84f4 253f
00000300: e953 903f f9c2 123f c1cb 833f 95a0 323f
00000310: 5b3b 4a3f 3765 a83f 0374 8e3f e822 4e3f
00000320: 1e54 db3e b3a7 493f 8bcc 9e3f f068 9b3f
00000330: 3ec5 893f bb0f 3e3f 4b0d b73f f4f5 843f
00000340: 6e13 b33f f90c 603f b913 663f f2c3 923f
00000350: b7fc 923f f486 993f 48df a23f 5dbc 9e3f
00000360: 00df a63f e594 d73f 8495 473f 3f20 a63f
00000370: 6e9c 8d3f 8bd3 633f cf7b 7a3f 9142 143f
00000380: c884 a83f 9283 a93f 54f7 a03f 334e 973f
00000390: 6340 a13f 2987 9a3f 0b71 143f 2976 f03e
000003a0: b18d 5a3f 5bb1 b53f 7d81 473f 4611 ef3e
000003b0: f337 0f3f b6cb 743f 5490 d23f 7262 843f
000003c0: 68b2 9b3f 3f03 983f f1c0 8c3e 96f4 193f
000003d0: a1c1 7b3f 4125 893f 1902 4f3f a309 a43e
000003e0: 48ac c13f 4f05 793f dd20 b53f 95e3 4c3f
000003f0: 5a0d a03f 9566 a03f 5070 8a3f 56e8 9c3f

layers.1.translation f4 [29, 75]
-0.11675538 0.30129787 0.13518307 0.14871444 0.120770484 -0.28208077 -0.087401666 0.13905708
-0.27215722 0.023901604 -0.002529854 -0.18587573 0.06636464 -0.10155941 -0.17418925 0.3374468
0.34786063 0.017506553 0.15787938 -0.19278592 -0.018585507 -0.15192059 -0.34692675 -0.27529797
-0.024387086 -0.122437894 -0.26987675 0.17719331 -0.15331422 0.15833144 0.24043371 0.18789518
-0.34700534 -0.10071317 -0.20981102 -0.3163449 -0.14259154 -0.1579188 0.19686113 0.24569154
-0.22658332 -0.21969895 -0.25501463 -0.1600707 0.007876967 -0.2206544 0.17884117 0.13686463
-0.017587895 0.019177658 -0.08729696 -0.44768375 0.113526255 -0.15197164 0.23482455 0.11398448
0.16498499 0.073154435 -0.0707117 0.52984923 0.22669908 -0.5988782 -0.30979058 0.122687936
-0.07765598 0.34733152 0.18310122 -0.041489508 0.058484793 -0.18730877 -0.0505423 0.27539596
-0.14576375 0.014241514 0.17613332 0.12422696 0.15279868 0.18164286 0.23023912 0.18680519
-0.26069778 -0.4838107 -0.18752861 0.09229079 0.21294713 -0.7072726 -0.092934914 0.17732413
-0.33624417 0.13405572 -0.05678295 0.18607898 0.20813031 0.43291104 0.28231984 -0.069590785
0.3007596 0.18198408 0.058710214 -0.3323088 0.10015731 -0.0029792867 0.028902054 -0.09821847
0.041098382 -0.39710295 0.25202096 -0.33843789 0.1815359 0.09578032 0.0635127 0.15832075
-0.063044645 0.2979004 0.10681698 -0.38068518 0.013983029 0.0130703775 0.034920067 -0.20795907
-0.2512076 0.0058040875 -0.46781194 0.11547369 0.2751413 -0.31053022 0.5779169 -0.26368007
0.5451693 -0.38889742 0.369286 -0.012195805 -0.084426045 -0.19550766 -0.089277014 -0.16895461
-0.0059433286 -0.18759544 -0.18965368 -0.18150347 -0.19409099 0.49944457 -0.24857953 0.13368091
0.08671368 -0.13775831 0.11739432 -0.07383202 0.2684577 0.3341902 -0.17555645 0.012579936
0.05938491 0.3239623 0.043108296 -0.40536603 -0.149511 0.069112435 -0.16897352 0.0002708722
-0.24499251 -0.17611624 -0.07738219 0.27087292 0.12705591 0.018467266 0.055515032 -0.2207721
0.20002979 0.31948823 -0.096398495 -0.3116068 0.2197614 -0.28455466 0.18610401 0.21602833
-0.28876415 0.10783231 -0.04526991 0.12248779 0.1009896 -0.122122444 -0.07066016 0.1880323
0.31492746 -0.5160852 0.32946086 0.19389501 0.089693345 -0.061229885 0.13935097 0.09094272
-0.828951 -0.34673008 0.06336353 0.22712363 0.056455344 -0.61523116 -0.54869634 -0.13857017
0.16057485 -0.60689723 -0.16822645 -0.07282887 -0.25009954 -0.20543864 -0.5761357 0.2213244
0.018251812 -0.09871209 0.16879196 -0.037222467 -0.33188704 0.1564961 0.10677992 -0.13248713
0.22170955 -0.009684573 -0.21902329 0.11423453 -0.12157583 0.28870422 -0.23892039 -0.23077095
0.049289115 0.22635879 0.32196853 -0.42474914 0.34511915 -0.07741509 -0.096752904 0.33107415
0.054832675 0.035224263 0.19513325 -0.11835188 -0.3324352 -0.012502578 0.108847015 0.19404031
0.013438346 -0.14945377 -0.15613016 0.2992662 -0.008606809 -0.030958898 0.07079113 0.15656057
-0.038614124 -0.2233017 0.076253004 -0.026228933 -0.15687326 -0.4251872 -0.015273269 -0.005881265
00000000: 721d efbd b743 9a3e 6e6d 0a3e 9948 183e
00000010: 8456 f73d e46c 90be a5ff b2bd fb64 0e3e
00000020: 3158 8bbe 4ccd c33c e8cb 25bb 3556 3ebe
00000030: 2fea 873d 61fe cfbd ab5e 32be d4c5 ac3e
00000040: ca1a b23e e769 8f3c 22ab 213e ac69 45be
00000050: a240 98bc 1291 1bbe 62a0 b1be dbf3 8cbe
00000060: 6dc7 c7bc b8c0 fabd 492d 8abe 2a72 353e
00000070: 67fe 1cbe a321 223e 4134 763e 9867 403e
00000080: afaa b1be b542 cebd b3d8 56be f5f7 a1be
00000090: 8403 12be 77b5 21be f795 493e 9096 7b3e
000000a0: 7505 68be c3f8 60be 4791 82be 93e9 23be
000000b0: 650e 013c 3af3 61be 2422 373e 3e26 0c3e
000000c0: 7d14 90bc 771a 9d3c c0c8 b2bd ce36 e5be
000000d0: 7480 e83d 749e 1bbe d975 703e b270 e93d
000000e0: d3f1 283e fed1 953d 4cd1 90bd 33a4 073f
000000f0: ce23 683e 1550 19bf df9c 9ebe d043 fb3d
00000100: 190a 9fbd 70d5 b13e e37e 3b3e e7f0 29bd
00000110: c08d 6f3d dfcd 3fbe 7105 4fbd b300 8d3e
00000120: 1843 15be 3d55 693c 4b5c 343e b46a fe3d
00000130: 4277 1c3e 9600 3a3e cec3 6b3e dc49 3f3e
00000140: 2e7a 85be 09b6 f7be 8007 40be f402 bd3d
00000150: d00e 5a3e d10f 35bf a954 bebd 7594 353e
00000160: 3228 acbe e745 093e 3d95 68bd 7d8b 3e3e
00000170: 1d20 553e 84a6 dd3e 3a8c 903e 9d85 8ebd
00000180: 2afd 993e 095a 3a3e 1f7a 703d 6124 aabe
00000190: 471f cd3d 2340 43bb 00c4 ec3c c426 c9bd
000001a0: c756 283d 1451 cbbe e408 813e bb47 adbe
000001b0: 8ce4 393e 7928 c43d f212 823d d61e 223e
000001c0: 8d1d 81bd 6786 983e dcc2 da3d 2be9 c2be
000001d0: 1319 653c 2325 563c 5808 0f3d 39f3 54be
000001e0: 489e 80be 3730 be3b 0c85 efbe 787d ec3d
000001f0: 52df 8c3e d1fd 9ebe 5df2 133f 1301 87be
00000200: 3790 0b3f 901d c7be 0e13 bd3e ead0 47bc
00000210: 90e7 acbd 2933 48be ded6 b6bd 7002 2dbe
00000220: 41c0 c2bb 0519 40be 9334 42be 0cdc 39be
00000230: cabf 46be 33b7 ff3e a28b 7ebe a6e3 083e
00000240: f196 b13d 8410 0dbe 6f6c f03d 3e35 97bd
00000250: 4a73 893e fa1a ab3e 12c5 33be 131c 4e3c
00000260: 973d 733d 63de a53e 5392 303d 238c cfbe
00000270: 6919 19be d28a 8d3d 6507 2dbe da03 8e39
00000280: 51df 7abe d157 34be 8e7a 9ebd dbaf 8a3e
00000290: f21a 023e aa48 973c bb63 633d 1512 62be
000002a0: 9cd4 4c3e f693 a33e 936c c5bd ed8a 9fbe
000002b0: 2209 613e 26b1 91be 0d92 3e3e 8836 5d3e
000002c0: e5d8 93be 30d7 dc3d f16c 39bd e1da fa3d
000002d0: a3d3 ce3d 551b fabd 46b6 90bd 8a8b 403e
000002e0: 2c3e a13e 291e 04bf 18af a83e 6a8c 463e
000002f0: 25b1 b73d 30cc 7abd 05b2 0e3e 2d40 ba3d
00000300: 2236 54bf 9b86 b1be bdc4 813d 1993 683e
00000310: b83d 673d ca7f 1dbf 5d77 0cbf 57e5 0dbe
00000320: bc6d 243e 9e5d 1bbf 8e43 2cbe 4d27 95bd
00000330: 0c0d 80be 825e 52be a17d 13bf dda2 623e
00000340: d384 953c 9029 cabd cdd7 2c3e 9676 18bd
00000350: 19ed a9be 8340 203e 6eaf da3d b5aa 07be
00000360: d407 633e 0bac 1ebc a447 60be cbf3 e93d
00000370: c0fc f8bd 0ad1 933e 8ca7 74be 384f 6cbe
00000380: 62e3 493d 99ca 673e 0fd9 a43e b878 d9be
00000390: 75b3 b03e cd8b 9ebd 6326 c6bd 8d82 a93e
000003a0: 3a98 603d 5147 103d 03d1 473e 7862 f2bd
000003b0: f234 aabe 9dd7 4cbc 2feb de3d 81b2 463e
000003c0: 822c 5c3c 690a 19be 96e0 1fbe 6b39 993e
000003d0: 9303 0dbc 849d fdbc f1fa 903d 6a51 203e
000003e0: d829 1ebd 33a9 64be 892a 9c3d 0fde d6bc
000003f0: 62a3 20be 23b2 d9be bc3c 7abc a0b7 c0bb

layers.1.weight1 f4 [29, 75]
-0.10436229 0.039802715 0.10886787 -0.043479845 0.039770395 0.041102007 -0.0454705 0.06285602
0.003426753 0.088676855 -0.03619358 0.08262202 -0.0855705 -0.0023221597 -0.056899954 -0.02387049
0.018813103 0.11141227 -0.034601547 0.059696212 0.06578438 0.10060322 0.012207404 0.021401659
-0.09292421 -0.03382726 -0.051049247 0.110158026 0.049410596 -0.005873941 -0.006933108 0.06212543
0.10149853 -0.07318768 0.030570686 0.0048728436 -0.08601204 0.052652076 0.04444088 -0.021441035
0.04890333 -0.06843886 -0.09452966 -0.110499255 -0.060198028 -0.03705676 -0.036870047 -0.10925621
0.034399554 -0.020364948 -0.10414702 -0.109025165 0.07960458 -0.09931274 0.06696805 0.0143224
0.08969939 -0.099832274 0.051262006 0.05364223 -0.0071572214 0.004943602 -0.08622719 0.08749226
0.05443035 0.07075338 -0.006320484 -0.08129051 0.082410425 -0.10442057 0.05190207 0.0030004457
0.03604561 -0.042969033 -0.044274382 -0.06623598 -0.035748176 0.02115412 0.036345392 0.07443334
-0.068301246 0.033513963 -0.0062378645 -0.08516754 0.014789611 -0.013917081 -0.06485549 -0.094164096
-0.069981575 0.095263556 -0.060598966 -0.039868146 -0.028769352 -0.10530326 0.11221467 0.0812463
-0.06605677 -0.0085865185 0.0076378137 -0.07781419 0.11540887 0.07346545 0.029984117 -0.09345507
-0.08931378 -0.0005937442 0.0863947 -0.050184533 0.05627644 -0.024936557 -0.08959971 -0.0048903003
0.001146622 -0.038116783 0.02639559 0.07837111 0.038414165 0.02351889 -0.020654455 0.106059164
0.09322685 0.0017597973 0.084895834 0.056558907 0.067489475 -0.09091085 0.037668094 0.016274527
0.035075128 0.008672357 0.050085187 -0.040840864 -0.070291996 -0.059536245 -0.06362456 -0.11134582
0.07283999 0.041793212 -0.026591055 -0.01822047 0.042580098 0.009268679 0.0047732964 -0.11088979
0.026802033 -0.10662427 -0.06516223 0.10540028 -0.043897852 -0.07020485 0.09114733 0.015682638
-0.04651194 0.03814742 -0.11343993 0.029698908 -0.08348785 -0.0941575 -0.056899596 0.08559224
0.023630634 -0.027855597 -0.08789155 -0.022111833 0.07749842 0.078399494 0.08937149 0.0706445
-0.052847795 0.08237617 0.010581136 0.07431035 0.06577225 0.02983807 0.093935534 0.05787386
-0.043959185 0.033729315 0.04898718 0.04023975 0.11387013 0.070335045 -0.059667494 0.046840876
-0.08348389 -0.014409736 0.011000097 0.006685503 -0.07211539 -0.112486206 0.038143247 0.039102376
0.11053966 -0.05928251 -0.08917551 -0.06699981 -0.009771958 0.019267365 -0.104132 0.09234348
0.042862996 0.09663275 0.046504408 0.09061122 -0.018881164 0.009477057 0.03810592 -0.0028725266
0.062527046 0.07314658 0.014486626 0.018660113 0.019800365 -0.10790351 0.08284198 -0.052588843
0.013849005 -0.038242497 -0.091103934 -0.11412373 0.0688802 0.10343225 -0.09433243 -0.026012875
-0.023447245 -0.10625817 -0.10700827 0.018139169 0.033507183 0.058511853 0.087957755 -0.0067728013
-0.011050999 0.05701658 -0.021697983 -0.043261997 -0.035042867 0.05926135 0.0006610304 -0.008983433
0.09067519 0.06871782 0.055099994 0.0058295205 -0.07069714 0.07774174 -0.06559208 0.08778213
0.0056100786 0.07900362 -0.06224442 0.0026887804 0.017998978 -0.0722056 -0.05229573 0.06446916
00000000: e5bb d5bd 2c08 233d 1ef6 de3d ec17 32bd
00000010: 48e6 223d 945a 283d 463f 3abd a8ba 803d
00000020: 6093 603b 369c b53d b83f 14bd bc35 a93d
00000030: 963f afbd 602f 18bb ed0f 69bd 0c8c c3bc
00000040: f01d 9a3c 1e2c e43d 5aba 0dbd 0484 743d
00000050: f6b9 863d 1009 ce3d 9001 483c 8852 af3c
00000060: 0c4f bebd 748e 0abd 0419 51bd 889a e13d
00000070: c462 4a3d 307a c0bb 202f e3bb 3c77 7e3d
00000080: 76de cf3d 6ce3 95bd 606f fa3c 60ac 9f3b
00000090: 1527 b0bd b4a9 573d a407 363d 1ca5 afbc
000000a0: dc4e 483d ac29 8cbd c498 c1bd 6f4d e2bd
000000b0: 3592 76bd d4c8 17bd 0c05 17bd b8c1 dfbd
000000c0: 8ce6 0c3d 64d4 a6bc 084b d5bd 9648 dfbd
000000d0: ba07 a33d 7a64 cbbd 8c26 893d 80a8 6a3c
000000e0: 50b4 b73d dd74 ccbd 1cf8 513d f4b7 5b3d
000000f0: 2087 eabb f0fd a13b e297 b0bd 242f b33d
00000100: 5cf2 5e3d 26e7 903d 101c cfbb a47b a6bd
00000110: ccc6 a83d 74da d5bd 4497 543d 20a3 443b
00000120: 90a4 133d 4c00 30bd 0e59 35bd bba6 87bd
00000130: ae6c 12bd 684b ad3c e8de 143d 8270 983d
00000140: 86e1 8bbd f045 093d 0067 ccbb 526c aebd
00000150: 2050 723c 7804 64bc f5d2 84bd 1bd9 c0bd
00000160: 8052 8fbd 8a19 c33d 9f36 78bd c84c 23bd
00000170: b4ad ebbc 3ca9 d7bd ced0 e53d 7664 a63d
00000180: c648 87bd 78ae 0cbc a046 fa3b 0c5d 9fbd
00000190: 7c5b ec3d 0e75 963d 40a1 f53c 5f65 bfbd
000001a0: 25ea b6bd 80a5 1bba b4ef b03d 4c8e 4dbd
000001b0: 2082 663d c047 ccbc 0e80 b7bd d03e a0bb
000001c0: 404a 963a 5820 1cbd 903b d83c 0881 a03d
000001d0: 2c58 1d3d b0aa c03c 8833 a9bc 8c35 d93d
000001e0: b8ed be3d 00a9 e63a dedd ad3d 50aa 673d
000001f0: ec37 8a3d 782f babd dc49 1a3d 2852 853c
00000200: f0aa 0f3d 8016 0e3c 2026 4d3d c048 27bd
00000210: 40f5 8fbd 47dc 73bd 984d 82bd 4709 e4bd
00000220: 222d 953d 5c2f 2b3d 7cd5 d9bc 1843 95bc
00000230: 7868 2e3d a8db 173c 5069 9c3b 301a e3bd
00000240: f08f db3c d35d dabd c673 85bd 1adc d73d
00000250: 3cce 33bd 8fc7 8fbd 74ab ba3d e078 803c
00000260: 4e83 3ebd 7840 1c3d 3253 e8bd 204b f33c
00000270: aefb aabd a6d5 c0bd 8d0f 69bd fc4a af3d
00000280: 0895 c13c 6c31 e4bc 7c00 b4bd e023 b5bc
00000290: 7eb7 9e3d ea8f a03d 6608 b73d 10ae 903d
000002a0: ee76 58bd d6b4 a83d 805c 2d3c 0630 983d
000002b0: 9ab3 863d f86e f43c 4661 c03d 240d 6d3d
000002c0: 8c0e 34bd c027 0a3d c8a6 483d 70d2 243d
000002d0: be34 e93d d20b 903d e765 74bd 38dc 3f3d
000002e0: 9af9 aabd d016 6cbc c039 343c 1012 db3b
000002f0: 3cb1 93bd 2b5f e6bd 183c 1c3d d029 203d
00000300: 9e62 e23d 38d2 72bd a6a1 b6bd 3237 89bd
00000310: 901a 20bc 98d6 9d3c 2843 d5bd 941e bd3d
00000320: 1c91 2f3d 64e7 c53d 687b 3e3d 6092 b93d
00000330: acac 9abc a845 1b3c f414 1c3d 0041 3cbb
00000340: 2e0e 803d e0cd 953d 5059 6d3c 18dd 983c
00000350: 6034 a23c 84fc dcbd 0ea9 a93d 6667 57bd
00000360: f0e6 623c 2aa4 1cbd b394 babd b4b9 e9bd
00000370: 1011 8d3d 4ad4 d33d 5c31 c1bd f418 d5bc
00000380: 7014 c0bc e29d d9bd 2727 dbbd 9898 943c
00000390: d43e 093d 20aa 6f3d 3223 b43d 60ee ddbb
000003a0: 400f 35bc 388a 693d f8bf b1bc 7e33 31bd
000003b0: 1c89 0fbd 08bc 723d 0049 2d3a 402f 13bc
000003c0: eab3 b93d eebb 8c3d 88b0 613d 9005 bf3b
000003d0: aac9 90bd 1037 9f3d 2455 86bd 1ec7 b33d
000003e0: c0d4 b73b a6cc a13d 01f4 7ebd 4036 303b
000003f0: 9872 933c 88e0 93bd 0c34 56bd 6808 843d
