results_N50_tr30_v10_te10/efficient_kan/best_model.pt (torch, 682018 bytes, 12 tensors)

layers.0.base_weight f4 [64, 195]
0	0xbe21fc64	-0.15818936
1	0x3b1a3d12	0.0023534936
2	0xbca8a2fb	-0.020585528
3	0xbd5cd1da	-0.053911068
4	0x3d13b059	0.03605685
5	0x3dbb43d8	0.091437995
6	0xbeb99d7c	-0.36252964
7	0xbe224563	-0.15846781
8	0x3e3ca882	0.18423656
9	0x3c023336	0.00794678
10	0x3ec17d6c	0.37791002
11	0x3d885c88	0.06658274
12	0x3eb17b8d	0.34664574
13	0xbde22c33	-0.110435866
14	0x3dc51df6	0.09624855
15	0x3e81fcff	0.25388333
16	0xbd9e135d	-0.07718537
17	0xbe9b7d29	-0.30368927
18	0xbe626709	-0.22109617
19	0xbe81ed4f	-0.25376365
20	0xbe88cf79	-0.2672079
21	0x3d87fcfd	0.066400506
22	0x3eb7d64e	0.3590569
23	0x3e1718b7	0.14755522
24	0xbee3548d	-0.44400445
25	0xbe8a0bf6	-0.2696225
26	0x3d2dc02d	0.0424196
27	0xbeac428c	-0.3364452
28	0xbe5d903c	-0.21637052
29	0x3e624b90	0.22099137
30	0xbc810ce7	-0.015753223
31	0x3d815ed5	0.06316916
32	0x3d851c16	0.064994976
33	0x3f096578	0.53670454
34	0x3e867c5d	0.26266757
35	0xbec65ed6	-0.3874423
36	0xbe301abc	-0.17197698
37	0xbe8b9440	-0.27261543
38	0xbd80435d	-0.062628485
39	0xbe37c771	-0.17947175
40	0x3d1c574e	0.038169198
41	0xbe5824df	-0.21107815
42	0xbd876738	-0.06611484
43	0xbcfa0437	-0.030519588
44	0xbc40dfe1	-0.011772127
45	0xbed242a7	-0.41066477
46	0xbe6d19b3	-0.23154335
47	0x3d815be4	0.06316355
48	0x3dd910a0	0.10598874
49	0xbdbb8382	-0.091559425
50	0x3d17fd92	0.037107058
51	0x3eb92068	0.36157537
52	0xbe0d9430	-0.1382606
53	0x3da1918b	0.07889088
54	0x3ecb4f33	0.39708862
55	0xbc451b6e	-0.0120304655
56	0xbea9729f	-0.3309526
57	0xbe5d4321	-0.21607639
58	0xbe7eab5a	-0.24870053
59	0xbe55845c	-0.20851272
60	0x3cf6a155	0.030106226
61	0x3e01185f	0.12606953
62	0x3e3746c3	0.17898087
63	0xbec4db5a	-0.38448602
64	0xbe058b6c	-0.13041466
65	0x3cdaf66c	0.026728831
66	0xbe806049	-0.2507346
67	0xbe29b4cb	-0.16572873
68	0x3e870d15	0.26377168
69	0xbcb4b145	-0.022057185
70	0x3e4ffb0b	0.20310609
71	0xbe46d9c6	-0.19419011
72	0x3f27e4a5	0.6558326
73	0x3ecc9cbd	0.39963332
74	0xbed3f4b1	-0.41397622
75	0xbe80fbd2	-0.25192124
76	0xbdd5f33c	-0.10446784
77	0xbd6cb0d7	-0.057785835
78	0xbce664c9	-0.02812423
79	0xbce90bf7	-0.028448088
80	0xbe7c0a43	-0.2461329
81	0x3d91cc22	0.07119013
82	0xbca4bcd5	-0.020109573
83	0x3dfdb8cd	0.123887636
84	0xbe80480e	-0.25054973
85	0xbe7d851e	-0.24757811
86	0x3b69d6fd	0.0035681122
87	0xbb48e162	-0.0030651917
88	0x3ea1a693	0.315724
89	0xbda09459	-0.07840795
90	0x3f18485e	0.59485424
91	0xbe1d0473	-0.15333728
92	0x3dc06c7f	0.09395694
93	0x3f04e0a2	0.5190526
94	0xbd7651ed	-0.060136724
95	0xbe78261c	-0.24233288
96	0xbe79ffb6	-0.24413952
97	0xbe6de52c	-0.23231953
98	0xbe36fe93	-0.1787055
99	0xbe7b231a	-0.24525109
100	0x3d4484f4	0.047978356
101	0x3c4441c4	0.01197857
102	0xbe745a71	-0.23862626
103	0xbe9e7421	-0.30947974
104	0xbc1ab8b0	-0.009443447
105	0xbecad102	-0.39612585
106	0xbdb00f79	-0.08596701
107	0x3e3a7554	0.1820882
108	0xbcec11da	-0.028817106
109	0xbcbab592	-0.022791658
110	0xbdfc83b1	-0.12329806
111	0x3e8ca27c	0.27467716
112	0xbd8b3378	-0.06796926
113	0xbe89181b	-0.26776204
114	0xbe87ee8e	-0.2654919
115	0x3e1b02a0	0.1513772
116	0xbda53ab2	-0.08067836
117	0x3c32e9ce	0.010920001
118	0x3d3ed36d	0.04658835
119	0xbe27d461	-0.1638961
120	0x3ddb67fb	0.10713192
121	0xbddcaaad	-0.10774741
122	0xbd336786	-0.0437999
123	0xbf02750f	-0.5095987
124	0xbe09d668	-0.13460696
125	0xbe5d5d32	-0.21617582
126	0xbe28fb64	-0.16502148
127	0x3e9411c9	0.2891982
128	0x3c006bc6	0.007838195
129	0x3edd7c23	0.4325877
130	0xbd14487f	-0.03620195
131	0x3d25b106	0.040452026
132	0x3e1d033b	0.15333264
133	0xbda35c0a	-0.079765394
134	0xbe67f3b2	-0.22651556
135	0xbe8a288c	-0.2698406
136	0xbe19b603	-0.15010838
137	0xbe426458	-0.1898359
138	0x3ea38e86	0.31944674
139	0xbcd59226	-0.026070666
140	0x3d64d149	0.055863652
141	0xbdfcef1e	-0.123502955
142	0xbe8c6c44	-0.2742635
143	0xbe5c8a78	-0.21537197
144	0xbea4197f	-0.32050702
145	0xbd01bf16	-0.031676374
146	0x3d3bc203	0.04583932
147	0xbbc40ecd	-0.0059832097
148	0x3e311fd8	0.17297304
149	0xbd9e1ad6	-0.07719962
150	0xbe0fa33f	-0.14027117
151	0xbf069d74	-0.52584004
152	0xbe78b036	-0.24285969
153	0xbf055fb3	-0.5209915
154	0x3e61578f	0.22006057
155	0x3d40d194	0.04707487
156	0x3df9d0ab	0.121980034
157	0x3db462aa	0.08807881
158	0xbe3de54a	-0.18544498
159	0x3e135e54	0.14391452
160	0xbd947492	-0.072487965
161	0xbcaedd60	-0.021345794
162	0xbf2d3e9d	-0.67673665
163	0xbe6eabdd	-0.23307748
164	0xbe588f66	-0.21148452
165	0xbec53f68	-0.38524938
166	0x3e879bf5	0.26486173
167	0x3cda7710	0.026668102
168	0x3dca5e86	0.0988131
169	0xbe1b87b7	-0.1518849
170	0xbcf097db	-0.029369285
171	0x3da76216	0.08173005
172	0xbda17d6b	-0.0788525
173	0xbeac71bb	-0.3368052
174	0xbe10f763	-0.1415687
175	0xbe2884fa	-0.16456977
176	0xbeb9552b	-0.3619779
177	0x3bc6ca61	0.006066606
178	0x3dea3e34	0.114376456
179	0xbefc47cf	-0.49273536
180	0x3c9e86e3	0.019351428
181	0xbeb6d614	-0.35710204
182	0xbeda3063	-0.4261504
183	0xbecfc882	-0.40582663
184	0xbc79c599	-0.015244865
185	0x3e089d10	0.13341165
186	0xbdee75db	-0.11643573
187	0x3d9b7ce3	0.075921796
188	0x3e8823d3	0.26589832
189	0xbd3a4b1a	-0.04548178
190	0xbebfb646	-0.3744375
191	0xbef14591	-0.47123387
192	0xbef731e1	-0.48280242
193	0xbda6811f	-0.08130097
194	0xbd528dda	-0.05140481
195	0x3e8dacf7	0.27671024
196	0x3dac3ea4	0.08410385
197	0x3db5d3ed	0.08878312
198	0x3decf4ca	0.11570127
199	0xbde823d8	-0.11334962
200	0x3d4c32d2	0.049853154
201	0x3dad95bb	0.084758244
202	0xbd72f2ca	-0.059313573
203	0x3d6c3563	0.0576681
204	0xbeebfffc	-0.46093738
205	0x3efbe6b1	0.4919944
206	0xbcc18d85	-0.023627052
207	0x3e5fad4c	0.21843451
208	0xbe01669c	-0.12636799
209	0xbe01b71a	-0.12667504
210	0x3f11315f	0.5671596
211	0x3dad9909	0.08476455
212	0xbd8ae4da	-0.06781931
213	0xbd8efa36	-0.06981318
214	0xbb03b7ba	-0.0020098523
215	0xbcc4d1a3	-0.024025744
216	0x3ebeed42	0.37290388
217	0xbdad0030	-0.084473014
218	0x3e3fa232	0.18714216
219	0x3e43e4a0	0.19130182
220	0xbec2d100	-0.3805008
221	0xbe49e0b2	-0.1971462
222	0xbe484644	-0.19558054
223	0x3ebc6770	0.36797667
224	0xbd937e2d	-0.072018005
225	0x3b8a38fa	0.004218218
226	0x3f54712a	0.82985175
227	0x3bbd20d5	0.005771736
228	0x3f33c1f9	0.70217854
229	0xbf52a83f	-0.82287973
230	0xbf51519c	-0.8176515
231	0xbe8f60ec	-0.28003633
232	0xbe2cb077	-0.16864191
233	0x3e2b2c8d	0.16716214
234	0x3ea2783b	0.31732354
235	0x3de23c4f	0.11046659
236	0x3d9c76d7	0.076398544
237	0xbdc2a56f	-0.0950421
238	0xbdaeafff	-0.08529662
239	0x3b863a84	0.004096331
240	0xbdf21f78	-0.118224084
241	0xbe181ada	-0.14853993
242	0x3e188cd6	0.14897475
243	0xbe929256	-0.2862727
244	0x3f1a11ef	0.60183614
245	0x3e12cf77	0.14336954
246	0xbdf41342	-0.11917736
247	0xbe24f2f5	-0.16108306
248	0xbea828e0	-0.32843685
249	0x3ebd158a	0.36930496
250	0x3e094a1b	0.13407175
251	0xbea0e9e5	-0.31428447
252	0xbe2541d4	-0.16138393
253	0xbe760b2c	-0.24027699
254	0xbe072766	-0.13198623
255	0x3e4d3e4a	0.20043293

layers.0.spline_weight f4 [64, 195, 7]
0	0xbe14aa8d	-0.14518185
1	0xbea0893e	-0.31354707
2	0x3d0bce92	0.034132548
3	0xbc78acef	-0.015177949
4	0xbdd895f4	-0.10575476
5	0xbe6063a6	-0.21913013
6	0xbef8fd1c	-0.48630607
7	0xbefbac99	-0.4915512
8	0x3e352080	0.17688179
9	0x3e9b521b	0.3033608
10	0x3e383deb	0.1799237
11	0xbebaf0c3	-0.36511812
12	0x3ddaacaf	0.10677468
13	0xbcee1f83	-0.02906776
14	0x3ec2e594	0.3806578
15	0xbddfd400	-0.10929108
16	0xbc4646e4	-0.012101863
17	0xbdadac5c	-0.084801406
18	0xbd834935	-0.064104475
19	0x3e1d4bab	0.15360896
20	0xbdb57f70	-0.088621974
21	0x3e4791d5	0.19489224
22	0xbd95601d	-0.07293723
23	0xbd9f941f	-0.07791924
24	0x3d007df4	0.03137012
25	0x3d859b2c	0.06523737
26	0xbc6287a2	-0.013826283
27	0xbecb73b3	-0.3973671
28	0x3d795d2a	0.060879864
29	0xbe2ad30a	-0.16682068
30	0xbcd4ac43	-0.025961047
31	0xbd544faa	-0.051833786
32	0x3e7db00f	0.24774192
33	0xbd68b61d	-0.0568143
34	0xbf310583	-0.69149035
35	0xbd5ec2d0	-0.054385006
36	0x3e8be1a3	0.27320585
37	0xbe7b70e2	-0.2455478
38	0x3da7448b	0.081673704
39	0x3d3facb7	0.046795573
40	0xbdb4a5aa	-0.088206604
41	0xbd6f85a1	-0.058477048
42	0x3eef3788	0.46722054
43	0x3f81c3e3	1.0137905
44	0xbdae492b	-0.085100494
45	0x3cec9611	0.028880151
46	0xbce49460	-0.027902782
47	0xbec9d8f6	-0.3942334
48	0x3db7c3ce	0.08972894
49	0x3e465413	0.1936801
50	0x3c110376	0.008850923
51	0x3e9fa3aa	0.31179553
52	0xbede949e	-0.4347276
53	0xbf080735	-0.53136
54	0x3e9d76c5	0.30754676
55	0x3eca3ef1	0.39501145
56	0xbebc1663	-0.3673583
57	0xbf1714c7	-0.5901608
58	0xbe2ce8ab	-0.16885631
59	0x3eef6cd6	0.46762723
60	0xbc3d5258	-0.011555277
61	0xbfb25e76	-1.3935077
62	0xbf4ad998	-0.7923827
63	0x3eddcb80	0.4331932
64	0x3d86889a	0.065690234
65	0xbeed4cd4	-0.46347678
66	0x3e4e2bbf	0.20133875
67	0x3e31646a	0.17323461
68	0x3ea73a37	0.32661602
69	0x3f3d7868	0.7401185
70	0x3f5b7180	0.8572006
71	0xbed2713f	-0.41102025
72	0xbe588837	-0.21145712
73	0x3e5c66cd	0.2152359
74	0xbeb0919a	-0.34486085
75	0xbf24e613	-0.64413565
76	0x3e71c957	0.23611961
77	0xbf134df9	-0.5754085
78	0x3e82ddce	0.2555985
79	0x3e845436	0.25845498
80	0x3e803af9	0.25044993
81	0xbebd0c4b	-0.3692344
82	0xbecfd1c0	-0.40589714
83	0x3e752576	0.23940071
84	0xbe129280	-0.14313698
85	0xbf49bb63	-0.78801554
86	0x3d07081d	0.03296672
87	0x3d8737c9	0.06602437
88	0xbda6b360	-0.08139682
89	0xbe3ad421	-0.18244983
90	0xbeaa78b5	-0.33295217
91	0xbdb97fb2	-0.09057559
92	0x3ef93423	0.4867259
93	0xbf0d1165	-0.55104667
94	0x3e846ec1	0.2586575
95	0x3e463ee7	0.19359933
96	0xbcaaca92	-0.020848546
97	0xbf0740c5	-0.52833205
98	0x3eb76279	0.35817316
99	0x3f3c9d88	0.73677874
100	0xbdc9c1c1	-0.09851409
101	0xbe345b3b	-0.17612927
102	0x3e8176f0	0.25286055
103	0x3e3cfb4d	0.18455239
104	0xbeafe364	-0.34353173
105	0xbe3ec5ee	-0.18630192
106	0xbf682a2c	-0.9068935
107	0x3d8fb4cd	0.07016907
108	0x3d7e7eae	0.06213253
109	0xbd9d348a	-0.07676037
110	0xbcf6031c	-0.03003078
111	0xbe84864a	-0.25883704
112	0x3d94feee	0.072751865
113	0xbd620c6b	-0.055187624
114	0xbc615072	-0.01375209
115	0xbcd3be15	-0.025847474
116	0xbce88bd8	-0.028386995
117	0x3b00b114	0.0019636797
118	0x3e24dfd0	0.16101003
119	0x3d1e382e	0.038627796
120	0x3f83403b	1.0253977
121	0x3f5f6458	0.8726249
122	0xbeb0f6eb	-0.34563383
123	0x3e714219	0.2356037
124	0x3f35e9d8	0.7105994
125	0xbe193705	-0.14962395
126	0x3f155cdf	0.58344835
127	0x3eb83d55	0.35984293
128	0xbdcf5464	-0.10123518
129	0xbe9edaeb	-0.31026396
130	0xbd87a085	-0.066224135
131	0x3dd9806b	0.10620197
132	0xbdec4849	-0.11537225
133	0xbfcfeaa9	-1.6243488
134	0xbf5ba54d	-0.85799104
135	0x3baea4fe	0.005329727
136	0xbb1d83f1	-0.0024034942
137	0x3d7bfb08	0.0615187
138	0xbeb4d9a1	-0.35322288
139	0xbe76f848	-0.2411815
140	0xbed775e0	-0.4208212
141	0xbe67d4de	-0.22639796
142	0x3aee8e7e	0.0018200425
143	0xbbadd643	-0.005305083
144	0x3b6cf0be	0.0036154236
145	0xbe8da65c	-0.27665985
146	0xbe9f9a69	-0.31172493
147	0x3f081977	0.53163856
148	0xbc100b99	-0.008791828
149	0xbdb9abc3	-0.09065964
150	0x3d47563c	0.048666224
151	0xbd5a73d1	-0.053333107
152	0x3bcd9cad	0.0062747807
153	0x3e1bc191	0.15210558
154	0x3fd0700e	1.6284196
155	0x3e4227bf	0.18960474
156	0xbeb18639	-0.34672716
157	0xbf1b1f5d	-0.6059473
158	0xbed8d55b	-0.42350277
159	0xbbad4836	-0.005288149
160	0x3f4f4916	0.80970895
161	0x3ea137e3	0.3148795
162	0xbe7c34b7	-0.24629484
163	0xbef87bd1	-0.48531964
164	0xbefb3af5	-0.49068418
165	0xbf85544e	-1.0416353
166	0xbefbb654	-0.49162543
167	0xbed148b4	-0.4087578
168	0x3df9819e	0.12182926
169	0x3ed0c2f0	0.40773726
170	0xbd43b9b0	-0.047784507
171	0x3bc24bfc	0.005929468
172	0x3e767a13	0.24070005
173	0x3daeeeb4	0.08541623
174	0x3eb183e2	0.3467093
175	0xbdf37b68	-0.11888772
176	0x3f65445d	0.8955744
177	0x3d3afba7	0.04565015
178	0xbe130ff6	-0.14361557
179	0x3f745eaa	0.95456946
180	0x3f385afb	0.72013825
181	0x3e7f8757	0.24953972
182	0xbef6575e	-0.4811353
183	0xbe643c7b	-0.22288696
184	0x3f0ca7c3	0.54943484
185	0xbe2f89a6	-0.17142352
186	0xbee14b0f	-0.44002578
187	0xbea0004e	-0.31250232
188	0xbf3ba2ee	-0.73295486
189	0x3f0a6d4c	0.54073024
190	0x3e8ba154	0.2727152
191	0xbead310c	-0.33826482
192	0x3de3e598	0.11127776
193	0xbefeb1e4	-0.49745095
194	0xbfa73d1b	-1.3065523
195	0xbeaf37a2	-0.34222132
196	0x3f5208c7	0.82044643
197	0x3fc3a408	1.5284433
198	0xbe9b8769	-0.30376747
199	0xbddd14b0	-0.107949615
200	0x3e24eec4	0.16106707
201	0x3f7b4e90	0.9816675
202	0xbf6c9c29	-0.9242578
203	0x3f7592a9	0.9592691
204	0x3f954457	1.1661481
205	0x3d0d12dd	0.034441818
206	0xbea668ef	-0.32501933
207	0x3f86a6f8	1.0519705
208	0x3f10fa98	0.56632376
209	0x3e220581	0.15822412
210	0xbe6f1bd4	-0.2335046
211	0x3e7c25cb	0.24623792
212	0xbe3a818f	-0.18213485
213	0x3e37f30c	0.17963809
214	0xbd332ec1	-0.04374576
215	0xbedcb0ff	-0.43103787
216	0x3e8110f7	0.25208256
217	0xbf84136c	-1.0318427
218	0xc06659e6	-3.599237
219	0xbcc1581f	-0.02360159
220	0x3eeb4dd2	0.4595781
221	0x3e652081	0.2237568
222	0xc05d500a	-3.4580102
223	0xbf2c386b	-0.67273587
224	0x3fa3daf5	1.2801195
225	0x400e708a	2.2256188
226	0xbe5129cc	-0.204261
227	0xbea8a519	-0.3293846
228	0x3e9a07b6	0.30084008
229	0x3fbad1f1	1.4595319
230	0x3fde0e77	1.7348164
231	0xbe99fa01	-0.3007355
232	0xbfb6a7b8	-1.4269934
233	0xbe353cb8	-0.17698944
234	0x3d82e220	0.06390786
235	0xbdb4ef86	-0.08834748
236	0xbffe3da2	-1.9862559
237	0xbe7e49e7	-0.24832879
238	0xbe276e87	-0.16350757
239	0xbe87ae05	-0.26499954
240	0xbd31582d	-0.04329698
241	0x3c73704b	0.014858316
242	0xbc83256a	-0.016009051
243	0xbec5af1b	-0.38610157
244	0xbe27b543	-0.1637774
245	0xbfc5552b	-1.5416616
246	0xc060376b	-3.5033824
247	0x3e994d79	0.2994192
248	0x3ebebb4e	0.37252277
249	0xbf815fb3	-1.010733
250	0xc0487cf4	-3.1326265
251	0xbef905bc	-0.48637187
252	0xbf8bfd08	-1.0936594
253	0xbf826eb9	-1.019004
254	0x3e593317	0.21210895
255	0x3e3dd3dc	0.18537849

layers.0.spline_scaler f4 [64, 195]
0	0x3cbaa63c	0.022784345
1	0xbdd61206	-0.104526564
2	0xbc80628b	-0.015671989
3	0x3c2bd810	0.010488525
4	0x3c313d9f	0.010817914
5	0xbd136391	-0.035983626
6	0x3c6a0446	0.014283245
7	0x3ea2bd71	0.31785157
8	0xbf3c3f47	-0.73534054
9	0x3e989397	0.29800102
10	0xbe553504	-0.20821005
11	0x3e974831	0.29547265
12	0xbd042ad9	-0.032267425
13	0x3e8c84d7	0.274451
14	0x3e2889b2	0.16458777
15	0xbd4524d4	-0.048130825
16	0x3d028e1b	0.031873804
17	0x3f645c70	0.8920355
18	0xbe3496f6	-0.17635712
19	0x3dd19cc1	0.102349766
20	0xbb227e54	-0.0024794536
21	0xbc1f89bd	-0.009737429
22	0x3f325517	0.69661087
23	0xbf3a2bec	-0.7272327
24	0xbcf543d2	-0.029939566
25	0x3c73ac6b	0.014872651
26	0xbedd5ea6	-0.43236274
27	0xbec57c1d	-0.38571253
28	0xbec17dc7	-0.37791273
29	0x3f84d811	1.0378438
30	0x3e05c2e9	0.13062634
31	0xbf050342	-0.51958096
32	0x3ec51c92	0.3849836
33	0x3b8dfd71	0.004333191
34	0xb9796803	-0.00023785238
35	0x3f3e7fe4	0.74413896
36	0x3e998a13	0.29988155
37	0x39d500cc	0.0004062712
38	0xbd5c40ce	-0.05377274
39	0xbc678fed	-0.014133436
40	0x3d33ce7d	0.043898094
41	0x3d83dbc3	0.064384006
42	0xbd0c0454	-0.034183815
43	0xbe07743b	-0.13227932
44	0x3e64d90a	0.22348419
45	0x3cc287c8	0.023746386
46	0x3e80b258	0.25136065
47	0xbf2b4f70	-0.66918087
48	0x3d331d91	0.04372937
49	0xbed0feed	-0.40819493
50	0x3dbaca0e	0.0912057
51	0xbc871be1	-0.016492786
52	0x3e4f86b1	0.20266224
53	0xbd1c5c31	-0.038173858
54	0xbcb4c61e	-0.022067126
55	0x3dc788c5	0.097428836
56	0x3e105191	0.14093615
57	0x3c612fd8	0.013744317
58	0x3e860ee4	0.26183236
59	0x3b2af11b	0.0026083651
60	0x39803b92	0.00024458446
61	0xbeb4d62a	-0.35319644
62	0x3f1a1556	0.60188806
63	0x3cc7ff9f	0.024413882
64	0xbc881244	-0.016610272
65	0x3e100a04	0.1406632
66	0x3e9b02e6	0.3027565
67	0x3ee77d34	0.4521271
68	0x3f8b06f8	1.0861502
69	0xbd3daf67	-0.046309855
70	0x3ec98925	0.39362445
71	0x3e8f5dff	0.280014
72	0xba91c5f4	-0.0011121617
73	0xba1b3a1f	-0.00059214415
74	0xbee18bb4	-0.44051898
75	0xbe5ad3ce	-0.2136986
76	0xbb90e7ae	-0.0044221496
77	0xba182d10	-0.00058050547
78	0xbbf1b36b	-0.0073761246
79	0xbb7656df	-0.00375884
80	0x3c3f67ff	0.011682509
81	0x3d98c415	0.07459275
82	0xbb8f3981	-0.0043708687
83	0xbe983e26	-0.29734915
84	0xbc2249c2	-0.009905281
85	0xbe977262	-0.29579455
86	0x3ead34be	0.33829302
87	0x3cae0ec2	0.021247271
88	0x3ea75d94	0.32688582
89	0x3d9237c6	0.07139544
90	0x3af08fda	0.0018353418
91	0xbddf5510	-0.10904896
92	0x3d01021c	0.031496152
93	0x3b2e301d	0.002657897
94	0x3c13b595	0.0090154605
95	0xbdf8dabe	-0.12151097
96	0xbe36f51d	-0.17866941
97	0x3ead1315	0.3380362
98	0x3a24bc90	0.00062842015
99	0xbb919c55	-0.004443685
100	0xbeb7ac9c	-0.35873878
101	0xbf1c459d	-0.6104372
102	0x3c90c024	0.017669745
103	0x3c835b89	0.016034858
104	0xbde41d3e	-0.1113839
105	0x3e4940cc	0.19653624
106	0x3f14d442	0.5813638
107	0xbf832431	-1.024542
108	0x3e16875c	0.14700073
109	0x3eb2fd12	0.34958702
110	0xbe11824a	-0.14209858
111	0x3b39bcf9	0.0028341396
112	0xbb17a89a	-0.0023141266
113	0x3ea58b09	0.32332638
114	0x3e4a1382	0.19734004
115	0xbb028913	-0.0019918128
116	0x36dd146b	6.58869e-06
117	0xbc76a98b	-0.015055071
118	0x3d56112c	0.05226247
119	0x3deddfc8	0.116149485
120	0xbc25e46a	-0.010125259
121	0xbabf8efe	-0.0014614759
122	0x3d0b55f0	0.034017503
123	0x3b09999f	0.0020996106
124	0xbe46cb31	-0.19413449
125	0xbd97ccf0	-0.074121356
126	0x3d6f21a5	0.058381695
127	0xbe55f6a4	-0.20894867
128	0x3e551fd2	0.2081292
129	0xbc09a67f	-0.008401512
130	0x3e3237c9	0.17404093
131	0x3c6574c6	0.014004892
132	0x3b9fc4d6	0.0048757596
133	0x3e3e8240	0.18604374
134	0x3e553d33	0.20824127
135	0xbed359e1	-0.4127951
136	0xbebf103c	-0.37317073
137	0x3b469fa7	0.0030307563
138	0x3c272565	0.010201787
139	0xbec9b4e5	-0.39395824
140	0xbf1657c9	-0.587277
141	0xbc476aa3	-0.01217142
142	0xbb58d2dd	-0.0033084669
143	0x3c52239b	0.012825872
144	0xbe6974cf	-0.22798465
145	0xbf032882	-0.51233685
146	0xbf485421	-0.7825337
147	0x3cbd0f14	0.023078479
148	0x3ee03679	0.4379156
149	0xbe8c4e4b	-0.27403483
150	0xbafc4772	-0.0019247367
151	0xb98e3eb0	-0.00027131056
152	0xbecc396f	-0.39887568
153	0x3eba6d76	0.36411637
154	0xbac3ba6e	-0.001493288
155	0xbbe5ab83	-0.007008971
156	0x3cb16f1e	0.02165943
157	0xbdd31694	-0.10307041
158	0xbe98d338	-0.29848647
159	0x3d1d2f9f	0.038375493
160	0x3d9170e6	0.07101612
161	0xbdd64f92	-0.104643956
162	0x3d88ebe1	0.06685615
163	0x3e86f980	0.26362228
164	0xbc66c750	-0.014085606
165	0xbcdfe5dc	-0.027331285
166	0xbeb2e9ed	-0.34944096
167	0xbccac787	-0.024753345
168	0xbc3a036b	-0.011353354
169	0xbe8aadd0	-0.27085733
170	0x3e08d191	0.13361193
171	0x3c3c3487	0.011487133
172	0xbe73941b	-0.23786967
173	0xbd806336	-0.06268923
174	0x3e9a5b11	0.30147603
175	0x3ed18f6e	0.4092974
176	0xbb4f4172	-0.0031624702
177	0x3d4e0c47	0.050304677
178	0xbf31bb6a	-0.69426596
179	0x3f39a536	0.72517717
180	0xbb8c6d29	-0.004285474
181	0xbcf18474	-0.029482104
182	0x3cb4439a	0.022004891
183	0x3e85213c	0.26001918
184	0x3f273a45	0.6532329
185	0xbf6c416e	-0.9228734
186	0xbcc00edc	-0.023444586
187	0xbf208058	-0.6269584
188	0x3eddfbb2	0.4335609
189	0xbbc0a605	-0.005879166
190	0xbbdb35c0	-0.006689757
191	0x3f4036c1	0.7508355
192	0xbf081062	-0.5315
193	0xbd783d17	-0.060605135
194	0xbd7d05d5	-0.06177314
195	0x3a5498a8	0.0008109906
196	0xbbc928c6	-0.006138894
197	0xbd2fbfe7	-0.04290762
198	0x3c8edb0d	0.017438436
199	0x3eb962ba	0.36208135
200	0xbe72f4d5	-0.23726209
201	0xbbb736ed	-0.0055912645
202	0x3ec44cad	0.3833975
203	0xbc7fdbbe	-0.015616355
204	0x3de577ed	0.11204515
205	0x3f45485c	0.77063537
206	0x3e4502ef	0.192394
207	0xbb1e7524	-0.0024178708
208	0xbca3a336	-0.019975286
209	0xbd162240	-0.036653757
210	0xbd8e4415	-0.06946579
211	0xbe64ff8b	-0.22363107
212	0xbae82a46	-0.0017712794
213	0xbd9eb0a3	-0.077485345
214	0xbf1b020e	-0.6055001
215	0xba081e38	-0.0005192491
216	0xbf5eb45e	-0.8699397
217	0x3f2fc48c	0.6865928
218	0xbeddb45d	-0.4330167
219	0xbae49fd8	-0.0017442657
220	0x3f0d02da	0.55082476
221	0x3ecd4e7f	0.4009895
222	0xbed8c26c	-0.42335832
223	0xbf05cd7e	-0.5226668
224	0x3eab78cc	0.33490598
225	0x3db9db48	0.09075028
226	0xb8af601e	-8.3625535e-05
227	0xb898fd18	-7.295067e-05
228	0xbabb4b98	-0.0014289496
229	0x3eda084c	0.42584455
230	0x3ee39e46	0.4445669
231	0x3e86340b	0.2621158
232	0x39c7e1ad	0.0003812438
233	0xbf4bd891	-0.7962733
234	0x3b83f1a2	0.0040266076
235	0xbd610670	-0.05493778
236	0xbc8e30d7	-0.017357273
237	0x3cf1f501	0.029535772
238	0x3e8072f5	0.25087705
239	0xbe427b44	-0.18992335
240	0x3cf4ad5d	0.029867822
241	0xbe92ed7b	-0.28696808
242	0x3c7c528b	0.015400539
243	0xbe13833c	-0.1440553
244	0xbf355963	-0.7083952
245	0x3e63ad26	0.2223402
246	0xbb0882cd	-0.0020829916
247	0x3e29c527	0.16579114
248	0xbd9daf7f	-0.07699489
249	0x3b1f3191	0.0024291018
250	0x3e428b82	0.1899853
251	0x3f2df111	0.67945963
252	0xbd9707bf	-0.07374524
253	0x3ed3a66c	0.41337907
254	0xba689ade	-0.00088731747
255	0x3f49cbdb	0.78826684

layers.0.grid f4 [195, 11]
0	0xc0200000	-2.5
1	0xc0000000	-2.0
2	0xbfc00000	-1.5
3	0xbf800000	-1.0
4	0xbf000000	-0.5
5	0x00000000	0.0
6	0x3f000000	0.5
7	0x3f800000	1.0
8	0x3fc00000	1.5
9	0x40000000	2.0
10	0x40200000	2.5
11	0xc0200000	-2.5
12	0xc0000000	-2.0
13	0xbfc00000	-1.5
14	0xbf800000	-1.0
15	0xbf000000	-0.5
16	0x00000000	0.0
17	0x3f000000	0.5
18	0x3f800000	1.0
19	0x3fc00000	1.5
20	0x40000000	2.0
21	0x40200000	2.5
22	0xc0200000	-2.5
23	0xc0000000	-2.0
24	0xbfc00000	-1.5
25	0xbf800000	-1.0
26	0xbf000000	-0.5
27	0x00000000	0.0
28	0x3f000000	0.5
29	0x3f800000	1.0
30	0x3fc00000	1.5
31	0x40000000	2.0
32	0x40200000	2.5
33	0xc0200000	-2.5
34	0xc0000000	-2.0
35	0xbfc00000	-1.5
36	0xbf800000	-1.0
37	0xbf000000	-0.5
38	0x00000000	0.0
39	0x3f000000	0.5
40	0x3f800000	1.0
41	0x3fc00000	1.5
42	0x40000000	2.0
43	0x40200000	2.5
44	0xc0200000	-2.5
45	0xc0000000	-2.0
46	0xbfc00000	-1.5
47	0xbf800000	-1.0
48	0xbf000000	-0.5
49	0x00000000	0.0
50	0x3f000000	0.5
51	0x3f800000	1.0
52	0x3fc00000	1.5
53	0x40000000	2.0
54	0x40200000	2.5
55	0xc0200000	-2.5
56	0xc0000000	-2.0
57	0xbfc00000	-1.5
58	0xbf800000	-1.0
59	0xbf000000	-0.5
60	0x00000000	0.0
61	0x3f000000	0.5
62	0x3f800000	1.0
63	0x3fc00000	1.5
64	0x40000000	2.0
65	0x40200000	2.5
66	0xc0200000	-2.5
67	0xc0000000	-2.0
68	0xbfc00000	-1.5
69	0xbf800000	-1.0
70	0xbf000000	-0.5
71	0x00000000	0.0
72	0x3f000000	0.5
73	0x3f800000	1.0
74	0x3fc00000	1.5
75	0x40000000	2.0
76	0x40200000	2.5
77	0xc0200000	-2.5
78	0xc0000000	-2.0
79	0xbfc00000	-1.5
80	0xbf800000	-1.0
81	0xbf000000	-0.5
82	0x00000000	0.0
83	0x3f000000	0.5
84	0x3f800000	1.0
85	0x3fc00000	1.5
86	0x40000000	2.0
87	0x40200000	2.5
88	0xc0200000	-2.5
89	0xc0000000	-2.0
90	0xbfc00000	-1.5
91	0xbf800000	-1.0
92	0xbf000000	-0.5
93	0x00000000	0.0
94	0x3f000000	0.5
95	0x3f800000	1.0
96	0x3fc00000	1.5
97	0x40000000	2.0
98	0x40200000	2.5
99	0xc0200000	-2.5
100	0xc0000000	-2.0
101	0xbfc00000	-1.5
102	0xbf800000	-1.0
103	0xbf000000	-0.5
104	0x00000000	0.0
105	0x3f000000	0.5
106	0x3f800000	1.0
107	0x3fc00000	1.5
108	0x40000000	2.0
109	0x40200000	2.5
110	0xc0200000	-2.5
111	0xc0000000	-2.0
112	0xbfc00000	-1.5
113	0xbf800000	-1.0
114	0xbf000000	-0.5
115	0x00000000	0.0
116	0x3f000000	0.5
117	0x3f800000	1.0
118	0x3fc00000	1.5
119	0x40000000	2.0
120	0x40200000	2.5
121	0xc0200000	-2.5
122	0xc0000000	-2.0
123	0xbfc00000	-1.5
124	0xbf800000	-1.0
125	0xbf000000	-0.5
126	0x00000000	0.0
127	0x3f000000	0.5
128	0x3f800000	1.0
129	0x3fc00000	1.5
130	0x40000000	2.0
131	0x40200000	2.5
132	0xc0200000	-2.5
133	0xc0000000	-2.0
134	0xbfc00000	-1.5
135	0xbf800000	-1.0
136	0xbf000000	-0.5
137	0x00000000	0.0
138	0x3f000000	0.5
139	0x3f800000	1.0
140	0x3fc00000	1.5
141	0x40000000	2.0
142	0x40200000	2.5
143	0xc0200000	-2.5
144	0xc0000000	-2.0
145	0xbfc00000	-1.5
146	0xbf800000	-1.0
147	0xbf000000	-0.5
148	0x00000000	0.0
149	0x3f000000	0.5
150	0x3f800000	1.0
151	0x3fc00000	1.5
152	0x40000000	2.0
153	0x40200000	2.5
154	0xc0200000	-2.5
155	0xc0000000	-2.0
156	0xbfc00000	-1.5
157	0xbf800000	-1.0
158	0xbf000000	-0.5
159	0x00000000	0.0
160	0x3f000000	0.5
161	0x3f800000	1.0
162	0x3fc00000	1.5
163	0x40000000	2.0
164	0x40200000	2.5
165	0xc0200000	-2.5
166	0xc0000000	-2.0
167	0xbfc00000	-1.5
168	0xbf800000	-1.0
169	0xbf000000	-0.5
170	0x00000000	0.0
171	0x3f000000	0.5
172	0x3f800000	1.0
173	0x3fc00000	1.5
174	0x40000000	2.0
175	0x40200000	2.5
176	0xc0200000	-2.5
177	0xc0000000	-2.0
178	0xbfc00000	-1.5
179	0xbf800000	-1.0
180	0xbf000000	-0.5
181	0x00000000	0.0
182	0x3f000000	0.5
183	0x3f800000	1.0
184	0x3fc00000	1.5
185	0x40000000	2.0
186	0x40200000	2.5
187	0xc0200000	-2.5
188	0xc0000000	-2.0
189	0xbfc00000	-1.5
190	0xbf800000	-1.0
191	0xbf000000	-0.5
192	0x00000000	0.0
193	0x3f000000	0.5
194	0x3f800000	1.0
195	0x3fc00000	1.5
196	0x40000000	2.0
197	0x40200000	2.5
198	0xc0200000	-2.5
199	0xc0000000	-2.0
200	0xbfc00000	-1.5
201	0xbf800000	-1.0
202	0xbf000000	-0.5
203	0x00000000	0.0
204	0x3f000000	0.5
205	0x3f800000	1.0
206	0x3fc00000	1.5
207	0x40000000	2.0
208	0x40200000	2.5
209	0xc0200000	-2.5
210	0xc0000000	-2.0
211	0xbfc00000	-1.5
212	0xbf800000	-1.0
213	0xbf000000	-0.5
214	0x00000000	0.0
215	0x3f000000	0.5
216	0x3f800000	1.0
217	0x3fc00000	1.5
218	0x40000000	2.0
219	0x40200000	2.5
220	0xc0200000	-2.5
221	0xc0000000	-2.0
222	0xbfc00000	-1.5
223	0xbf800000	-1.0
224	0xbf000000	-0.5
225	0x00000000	0.0
226	0x3f000000	0.5
227	0x3f800000	1.0
228	0x3fc00000	1.5
229	0x40000000	2.0
230	0x40200000	2.5
231	0xc0200000	-2.5
232	0xc0000000	-2.0
233	0xbfc00000	-1.5
234	0xbf800000	-1.0
235	0xbf000000	-0.5
236	0x00000000	0.0
237	0x3f000000	0.5
238	0x3f800000	1.0
239	0x3fc00000	1.5
240	0x40000000	2.0
241	0x40200000	2.5
242	0xc0200000	-2.5
243	0xc0000000	-2.0
244	0xbfc00000	-1.5
245	0xbf800000	-1.0
246	0xbf000000	-0.5
247	0x00000000	0.0
248	0x3f000000	0.5
249	0x3f800000	1.0
250	0x3fc00000	1.5
251	0x40000000	2.0
252	0x40200000	2.5
253	0xc0200000	-2.5
254	0xc0000000	-2.0
255	0xbfc00000	-1.5

layers.1.base_weight f4 [64, 64]
0	0x3e721668	0.2364136
1	0x3ddda95b	0.108233176
2	0xbc4879e4	-0.012236092
3	0x3dc3a1cd	0.095523454
4	0x3f076adf	0.5289745
5	0xbe8bc1e2	-0.27296358
6	0xbafcb7a9	-0.0019280809
7	0xbc1b15fc	-0.009465691
8	0xbd30e237	-0.043184485
9	0xbe15494a	-0.14578739
10	0xbf1b5851	-0.60681635
11	0xbeb1686a	-0.34649974
12	0x3c88a79a	0.016681481
13	0xbf3f73f8	-0.7478633
14	0x3e63bbde	0.22239634
15	0x3dfb6462	0.12275006
16	0x3d4103d9	0.04712281
17	0xbe380cb0	-0.1797359
18	0xbe586ab9	-0.21134461
19	0x3eef9583	0.46793756
20	0x3b81896f	0.003953151
21	0xbe823747	-0.25432798
22	0x3f586083	0.84522265
23	0xbe51f9e7	-0.20505486
24	0xbf088448	-0.53326845
25	0xbe332c25	-0.17497309
26	0xbd8c6151	-0.06854499
27	0xbdceefe8	-0.10104352
28	0x3d37d621	0.044881944
29	0x3d610842	0.054939516
30	0xbe45c149	-0.19312014
31	0xbe2241cb	-0.1584541
32	0x3e8a117f	0.26966473
33	0xbde7bae0	-0.113149405
34	0xbd917846	-0.071030185
35	0x3e9960a9	0.29956558
36	0xbdcf4720	-0.10120988
37	0xbbd06557	-0.006359737
38	0x3e9704e1	0.2949591
39	0xbe508404	-0.2036286
40	0xbed87b97	-0.42281792
41	0xbe002acf	-0.1251633
42	0x3d943a0f	0.07237636
43	0xbed26abd	-0.4109706
44	0x3f605ade	0.8763865
45	0x3d72ded8	0.05929455
46	0xbcb81fe2	-0.02247614
47	0x3de1cef0	0.11025798
48	0xbdf4b280	-0.11948109
49	0xbe2d9db2	-0.16954687
50	0xbe126ac3	-0.14298539
51	0x3d8296f5	0.06376449
52	0xbe54a61a	-0.20766488
53	0xbd97b757	-0.07408016
54	0x3d330713	0.04370792
55	0xbd3e980c	-0.046531722
56	0xbd6b6433	-0.057468604
57	0x3da8a45c	0.08234474
58	0x3d414de4	0.047193423
59	0xbe52715d	-0.20551057
60	0x3e3614cd	0.17781372
61	0x3d7a1536	0.061055385
62	0xbd5254a8	-0.051350266
63	0xbefc380e	-0.49261516
64	0xbedb29c1	-0.42805293
65	0xbe2ba15e	-0.16760775
66	0xbdba63ad	-0.09101043
67	0xbe91feb8	-0.28514647
68	0x3e9005e0	0.28129482
69	0xbe10c3bc	-0.14137167
70	0xbda95a7a	-0.0826921
71	0x3dc4f89d	0.09617732
72	0x3dc30661	0.09522701
73	0xbee8ca44	-0.45466816
74	0xbe953dbd	-0.29148665
75	0x3ea668a4	0.3250171
76	0xbe638565	-0.22218855
77	0xbe89973b	-0.26873192
78	0xbe892f9c	-0.26794136
79	0x3e634db6	0.22197613
80	0x3d9b6054	0.075867325
81	0x3ed3ddf3	0.4138027
82	0x3d24fbfb	0.04027937
83	0x3dfecb57	0.12441128
84	0xbe550702	-0.20803455
85	0x3e85aa44	0.26106465
86	0x3e72139d	0.23640294
87	0x3e43683a	0.19082728
88	0x3e95ee14	0.29283202
89	0xbdb71902	-0.08940317
90	0x3e9b9e5c	0.30394256
91	0x3ebe11f9	0.37123087
92	0xbe9f7662	-0.31145006
93	0x3e85717d	0.26063147
94	0x3d52a33a	0.051425196
95	0x3f7810d6	0.9690069
96	0x3f03987d	0.51404554
97	0x3f1e3e00	0.61813354
98	0xbd262177	-0.04055926
99	0x3f7bb6ab	0.98325604
100	0xbe69ac08	-0.22819531
101	0xbe5a15e8	-0.21297419
102	0x3e5e2f6f	0.21697782
103	0x3df17fc4	0.117919475
104	0xbdda5ac7	-0.10661846
105	0xbd3de2da	-0.04635892
106	0x3ee13869	0.4398835
107	0x3e11780a	0.14205948
108	0x3f5af7bc	0.8553426
109	0x3d793340	0.06083989
110	0xbe013b9e	-0.12620398
111	0xbda6a91b	-0.08137723
112	0x3e0dd351	0.13850142
113	0x3ef0fc72	0.470676
114	0xbdeed79b	-0.11662217
115	0xbe29613e	-0.16541001
116	0xbf038a7b	-0.5138318
117	0x3e226a70	0.15860915
118	0xbe94789c	-0.28998268
119	0xbd38a325	-0.04507746
120	0x3e38cd2d	0.18047018
121	0xbd9ead0e	-0.07747851
122	0x3e0302ca	0.12794033
123	0xbc8645ff	-0.016390799
124	0xbe89ded8	-0.2692783
125	0xbeaa50be	-0.33264726
126	0x3e78c917	0.2429546
127	0xbd492203	-0.0491047
128	0x3d9f794e	0.07786809
129	0x3deb65f6	0.11494057
130	0x3e15c981	0.14627649
131	0x3eb90460	0.3613615
132	0x3e72c5b7	0.23708235
133	0xbe4e0622	-0.20119527
134	0x3d1ec1aa	0.03875891
135	0xbd20887e	-0.03919267
136	0x3eb16ece	0.3465485
137	0xbdd43c4c	-0.10363063
138	0x3de76d6e	0.11300169
139	0x3da634f3	0.08115568
140	0x3c8c0842	0.017093781
141	0x3e9f0d5d	0.31064883
142	0x3e7036bb	0.23458378
143	0x3bc19f93	0.0059089153
144	0xbd285cf4	-0.041104272
145	0xbd669073	-0.0562901
146	0x3c199af2	0.009375321
147	0xbcf69414	-0.030099906
148	0x3d6c39e3	0.057672393
149	0x3dee99d9	0.11650438
150	0xbe18ab3b	-0.14909069
151	0xbdbb7d9c	-0.091548175
152	0xbe5f7417	-0.21821629
153	0xbcf21c85	-0.029554615
154	0x3cb0a052	0.021560822
155	0xbd5ea06b	-0.054352205
156	0xbc8c78e5	-0.01714749
157	0x3cd2bd4b	0.025725028
158	0x3dd3fec8	0.1035133
159	0x3e68df8b	0.22741525
160	0xbdf8e8db	-0.12153789
161	0x3d841d25	0.064508714
162	0xbdd18f1a	-0.102323726
163	0xbdbc38da	-0.09190531
164	0x3dbb35dd	0.09141133
165	0x3def23b7	0.11676734
166	0xbda85635	-0.08219568
167	0xbd794ec3	-0.06086613
168	0x3d59c164	0.053162947
169	0x3b028d8d	0.0019920797
170	0x3da90927	0.08253699
171	0x3c45228f	0.012032165
172	0xbd494888	-0.049141437
173	0x3e28d418	0.16487157
174	0x3ddb253e	0.10700463
175	0x3d0e9224	0.03480734
176	0x3d29449e	0.041325204
177	0x3c81d986	0.015850794
178	0x3da8a8db	0.082353316
179	0x3ebc990e	0.3683552
180	0xbf89641c	-1.0733676
181	0x3dcdb738	0.10044712
182	0x3d95dc3f	0.07317399
183	0x3e3f2316	0.18665728
184	0xbc872233	-0.0164958
185	0x3d18d385	0.037311096
186	0x3e394f6c	0.18096703
187	0x3d173371	0.036914293
188	0xbd817085	-0.063202895
189	0xbe3bf47a	-0.18354979
190	0x3c1a6614	0.009423751
191	0x3dc24983	0.094866775
192	0x3ec82095	0.39087358
193	0x3e846b04	0.25862896
194	0xbe191226	-0.1494833
195	0xbdfc6e20	-0.12325692
196	0x3e631500	0.2217598
197	0x3e28f8c3	0.16501145
198	0xbc923d27	-0.017851425
199	0x3dc64b8f	0.096823804
200	0x3f0e3d05	0.5556186
201	0x3ea2c9ca	0.31794578
202	0xbf0f4194	-0.5595944
203	0xbf471a15	-0.77774173
204	0xbe015cd8	-0.12633073
205	0x3de06da6	0.10958414
206	0x3f6faf67	0.9362702
207	0xbedf8d56	-0.43662518
208	0x3dcab81e	0.09898399
209	0xbea8b722	-0.3295222
210	0x3ce9557f	0.02848315
211	0xbd0ac2e0	-0.033877254
212	0xbda9a38b	-0.082831465
213	0x3ee656cb	0.44988093
214	0xbf69bfaf	-0.9130811
215	0x3eba45f0	0.36381483
216	0xbed8fabd	-0.42378798
217	0xbccc3732	-0.024928663
218	0xbdf19dd7	-0.11797684
219	0xbe6fc567	-0.23415147
220	0x3c8290ea	0.015938241
221	0x3e49181f	0.19638108
222	0xbe51c663	-0.20485835
223	0xbdb20cf6	-0.08693878
224	0xbed2eb2c	-0.41195047
225	0xbd804b8f	-0.06264412
226	0xbda2b230	-0.07944143
227	0xbf5628e1	-0.83656126
228	0xbe3acd45	-0.18242367
229	0x3ec3ab66	0.38216704
230	0xbe0cfa9a	-0.13767472
231	0xbede1ea5	-0.43382755
232	0x3cf1fe7d	0.029540295
233	0x3e44072f	0.19143365
234	0xbe1d35ce	-0.15352556
235	0xbe80e67a	-0.2517584
236	0xbd76222f	-0.060091194
237	0x3ea5fc79	0.32419184
238	0x3e2bc5ec	0.1677472
239	0x3bc7164f	0.0060756574
240	0xbd8024b5	-0.06257001
241	0xbdda25b6	-0.10651724
242	0xbe0edc37	-0.13951193
243	0xbd4297d0	-0.04750806
244	0xbe0d8f6b	-0.13824241
245	0xbf5db697	-0.86606735
246	0xbea3bd68	-0.31980443
247	0xbd87b8df	-0.06627058
248	0x3e427be1	0.18992569
249	0x3e246c80	0.16057014
250	0x3ebae7f0	0.3650508
251	0xbe825dfa	-0.25462323
252	0xbdd84415	-0.105598606
253	0x3e37d32d	0.17951651
254	0xbdc408e9	-0.09572012
255	0x3de8a62e	0.11359821

layers.1.spline_weight f4 [64, 64, 7]
0	0xbef3eff9	-0.47644022
1	0xbf1c8f40	-0.6115608
2	0x3e76dbe8	0.24107325
3	0x3e6abadc	0.22922844
4	0x3d9bdb12	0.07610144
5	0x3c622ac7	0.013804144
6	0xbe7077b6	-0.23483166
7	0x3e1b1e55	0.1514829
8	0x3f986080	1.190445
9	0x3f81c22b	1.013738
10	0x3e5c7edc	0.21532768
11	0xbd50b66b	-0.050955217
12	0x3d36a4ba	0.04459069
13	0xbf02e73b	-0.5113408
14	0xbe3b2c7e	-0.18278691
15	0x3eded393	0.43520793
16	0x3f3a0145	0.7265819
17	0xbe9a6f2f	-0.3016295
18	0xbfc7418f	-1.5566882
19	0xbf463cc3	-0.77436465
20	0xbc80d13d	-0.015724773
21	0x3d90a619	0.070629306
22	0x3f1acbe3	0.60467356
23	0x3f1ec78d	0.6202324
24	0x3b379de6	0.0028017699
25	0xbe56f313	-0.20991163
26	0xbd4668df	-0.048439857
27	0x3e3c00b2	0.1835964
28	0x3e0485a8	0.12941611
29	0x3f2815ee	0.6565846
30	0x3f4e934c	0.8069351
31	0x3d9ec6d9	0.07752771
32	0xbf4f3808	-0.8094487
33	0xbdc2ade8	-0.09505826
34	0x3d1313fa	0.035907723
35	0x3e995f54	0.29955542
36	0x3e7175c1	0.23580076
37	0xbc7c14f9	-0.01538586
38	0xbe3ce1d6	-0.18445525
39	0x3e626e5d	0.22112413
40	0x3d97a12a	0.074037865
41	0xbe38424d	-0.17994042
42	0x3ee8f399	0.4549835
43	0xbdc3d22d	-0.09561572
44	0xbf410557	-0.7539877
45	0xbf4a7eb9	-0.79099613
46	0xbeca5fe2	-0.39526278
47	0x3fa70f70	1.3051586
48	0x3f398d53	0.7248127
49	0x3f8a3ef5	1.0800463
50	0xbe031d38	-0.12804115
51	0xbeb68620	-0.35649204
52	0xbf597923	-0.84950465
53	0xbe37fdce	-0.17967913
54	0x3e526121	0.20544864
55	0xbe6aa740	-0.22915363
56	0x3fa4af8b	1.2866071
57	0xbca42565	-0.020037362
58	0xbe22009a	-0.15820542
59	0x3da6d3b5	0.08145849
60	0x3d9f8827	0.07789641
61	0x3f687371	0.9080115
62	0x3ed30a66	0.4121887
63	0x3ccbbad2	0.024869356
64	0x3ee9dfc0	0.4567852
65	0x3d8739f5	0.06602851
66	0xbe91823b	-0.2841967
67	0x3da1c702	0.07899286
68	0x3f1a68c7	0.6031613
69	0xbf02e06d	-0.51123697
70	0xbdf2e058	-0.118591964
71	0xbe046d18	-0.12932241
72	0xbe67073a	-0.2256135
73	0x3d99e94c	0.07515201
74	0x3ff5e0bd	1.920921
75	0x3e2be4cd	0.167865
76	0xbec804a1	-0.39066032
77	0x3f1bf5f2	0.6092216
78	0x3e384c19	0.17997779
79	0xbd707837	-0.058708396
80	0x3d81010b	0.06299027
81	0xbe0faa07	-0.14029704
82	0xbd7e45dd	-0.062078346
83	0x3f0a39a7	0.5399422
84	0xbf830ace	-1.0237672
85	0xbefbf380	-0.49209213
86	0xbf0e355f	-0.5555019
87	0xbed29165	-0.41126552
88	0xbf5c82a4	-0.8613684
89	0xbf838a3b	-1.027656
90	0x3cd481f3	0.02594087
91	0x3f629dbb	0.8852193
92	0xbed2f93b	-0.41205773
93	0xbd738497	-0.05945262
94	0x3dd89327	0.10574942
95	0x3e7a436c	0.24439782
96	0x3f79d575	0.97591335
97	0x3fbc2561	1.4698907
98	0x3f3aebb3	0.730159
99	0x3f12f17d	0.5739973
100	0x3d37d0da	0.04487691
101	0xbdde83b9	-0.10864968
102	0xbeca59f9	-0.3952177
103	0xbf8bbc13	-1.0916771
104	0xbf083fcc	-0.53222346
105	0xbdbb0211	-0.091312535
106	0x3e815124	0.25257218
107	0x3e754958	0.2395376
108	0x3cae3661	0.021266164
109	0xbd30f9d6	-0.043207012
110	0x3d15e456	0.03659471
111	0xbad5958d	-0.001629518
112	0x3e94ac7e	0.2903785
113	0xbeb1bc37	-0.3471391
114	0xbf594ce8	-0.84882975
115	0xbe85809a	-0.26074678
116	0x3f14352a	0.5789362
117	0x3f19262a	0.5982386
118	0x3ea56668	0.32304692
119	0xbd97f32c	-0.07419428
120	0xbe8998ff	-0.2687454
121	0xbede122f	-0.43373248
122	0xbef90642	-0.48637587
123	0xbf006357	-0.5015158
124	0xbcdcf3ac	-0.02697166
125	0x3e35111a	0.17682305
126	0x3f85aaf8	1.04428
127	0x3f3f1550	0.74641895
128	0xbdd62197	-0.104556255
129	0xbeaba64f	-0.3352532
130	0xbf65692d	-0.8961361
131	0xbf46f008	-0.7771001
132	0xbf293d42	-0.66109097
133	0x3e7d305b	0.24725477
134	0x3e1b0a1f	0.1514058
135	0xbde85a42	-0.1134534
136	0x3d833b27	0.06407767
137	0xbd6e25e9	-0.058141623
138	0xbf2e2509	-0.6802526
139	0x3eb593be	0.3546428
140	0x3fa9b555	1.3258463
141	0x3e5166a2	0.20449308
142	0xbe082cec	-0.13298386
143	0xbf4330d1	-0.7624636
144	0x3eafde8e	0.34349483
145	0x3e279188	0.1636411
146	0xbed496f2	-0.41521412
147	0xbd92181a	-0.07133503
148	0x3ede9d99	0.43479612
149	0x3e95107a	0.29114133
150	0xbe2bd71d	-0.16781278
151	0x3d8f317b	0.069918595
152	0x3e044bfe	0.12919614
153	0x3f6cc3a2	0.9248601
154	0xbf197c6d	-0.59955484
155	0xbdf2031b	-0.118169986
156	0x3de9898f	0.1140319
157	0x3eaf0d8f	0.34190032
158	0xbed5a2d0	-0.4172578
159	0xbf40c314	-0.75297666
160	0x3f77cd8c	0.96798015
161	0x3eae315e	0.3402204
162	0xbe9c603b	-0.30542168
163	0xbe7b0ef9	-0.2451743
164	0x3db9e58b	0.09076985
165	0x3f191939	0.5980411
166	0x3efa21f9	0.48854044
167	0xbe74b723	-0.23897986
168	0x3e938acd	0.28816834
169	0x3f04b64f	0.5184068
170	0xbdb06441	-0.08612872
171	0xbf18e070	-0.59717464
172	0x3f079ecd	0.52976686
173	0x3c828b25	0.01593549
174	0xbd673f89	-0.056457076
175	0x3da225d1	0.07917369
176	0x3efb4fe7	0.49084398
177	0x3f091de4	0.53561234
178	0xbe5398d6	-0.20663771
179	0xbed90895	-0.4238936
180	0xbe97bc8e	-0.29636043
181	0x3e9959d9	0.2995136
182	0xbd94cfda	-0.07266207
183	0xbd855048	-0.06509453
184	0xbda3d0c1	-0.07998801
185	0xbf89155b	-1.0709642
186	0xbf475c55	-0.7787526
187	0xbdf1f35e	-0.11813997
188	0x3ec855fc	0.391281
189	0x3e396b5f	0.18107365
190	0xbf6a858d	-0.9161003
191	0xbf4c8af8	-0.7989955
192	0x3e637b19	0.22214927
193	0x3ee21b0c	0.4416126
194	0x3e2f4ced	0.17119189
195	0x3eb0d894	0.34540236
196	0x3a19fa89	0.00058738195
197	0xbe2e26a3	-0.17006926
198	0x3ebe2c8e	0.37143368
199	0x3cc609db	0.024174621
200	0xbc909ae8	-0.01765199
201	0xbd652e4a	-0.055952348
202	0x3cf3eb32	0.029775236
203	0x3e485875	0.19564994
204	0x3f13b15d	0.5769251
205	0x3d03ef5a	0.032210685
206	0x3f24e0e5	0.6440566
207	0x3f14e5c4	0.58163095
208	0x3e62cadd	0.22147699
209	0xbeb413c0	-0.35171318
210	0xbf672509	-0.90290886
211	0xbf83fc46	-1.0311363
212	0xbe93aba6	-0.28841895
213	0xbdcd8384	-0.1003485
214	0xbe1aea47	-0.15128432
215	0x3e5e6245	0.21717174
216	0xbde5dff5	-0.11224357
217	0x3dc1de21	0.09466196
218	0x3ee034f4	0.437904
219	0x3e72f10a	0.23724762
220	0xbe7b8f8f	-0.24566482
221	0xbe68e1ed	-0.22742434
222	0x3f143345	0.5789073
223	0x3f94370f	1.1579303
224	0xbd0eade9	-0.034833822
225	0x3f996042	1.19825
226	0xbe59ae09	-0.21257795
227	0xbddd46c4	-0.10804513
228	0xbe639fb1	-0.22228886
229	0x3df2e07e	0.11859225
230	0x3eab5c26	0.3346874
231	0x3e11514b	0.14191167
232	0x3ebfbe66	0.3744995
233	0xbca3a867	-0.019977761
234	0xbe015d38	-0.12633216
235	0xbe878556	-0.26468915
236	0x3dafc093	0.085816525
237	0x3e3ab9af	0.18234895
238	0xbf90356d	-1.1266304
239	0xbf4b53a0	-0.79424477
240	0xbf8467b7	-1.0344151
241	0xbf47dd58	-0.7807212
242	0xbeb93896	-0.36175984
243	0x3d420255	0.047365505
244	0xbdf57831	-0.11985815
245	0x3ec730ef	0.3890452
246	0x3f1fbfd9	0.6240211
247	0xbd3ee79b	-0.046607595
248	0xbdd1f025	-0.10250882
249	0x3d6f832c	0.058474705
250	0xbf290527	-0.66023487
251	0xbed2e88b	-0.4119304
252	0xbd4e8280	-0.050417423
253	0x3e6082fd	0.21924968
254	0xbdaf1156	-0.085482284
255	0x3eec14d5	0.46109644

layers.1.spline_scaler f4 [64, 64]
0	0x3d429a58	0.047510475
1	0xbeb71ce4	-0.3576423
2	0xbf8036c4	-1.0016713
3	0x3e340952	0.1758168
4	0x3f30a424	0.6900046
5	0xbd2d08da	-0.04224477
6	0xbf97bd99	-1.1854736
7	0xbec10a68	-0.37703252
8	0x3e07954a	0.13240543
9	0xbdedba6b	-0.11607822
10	0x3f165134	0.58717656
11	0xbd2e4e2a	-0.04255501
12	0xbf7b8ccb	-0.9826171
13	0x3f483a2a	0.7821375
14	0xbf1df7ff	-0.61706537
15	0xbc8e7dea	-0.017394025
16	0x3f1fac4c	0.6237228
17	0xbe80eb16	-0.25179356
18	0xbf9f04b0	-1.2423306
19	0x3e173c3e	0.14769074
20	0xbec09d14	-0.3761984
21	0x3f1657ce	0.5872773
22	0x3ef9090a	0.4863971
23	0x3e46a36f	0.19398282
24	0xbf20e2a3	-0.6284582
25	0x3e8cb8ef	0.27484843
26	0xbf0afafe	-0.54289234
27	0x3f1957b8	0.59899473
28	0x3c46eea1	0.0121418545
29	0x3f12ec7d	0.573921
30	0xbd326970	-0.043557584
31	0xbef32539	-0.47489336
32	0x3ec20761	0.37896255
33	0x3b86346b	0.004095604
34	0xbee86d10	-0.45395708
35	0xbe080742	-0.13284019
36	0xbe0f6c53	-0.14006166
37	0xbe9f4622	-0.31108195
38	0xbdfffaca	-0.12499006
39	0xbf26a0fb	-0.65089387
40	0x3f01052f	0.50398535
41	0xbc2c175b	-0.010503615
42	0xbe2fcf5f	-0.1716895
43	0xbec5db40	-0.38643837
44	0xbe51f0f1	-0.20502068
45	0x3eda8b77	0.42684528
46	0xbf98d53b	-1.1940073
47	0x3ec5daae	0.38643402
48	0xbe9b25a1	-0.30302146
49	0x3ea8cdca	0.32969505
50	0x3ee03283	0.43788537
51	0x3efb2a95	0.49055925
52	0x3f11e2ad	0.56986505
53	0x3edbc62a	0.42924625
54	0xbeb17d8a	-0.3466609
55	0xbe15f6e3	-0.14644961
56	0x3dddbff9	0.108276315
57	0x3ee44833	0.44586334
58	0xbd85fc17	-0.06542223
59	0xbc8be2c2	-0.0170759
60	0x3f3bee8d	0.73410875
61	0xbf19fc5a	-0.6015068
62	0x3dbba1df	0.09161734
63	0x3e4f086e	0.2021806
64	0xbc207952	-0.00979455
65	0x3ea9cf24	0.33165848
66	0xbc79cade	-0.015246121
67	0x3ec3f992	0.38276345
68	0xbf5f0f52	-0.8713275
69	0x3d52923c	0.05140899
70	0x3f8ccbee	1.0999734
71	0x3ee60791	0.44927648
72	0x3eead87a	0.45868284
73	0xbecff84d	-0.40619126
74	0x3d477898	0.04869899
75	0xbe9f6250	-0.31129694
76	0x3f618714	0.8809674
77	0xbf55cc3a	-0.8351475
78	0x3c0fce78	0.008777253
79	0x3d46231d	0.04837333
80	0xbf3d7d65	-0.7401946
81	0x3da22bc8	0.07918507
82	0xbe992ad3	-0.29915485
83	0x3e8107d9	0.252013
84	0xbeac5baf	-0.336637
85	0x3ed6208e	0.41821712
86	0xbf093730	-0.53599834
87	0xbe68ff05	-0.22753532
88	0xbf76905f	-0.9631404
89	0x3e9890f3	0.29798087
90	0xbf4da5a8	-0.80330896
91	0x3d0f18ec	0.034935877
92	0xbba5f246	-0.0050642816
93	0x3ec9bf9a	0.39403993
94	0x3c683292	0.014172213
95	0xbf1311e7	-0.5744919
96	0x3d742589	0.05960611
97	0xbd24138c	-0.040057704
98	0x3e1ec96d	0.15506525
99	0x3fb5b8d2	1.4197028
100	0xbf3f7251	-0.7478381
101	0xbf14151a	-0.578447
102	0x3dc9c2b9	0.098515935
103	0xbf0c2554	-0.5474446
104	0xbf870051	-1.0546972
105	0x3eac6859	0.3367336
106	0xbb958a8e	-0.004563636
107	0x3ed0da3a	0.40791494
108	0x3ec75279	0.3893011
109	0x3ef6f473	0.48233375
110	0xbf0aea11	-0.54263407
111	0x3e711b9f	0.23545693
112	0x3f27e694	0.6558621
113	0x3e9c8703	0.30571756
114	0x3eaf5bac	0.34249628
115	0xbe2e3521	-0.17012455
116	0xbedf6b19	-0.43636397
117	0x3f4d4056	0.80176294
118	0x3ebb7df5	0.36619535
119	0xbd2a7ca5	-0.041622777
120	0xbecc5cc4	-0.39914525
121	0xbe945e79	-0.28978327
122	0xbe9a5e50	-0.3015008
123	0x3f0026ad	0.50059015
124	0xbf23bf4e	-0.6396378
125	0xbf0c2ceb	-0.5475604
126	0x3ea76137	0.32691357
127	0xbed7c28e	-0.4214062
128	0xbd505d04	-0.050869957
129	0xbc9462d9	-0.01811354
130	0xbf07b4b6	-0.5301012
131	0x3eb04f4c	0.344355
132	0x3e0941be	0.13403985
133	0x3cd8e5f2	0.026476834
134	0xbe8d7f4d	-0.27636185
135	0xbdb83f4e	-0.089964494
136	0x3b205f72	0.0024470952
137	0xbe026cee	-0.12736866
138	0x3c84d35e	0.016214069
139	0x3d9e1c08	0.0772019
140	0xbe511566	-0.20418319
141	0x3ddcd27f	0.107823364
142	0xbbcbc1cd	-0.006218171
143	0x3ce83d50	0.028349549
144	0xbf023d39	-0.5087467
145	0x3ea0dd41	0.31418803
146	0xbe383090	-0.17987275
147	0x3bd98e39	0.0066392687
148	0x3befb121	0.0073148166
149	0xbe2c82cd	-0.16846772
150	0x3e2109b4	0.15726358
151	0xbc4263ab	-0.011864583
152	0xbe8c74ff	-0.2743301
153	0xbe248378	-0.16065776
154	0x3d4a288e	0.049355082
155	0x3e58aa0b	0.21158616
156	0xbe1ca391	-0.1529677
157	0x3ad1a0ec	0.0015993393
158	0x3df0b0fb	0.11752506
159	0x3d39e654	0.045385674
160	0x3c10fa6a	0.008848766
161	0x3bad70bc	0.00529298
162	0x3e43da7c	0.19126314
163	0xbaef8fad	-0.0018277072
164	0x3e4860de	0.19568202
165	0x3ce71462	0.028207961
166	0xbd1eddf7	-0.0387859
167	0x3c9f7bcf	0.019468216
168	0x3e91cdbd	0.28477278
169	0xbbcc2aa5	-0.0062306696
170	0xbe2d01d1	-0.16895224
171	0x3d430d7a	0.047620274
172	0x3c29c946	0.010362929
173	0x3dae2c4d	0.085045435
174	0x3ded3e5a	0.11584158
175	0xbeb296b2	-0.34880596
176	0x3c7e8161	0.015533776
177	0xbcaf0d16	-0.021368545
178	0x3cd8a838	0.0264474
179	0x39cf0756	0.00039487582
180	0x3fcd4f43	1.6039814
181	0x3e17ff09	0.14843382
182	0x3c81be7b	0.015837898
183	0x3c0b3786	0.008497125
184	0x3d256eaa	0.04038874
185	0x3e568b54	0.20951587
186	0x3bcc5968	0.006236244
187	0x3e2e9f23	0.17052893
188	0xbedf20eb	-0.43579802
189	0xbe812d18	-0.25229716
190	0xbdaa0c42	-0.08303119
191	0xbe4508fb	-0.19241707
192	0xbe37194c	-0.17880744
193	0xbf185ce8	-0.59516764
194	0x3fb1d46d	1.3892952
195	0x3eed32ce	0.46327823
196	0xbf103b5c	-0.56340575
197	0x3f172b78	0.59050703
198	0x3f810dad	1.0082299
199	0xbf0bc076	-0.5459055
200	0x3f553c06	0.83294713
201	0xbe9a3d0e	-0.30124706
202	0xbf3ec18f	-0.74514097
203	0xbf1fbf50	-0.62401295
204	0x3f9940f0	1.1972942
205	0x3f03a9b6	0.51430833
206	0xbef8adfc	-0.4857024
207	0x3e48d439	0.19612207
208	0x3f016b4d	0.50554353
209	0xbede7568	-0.4344895
210	0xbfa83748	-1.314187
211	0x3e9c0657	0.30473587
212	0xbe732f60	-0.23748541
213	0x39b82ccb	0.00035128588
214	0xbe108404	-0.1411286
215	0xbecadf19	-0.39623335
216	0x3eaed226	0.34144706
217	0x3ebbf457	0.36709854
218	0xbf349f26	-0.7055534
219	0xbcc80ef5	-0.024421195
220	0xbf17f70a	-0.59361327
221	0x3f08fb1a	0.5350815
222	0xbf1c6912	-0.61097825
223	0xbf40de58	-0.7533927
224	0xbefd9432	-0.49527127
225	0xbf56568d	-0.83725816
226	0x3fc845e7	1.5646333
227	0xbf3d489a	-0.73938906
228	0xbe9b0535	-0.3027741
229	0xbf7ac39e	-0.9795474
230	0xbe8902de	-0.2676
231	0x3ed2be88	0.4116099
232	0x3f4af419	0.79278713
233	0x3ee38cf4	0.44443476
234	0xbf1a8464	-0.6035826
235	0xbf2477bb	-0.64245194
236	0xbec5b55c	-0.3861493
237	0x3e176c3a	0.14787379
238	0x3f3376f3	0.7010338
239	0x3e985374	0.2975117
240	0xbf2d138c	-0.6760795
241	0x3f10f51c	0.5662401
242	0x3c7ab439	0.0153017575
243	0xbf89d30e	-1.0767534
244	0x3e4f025c	0.20215744
245	0xbe6a26bc	-0.22866338
246	0xbe983673	-0.2972904
247	0xbdc61106	-0.09671216
248	0xbe007556	-0.1254476
249	0xbec05023	-0.3756114
250	0xbe4aac45	-0.19792278
251	0x3ee7168a	0.45134383
252	0xbf9249e3	-1.1428798
253	0x3f81c2ac	1.0137534
254	0xbeee0251	-0.46486142
255	0x3f05637e	0.5210494

layers.1.grid f4 [64, 11]
0	0xc0200000	-2.5
1	0xc0000000	-2.0
2	0xbfc00000	-1.5
3	0xbf800000	-1.0
4	0xbf000000	-0.5
5	0x00000000	0.0
6	0x3f000000	0.5
7	0x3f800000	1.0
8	0x3fc00000	1.5
9	0x40000000	2.0
10	0x40200000	2.5
11	0xc0200000	-2.5
12	0xc0000000	-2.0
13	0xbfc00000	-1.5
14	0xbf800000	-1.0
15	0xbf000000	-0.5
16	0x00000000	0.0
17	0x3f000000	0.5
18	0x3f800000	1.0
19	0x3fc00000	1.5
20	0x40000000	2.0
21	0x40200000	2.5
22	0xc0200000	-2.5
23	0xc0000000	-2.0
24	0xbfc00000	-1.5
25	0xbf800000	-1.0
26	0xbf000000	-0.5
27	0x00000000	0.0
28	0x3f000000	0.5
29	0x3f800000	1.0
30	0x3fc00000	1.5
31	0x40000000	2.0
32	0x40200000	2.5
33	0xc0200000	-2.5
34	0xc0000000	-2.0
35	0xbfc00000	-1.5
36	0xbf800000	-1.0
37	0xbf000000	-0.5
38	0x00000000	0.0
39	0x3f000000	0.5
40	0x3f800000	1.0
41	0x3fc00000	1.5
42	0x40000000	2.0
43	0x40200000	2.5
44	0xc0200000	-2.5
45	0xc0000000	-2.0
46	0xbfc00000	-1.5
47	0xbf800000	-1.0
48	0xbf000000	-0.5
49	0x00000000	0.0
50	0x3f000000	0.5
51	0x3f800000	1.0
52	0x3fc00000	1.5
53	0x40000000	2.0
54	0x40200000	2.5
55	0xc0200000	-2.5
56	0xc0000000	-2.0
57	0xbfc00000	-1.5
58	0xbf800000	-1.0
59	0xbf000000	-0.5
60	0x00000000	0.0
61	0x3f000000	0.5
62	0x3f800000	1.0
63	0x3fc00000	1.5
64	0x40000000	2.0
65	0x40200000	2.5
66	0xc0200000	-2.5
67	0xc0000000	-2.0
68	0xbfc00000	-1.5
69	0xbf800000	-1.0
70	0xbf000000	-0.5
71	0x00000000	0.0
72	0x3f000000	0.5
73	0x3f800000	1.0
74	0x3fc00000	1.5
75	0x40000000	2.0
76	0x40200000	2.5
77	0xc0200000	-2.5
78	0xc0000000	-2.0
79	0xbfc00000	-1.5
80	0xbf800000	-1.0
81	0xbf000000	-0.5
82	0x00000000	0.0
83	0x3f000000	0.5
84	0x3f800000	1.0
85	0x3fc00000	1.5
86	0x40000000	2.0
87	0x40200000	2.5
88	0xc0200000	-2.5
89	0xc0000000	-2.0
90	0xbfc00000	-1.5
91	0xbf800000	-1.0
92	0xbf000000	-0.5
93	0x00000000	0.0
94	0x3f000000	0.5
95	0x3f800000	1.0
96	0x3fc00000	1.5
97	0x40000000	2.0
98	0x40200000	2.5
99	0xc0200000	-2.5
100	0xc0000000	-2.0
101	0xbfc00000	-1.5
102	0xbf800000	-1.0
103	0xbf000000	-0.5
104	0x00000000	0.0
105	0x3f000000	0.5
106	0x3f800000	1.0
107	0x3fc00000	1.5
108	0x40000000	2.0
109	0x40200000	2.5
110	0xc0200000	-2.5
111	0xc0000000	-2.0
112	0xbfc00000	-1.5
113	0xbf800000	-1.0
114	0xbf000000	-0.5
115	0x00000000	0.0
116	0x3f000000	0.5
117	0x3f800000	1.0
118	0x3fc00000	1.5
119	0x40000000	2.0
120	0x40200000	2.5
121	0xc0200000	-2.5
122	0xc0000000	-2.0
123	0xbfc00000	-1.5
124	0xbf800000	-1.0
125	0xbf000000	-0.5
126	0x00000000	0.0
127	0x3f000000	0.5
128	0x3f800000	1.0
129	0x3fc00000	1.5
130	0x40000000	2.0
131	0x40200000	2.5
132	0xc0200000	-2.5
133	0xc0000000	-2.0
134	0xbfc00000	-1.5
135	0xbf800000	-1.0
136	0xbf000000	-0.5
137	0x00000000	0.0
138	0x3f000000	0.5
139	0x3f800000	1.0
140	0x3fc00000	1.5
141	0x40000000	2.0
142	0x40200000	2.5
143	0xc0200000	-2.5
144	0xc0000000	-2.0
145	0xbfc00000	-1.5
146	0xbf800000	-1.0
147	0xbf000000	-0.5
148	0x00000000	0.0
149	0x3f000000	0.5
150	0x3f800000	1.0
151	0x3fc00000	1.5
152	0x40000000	2.0
153	0x40200000	2.5
154	0xc0200000	-2.5
155	0xc0000000	-2.0
156	0xbfc00000	-1.5
157	0xbf800000	-1.0
158	0xbf000000	-0.5
159	0x00000000	0.0
160	0x3f000000	0.5
161	0x3f800000	1.0
162	0x3fc00000	1.5
163	0x40000000	2.0
164	0x40200000	2.5
165	0xc0200000	-2.5
166	0xc0000000	-2.0
167	0xbfc00000	-1.5
168	0xbf800000	-1.0
169	0xbf000000	-0.5
170	0x00000000	0.0
171	0x3f000000	0.5
172	0x3f800000	1.0
173	0x3fc00000	1.5
174	0x40000000	2.0
175	0x40200000	2.5
176	0xc0200000	-2.5
177	0xc0000000	-2.0
178	0xbfc00000	-1.5
179	0xbf800000	-1.0
180	0xbf000000	-0.5
181	0x00000000	0.0
182	0x3f000000	0.5
183	0x3f800000	1.0
184	0x3fc00000	1.5
185	0x40000000	2.0
186	0x40200000	2.5
187	0xc0200000	-2.5
188	0xc0000000	-2.0
189	0xbfc00000	-1.5
190	0xbf800000	-1.0
191	0xbf000000	-0.5
192	0x00000000	0.0
193	0x3f000000	0.5
194	0x3f800000	1.0
195	0x3fc00000	1.5
196	0x40000000	2.0
197	0x40200000	2.5
198	0xc0200000	-2.5
199	0xc0000000	-2.0
200	0xbfc00000	-1.5
201	0xbf800000	-1.0
202	0xbf000000	-0.5
203	0x00000000	0.0
204	0x3f000000	0.5
205	0x3f800000	1.0
206	0x3fc00000	1.5
207	0x40000000	2.0
208	0x40200000	2.5
209	0xc0200000	-2.5
210	0xc0000000	-2.0
211	0xbfc00000	-1.5
212	0xbf800000	-1.0
213	0xbf000000	-0.5
214	0x00000000	0.0
215	0x3f000000	0.5
216	0x3f800000	1.0
217	0x3fc00000	1.5
218	0x40000000	2.0
219	0x40200000	2.5
220	0xc0200000	-2.5
221	0xc0000000	-2.0
222	0xbfc00000	-1.5
223	0xbf800000	-1.0
224	0xbf000000	-0.5
225	0x00000000	0.0
226	0x3f000000	0.5
227	0x3f800000	1.0
228	0x3fc00000	1.5
229	0x40000000	2.0
230	0x40200000	2.5
231	0xc0200000	-2.5
232	0xc0000000	-2.0
233	0xbfc00000	-1.5
234	0xbf800000	-1.0
235	0xbf000000	-0.5
236	0x00000000	0.0
237	0x3f000000	0.5
238	0x3f800000	1.0
239	0x3fc00000	1.5
240	0x40000000	2.0
241	0x40200000	2.5
242	0xc0200000	-2.5
243	0xc0000000	-2.0
244	0xbfc00000	-1.5
245	0xbf800000	-1.0
246	0xbf000000	-0.5
247	0x00000000	0.0
248	0x3f000000	0.5
249	0x3f800000	1.0
250	0x3fc00000	1.5
251	0x40000000	2.0
252	0x40200000	2.5
253	0xc0200000	-2.5
254	0xc0000000	-2.0
255	0xbfc00000	-1.5
