results/fast_kan/best_model.pt (torch, 501282 bytes, 12 tensors)

layers.0.layernorm.weight f4 [195]
0	0x3ffa0524	1.9532819
1	0x3f1a7019	0.603273
2	0x3f1fdcc4	0.62446237
3	0x3ed8ca0f	0.42341658
4	0x3f0355aa	0.5130259
5	0x3f0dbf3b	0.5536992
6	0x3fb514af	1.4146937
7	0x3f583d51	0.8446856
8	0x3f654783	0.89562243
9	0x3f9104c7	1.1329583
10	0x3fa35c55	1.2762552
11	0x3ef0afec	0.47009218
12	0x3fbc98e0	1.4734154
13	0x3ee969ea	0.4558862
14	0x3f207d34	0.62691045
15	0x3fda2239	1.7041694
16	0x3f53c514	0.8272259
17	0x3ff5755d	1.9176441
18	0x3ee26a6f	0.44221827
19	0x3fa2991e	1.2702978
20	0x3feffeeb	1.874967
21	0x3fb1713b	1.386268
22	0x3f795ddb	0.9740884
23	0x3f79e499	0.9761444
24	0x400c08fe	2.1880488
25	0x40277329	2.6164038
26	0x3fabf184	1.343308
27	0x3fb22899	1.391864
28	0x3fb2296e	1.3918893
29	0x3faa71eb	1.3316015
30	0x3f06c826	0.5264915
31	0x3ff18079	1.8867332
32	0x3f517a24	0.81826997
33	0x401f764f	2.491596
34	0x402b975c	2.6811132
35	0x3f9bcc9c	1.2171817
36	0x3f9416b2	1.1569426
37	0x3f7762f2	0.96635354
38	0x3f2616de	0.6487864
39	0x3ff3b359	1.9039108
40	0x3f1d13e4	0.61358476
41	0x3f1292d8	0.57255316
42	0x3f10799b	0.56435555
43	0x3f0301aa	0.51174414
44	0x3ed041b9	0.40675142
45	0x3fbe93d8	1.4888868
46	0x3f38fe40	0.72262955
47	0x3f6ceefe	0.92552173
48	0x3f61a1c9	0.8813749
49	0x3fa4db31	1.2879392
50	0x3f105de8	0.5639329
51	0x3f9bc14a	1.2168362
52	0x3f00d807	0.5032963
53	0x3ed320a3	0.41235837
54	0x3fa3cedf	1.2797507
55	0x3f67d5d9	0.9056068
56	0x3fcd95db	1.6061357
57	0x3f106ffd	0.5642088
58	0x3fa2bcd6	1.2713878
59	0x3ff63f4a	1.9238064
60	0x3fad33a0	1.353138
61	0x3f3a750c	0.7283485
62	0x3f2965c5	0.66170913
63	0x400367b2	2.053204
64	0x3ff94397	1.9473752
65	0x3f982b54	1.1888223
66	0x3fd6ad24	1.6771588
67	0x3f8e076f	1.1096019
68	0x3faaf6ac	1.3356528
69	0x3f4c04d7	0.79694885
70	0x40183d1b	2.3787296
71	0x3ffc3f00	1.9706726
72	0x400f0d8f	2.2352026
73	0x3fe99331	1.8248044
74	0x3fb70840	1.4299393
75	0x3f87918e	1.0591295
76	0x3f611c42	0.87933743
77	0x3f263406	0.6492313
78	0x3fead340	1.8345718
79	0x3f04f864	0.51941514
80	0x3f07ab36	0.5299562
81	0x3f0ed534	0.5579407
82	0x3edff845	0.43744102
83	0x3f02deaf	0.5112104
84	0x3fa6ecc1	1.3041002
85	0x3f2d021e	0.67581356
86	0x3f856c5a	1.0423691
87	0x3f4dd3d1	0.8040133
88	0x3fab3b59	1.3377486
89	0x3f04bb47	0.5184826
90	0x3f951ebe	1.1650007
91	0x3e8d73d0	0.2762742
92	0x3f15f95b	0.5858361
93	0x3f98deff	1.1943053
94	0x3f2e78f6	0.6815332
95	0x3fdd4f15	1.7289759
96	0x3efb36b8	0.49065185
97	0x3faab3bc	1.33361
98	0x3fef33d8	1.8687696
99	0x3fbc9c3c	1.4735179
100	0x3f45a2b5	0.77201396
101	0x3f3077a3	0.6893255
102	0x3ff61d69	1.9227725
103	0x400ac3ae	2.1681933
104	0x3f61d1ca	0.8821074
105	0x3f8be2d7	1.0928601
106	0x3f8e58ab	1.1120809
107	0x3fb21659	1.391307
108	0x3f3e41fb	0.7431943
109	0x4001a829	2.0258887
110	0x3ff89c75	1.9422747
111	0x40138521	2.3050005
112	0x3fe2c34e	1.7715852
113	0x3fbeeb8f	1.4915637
114	0x3f7f926b	0.9983279
115	0x3fbe09c4	1.484673
116	0x3f297b1d	0.6620348
117	0x3ff84c15	1.9398218
118	0x3ee40a77	0.44539234
119	0x3f045b9e	0.51702297
120	0x3f0be9a5	0.5465339
121	0x3f067c6f	0.5253362
122	0x3ef3e1d8	0.47633243
123	0x3fa9da2c	1.3269706
124	0x3f3cddfe	0.73776233
125	0x3f620584	0.88289666
126	0x3f3b0b88	0.7306447
127	0x3fa67072	1.3003066
128	0x3f070a0a	0.52749693
129	0x3fa8a9a7	1.3176774
130	0x3ef33605	0.4750215
131	0x3f07ed38	0.5309634
132	0x3fa8291a	1.3137543
133	0x3f14d3d3	0.5813572
134	0x3fd58fd4	1.6684518
135	0x3ed0e863	0.40802297
136	0x3fa1f9ea	1.2654393
137	0x40050f9f	2.0790784
138	0x3fce3bd6	1.611201
139	0x3f40780d	0.7518318
140	0x3f32f4bb	0.6990468
141	0x4009499d	2.145118
142	0x4000aa6f	2.0104024
143	0x3f8168e2	1.0110133
144	0x3f973ade	1.181484
145	0x3f94dbb1	1.1629544
146	0x3faf5028	1.3696337
147	0x3f17dfc5	0.5932582
148	0x400d415a	2.2071137
149	0x40060484	2.0940256
150	0x4023cfbb	2.5595539
151	0x4018270e	2.3773837
152	0x3fd7af6a	1.6850407
153	0x3f7568bb	0.9586293
154	0x3ff35fcc	1.901361
155	0x3f24eb9e	0.64422023
156	0x40105329	2.2550757
157	0x3f3462e8	0.7046342
158	0x3ef7704c	0.48327863
159	0x3eebcd5b	0.4605511
160	0x3f0f0abc	0.55875754
161	0x3efd06b8	0.49419188
162	0x3fe7bb35	1.8104006
163	0x3f431df1	0.7621756
164	0x3f5f129f	0.8713779
165	0x3f8da12b	1.106481
166	0x3fa7b723	1.3102764
167	0x3eef40b3	0.4672905
168	0x3fd70e55	1.6801249
169	0x3ee1aa7f	0.4407539
170	0x3f1c6da1	0.6110478
171	0x3fdb44a6	1.7130325
172	0x3f42b3be	0.76055515
173	0x3ff61a76	1.9226825
174	0x3f1156e6	0.5677322
175	0x3fb0ab74	1.3802323
176	0x402c079c	2.6879644
177	0x3fc61902	1.5476382
178	0x3f714752	0.9424945
179	0x3f69f9e8	0.9139695
180	0x4011b109	2.2764304
181	0x400fc5af	2.2464406
182	0x3fb1210d	1.3838211
183	0x3fcfd00e	1.6235368
184	0x3fa6522a	1.2993824
185	0x3fa746ca	1.3068478
186	0x3f4b6fc1	0.794674
187	0x4027e9f0	2.6236534
188	0x3f5203d1	0.82037073
189	0x402d9985	2.712495
190	0x404443ec	3.0666456
191	0x3fbb41de	1.4629476
192	0x3f87fcdd	1.0624043
193	0x3f844ab0	1.0335293
194	0x3efe64bb	0.49686226

layers.0.layernorm.bias f4 [195]
0	0x3e80037f	0.25002667
1	0xbd9c851f	-0.07642578
2	0x3dc10115	0.094240345
3	0x3c91d7ec	0.017803155
4	0x3cf7261a	0.030169535
5	0xbbb6bcf9	-0.0055767265
6	0x3c4d81c2	0.012543144
7	0x3ba0565f	0.0048931087
8	0x3e977f71	0.29589418
9	0x3d828414	0.06372848
10	0x3d997aed	0.07494149
11	0x3de66a69	0.11250765
12	0xbd069d14	-0.032864645
13	0xbd368371	-0.044558946
14	0x3db28a48	0.08717781
15	0x3a640865	0.00086987606
16	0xbd5bcc6f	-0.05366176
17	0x3e7eb785	0.24874695
18	0x3d89d83f	0.06730699
19	0x3dac2860	0.084061384
20	0xbc5752bd	-0.013142285
21	0x3da32504	0.079660445
22	0x3e4a4d9d	0.1975617
23	0x3da8e047	0.082459025
24	0x3ea0f354	0.31435645
25	0x3ee5cf22	0.44884592
26	0x3e072bea	0.13200346
27	0x3ab4bbe8	0.0013788911
28	0x3e221ac3	0.15830521
29	0x3e32ba4d	0.1745388
30	0x3e172576	0.14760384
31	0x3e41e3f7	0.18934618
32	0xbe1d777c	-0.15377611
33	0x3e918ae8	0.2842629
34	0x3e1140e8	0.14184916
35	0x3e15a9b4	0.14615518
36	0x3d809362	0.06278111
37	0xbe898165	-0.26856533
38	0xbdd8011d	-0.10547087
39	0x3e70002c	0.23437566
40	0x3d873246	0.06601386
41	0xbdc06377	-0.093939714
42	0xbd991482	-0.07474615
43	0x3b5c6002	0.003362656
44	0x3ad3eea3	0.0016169142
45	0x3de032f4	0.109472185
46	0xbde575b6	-0.11204092
47	0x3e26f97e	0.16306111
48	0x3c8ad898	0.016948983
49	0x3e468589	0.19386877
50	0x3dba13d4	0.09085813
51	0x3b33bdfe	0.0027426477
52	0x3cd9c8ef	0.02658507
53	0xbdc8d1ca	-0.09805639
54	0x3d76d026	0.0602571
55	0xbd89bd06	-0.067255065
56	0x3e3c19c8	0.1836921
57	0xbc349bf5	-0.011023511
58	0x3c77c184	0.015121821
59	0x3d405985	0.046960372
60	0x3c2ea507	0.010659463
61	0x3e03c773	0.12869053
62	0x3e6a533b	0.22883312
63	0x3eacd285	0.33754364
64	0x3e66f5f5	0.22554763
65	0x3cdee05a	0.027206589
66	0x3df67549	0.12034089
67	0x3e4c3c2c	0.19944829
68	0x3de32ea6	0.11092882
69	0x3d7ff382	0.062488087
70	0x3e20532d	0.15656729
71	0x3eaf136c	0.34194505
72	0xbdc6df43	-0.097105525
73	0x3e3674ce	0.17817995
74	0x3ce4a648	0.02791132
75	0x3df3eb1f	0.1191008
76	0xbd5ae3b1	-0.0534398
77	0xbe51c0f9	-0.2048377
78	0x3e702214	0.234505
79	0x3cc9c554	0.024630226
80	0x3e074f93	0.13213949
81	0xbdb4d7d2	-0.08830227
82	0xb94dffd3	-0.00019645625
83	0xbcb44bd5	-0.022008816
84	0x3ccc5c4b	0.024946352
85	0x3e00e7fd	0.12588497
86	0x3e869c28	0.26291013
87	0x3d9cc1a2	0.0765412
88	0x3e4fe155	0.20300801
89	0x3d8b2e08	0.06795889
90	0x3d70b405	0.05876543
91	0xbd89e1de	-0.06732534
92	0x3db22c0f	0.0869981
93	0x3ca90b7b	0.020635357
94	0x3d737271	0.05943531
95	0x3e085601	0.13314058
96	0xbc9242c3	-0.0178541
97	0x3d334844	0.04377009
98	0x3c9f7f38	0.019469842
99	0x3c322c6e	0.010874851
100	0x3e771a9f	0.24131249
101	0x3e204431	0.15651013
102	0x3e876e25	0.2645122
103	0x3e687e7e	0.22704503
104	0xbd5bc26e	-0.05365222
105	0x3d93c25c	0.072148055
106	0x3d1800f0	0.03711027
107	0x3e07c379	0.1325816
108	0x3bcd5a76	0.0062668873
109	0x3d6a1385	0.05714752
110	0x3e19e4f1	0.1502874
111	0xbd3c27eb	-0.045936506
112	0x3dbbfd46	0.091791674
113	0xbb9dba5a	-0.0048134746
114	0xbbda2dc4	-0.0066582877
115	0x3d076eef	0.03306478
116	0xbdd1059f	-0.1020615
117	0x3e658e33	0.22417526
118	0xbe0ce562	-0.13759378
119	0x3d310579	0.04321811
120	0x3da2bc66	0.079460904
121	0xbd861cf2	-0.0654849
122	0xbd668108	-0.056275398
123	0xbd30816d	-0.04309218
124	0xbdd68573	-0.10474672
125	0xbd19e861	-0.03757513
126	0x3db54879	0.08851714
127	0x3dad40ce	0.08459626
128	0xbd122674	-0.035681203
129	0xbcd4503b	-0.025917163
130	0x3da32772	0.07966508
131	0x3af83bc0	0.0018938705
132	0xbd1c8d67	-0.03822079
133	0x3e2109af	0.1572635
134	0x3d5e27c4	0.054237142
135	0x3df9b534	0.12192765
136	0x3d663c71	0.056209985
137	0x3ca4cb61	0.02011651
138	0x3d92007e	0.07129
139	0x3ea30b8b	0.31844744
140	0x3e0467cc	0.1293022
141	0x3e5d9b8d	0.21641369
142	0x3e4207c0	0.18948269
143	0x3e378b3c	0.17924207
144	0xbd845486	-0.06461434
145	0x3e0b725a	0.1361784
146	0x3e4144e4	0.18873936
147	0x3daefb7f	0.08544063
148	0x3e107316	0.14106402
149	0x3e69fca2	0.22850278
150	0xbc56ba46	-0.0131059345
151	0x3dafa292	0.0857593
152	0x3dcb7ae6	0.099355504
153	0xbdbbf3c1	-0.09177352
154	0x3d4a698b	0.04941706
155	0xbd6feeea	-0.058577456
156	0x3e16b23d	0.1471643
157	0xbe8cbfe2	-0.27490145
158	0x3e0fab63	0.14030223
159	0xbe493d24	-0.1965223
160	0xbe1fddb8	-0.15611923
161	0x3db643ee	0.08899675
162	0x3d0e5b41	0.034754995
163	0x34890b7a	2.552659e-07
164	0xb88146cc	-6.164386e-05
165	0x3d9eba3e	0.07750367
166	0x3e4b81f2	0.19873789
167	0xbe0476c4	-0.1293593
168	0xbda97e77	-0.082760744
169	0x3c8d8ebf	0.01727998
170	0x3d8a39e0	0.0674932
171	0xbcc9d637	-0.024638278
172	0xbd000235	-0.031252105
173	0x3e1dd035	0.15411456
174	0xbd822a1c	-0.06355688
175	0x3e4f6639	0.20253839
176	0xbe00d6bd	-0.12581916
177	0x3d4dd5c4	0.05025269
178	0x3dca374f	0.098738305
179	0x3e03b56b	0.12862174
180	0x3eb2c918	0.34919047
181	0x3edd7eff	0.43260953
182	0x3dbca076	0.09210293
183	0xbd1e81b8	-0.03869793
184	0x3e1f6dff	0.15569304
185	0x3e65ac19	0.22428931
186	0xbdd16646	-0.10224585
187	0x3e5b9d29	0.2144667
188	0xbdc3b9a6	-0.09556894
189	0x3df427b3	0.119216345
190	0x3e193c2a	0.14964357
191	0x3d2627ef	0.040565427
192	0x3dfdbc41	0.12389422
193	0xbe21d6ec	-0.15804642
194	0x3e087eba	0.13329592

layers.0.rbf.grid f4 [5]
0	0xbfede3c2	-1.8585131
1	0xbf24e980	-0.6441879
2	0x3f11f480	0.570137
3	0x3fe46942	1.7844622
4	0x403fec22	2.9987874

layers.0.spline_linear.weight f4 [92, 975]
0	0x3d8fef70	0.07028091
1	0x3d0283ef	0.031864103
2	0x3e19d4fa	0.1502265
3	0x3e20ca6c	0.15702218
4	0x3e0e6d92	0.13908985
5	0xbe1f3aa0	-0.15549707
6	0xbd82f3cd	-0.063941576
7	0xbda0442f	-0.07825505
8	0xbd8cbcac	-0.06871924
9	0x3ba22d7a	0.004949269
10	0xbd0dca4c	-0.034616753
11	0x3bf5bd7b	0.0074993945
12	0x3c9d0177	0.019165738
13	0x3d461c2a	0.048366703
14	0x3c2d38d2	0.010572629
15	0xbc0c9766	-0.008581018
16	0xbda7d377	-0.081946306
17	0x3c7747b0	0.015092775
18	0x3c88e1a8	0.016709164
19	0x3e609871	0.21933152
20	0xbcc9e34b	-0.024644515
21	0x3d3542fb	0.04425333
22	0xbd1e9ba9	-0.038722668
23	0xbd0b2b6c	-0.033976957
24	0x3dbe33d8	0.09287232
25	0xbd0448d6	-0.032296024
26	0xbd25cec8	-0.040480405
27	0xbc57af6f	-0.013164385
28	0xbda8ad49	-0.082361765
29	0x3e790b4d	0.24320717
30	0xbe525181	-0.20538904
31	0xbcdd65fc	-0.027026169
32	0xbdf29ee6	-0.11846714
33	0xbca68431	-0.020326706
34	0xbe3a483b	-0.18191616
35	0xbdc120dd	-0.09430096
36	0xbb895d85	-0.0041920566
37	0xbde3a1a3	-0.11114814
38	0x3d16d6c9	0.03682593
39	0xbdca3406	-0.09873204
40	0x3e430eac	0.19048566
41	0x3c9e8921	0.019352498
42	0x3a9a5351	0.0011774098
43	0xbda50114	-0.08056846
44	0x3dac4c27	0.084129624
45	0xbe1fba78	-0.15598476
46	0xbdcbde93	-0.09954562
47	0x3d6d600d	0.05795293
48	0xbd90230d	-0.070379354
49	0x3ea53acf	0.3227143
50	0xbf5e2b2e	-0.86784637
51	0xbe7b26e7	-0.24526559
52	0x3e90b204	0.28260815
53	0x3f1baaf1	0.6080771
54	0x3f6d32a4	0.92655396
55	0xbc4d6154	-0.012535412
56	0x3d9d7a70	0.07689369
57	0x3d7be282	0.06149531
58	0xbcbb621c	-0.02287393
59	0xbc4a9155	-0.012363751
60	0x3e9b9a2f	0.3039107
61	0x3e268c43	0.16264443
62	0x3df0ba0d	0.11754236
63	0xbe3146ef	-0.17312215
64	0xbdcd2dab	-0.10018476
65	0x3c92f62c	0.01793965
66	0xbdf71196	-0.12063901
67	0x3cbfbe88	0.023406282
68	0xbd593922	-0.053033
69	0x3d694019	0.056945894
70	0xbe6d296f	-0.23160337
71	0x3d74fc41	0.05981088
72	0xbc9794e9	-0.018503623
73	0x3da11af4	0.07866469
74	0xbe51a429	-0.20472778
75	0xbd814564	-0.06312063
76	0x3dc67353	0.09689965
77	0xbd776eb4	-0.06040831
78	0xbd2d7c83	-0.04235507
79	0xbe8486a1	-0.25883964
80	0xbdcd9030	-0.10037267
81	0x3d84fd69	0.06493647
82	0xbd0cf37a	-0.034411885
83	0x3d182c44	0.03715159
84	0x3c512f5d	0.01276764
85	0x3e910ee9	0.28331688
86	0x3ef1879c	0.47173774
87	0xbe2454f0	-0.16048026
88	0xbede9020	-0.43469334
89	0xbe630aaa	-0.22172037
90	0x3d31b94b	0.0433896
91	0xbdc0df0b	-0.09417542
92	0xbe4812b4	-0.19538385
93	0xbe34f4c0	-0.1767149
94	0xbe8db491	-0.27676824
95	0xbeaae1dc	-0.33375442
96	0xbe5b2d82	-0.21404079
97	0x3e03f14f	0.1288502
98	0x3e246a83	0.16056256
99	0x3ecbc8ee	0.39801735
100	0xbd72e1ce	-0.059297375
101	0x3c048cea	0.008090237
102	0xbdb8f1f2	-0.090305224
103	0xbe24700b	-0.16058366
104	0xbe06a78d	-0.13149853
105	0xbe9cc7e9	-0.3062127
106	0xbd36cd46	-0.044629358
107	0xbdc2d90f	-0.09514057
108	0xbcd01271	-0.025399419
109	0xbde0fd24	-0.10985783
110	0xbe5b27cd	-0.21401902
111	0xbd9a05a3	-0.07520606
112	0xbcaa1105	-0.020760069
113	0x3e5b1cce	0.21397707
114	0x3ed4c035	0.41552892
115	0xbe7895e7	-0.24275933
116	0x3d0551be	0.03254866
117	0x3e536903	0.20645528
118	0x3df7d139	0.12100453
119	0x3de88cc8	0.11354977
120	0xbdb8f90c	-0.09031877
121	0x3d7f9214	0.06239517
122	0xbdf0150b	-0.11722764
123	0x3e059d27	0.1304823
124	0xbcc04525	-0.02347047
125	0x3e9561a7	0.29176065
126	0x3daa4405	0.08313755
127	0xbdcaf646	-0.09910254
128	0xbf32cb9f	-0.6984195
129	0xbf24fcc3	-0.64448184
130	0xbe183579	-0.14864148
131	0xbd664eb5	-0.056227405
132	0xbcaf8afb	-0.021428576
133	0x3e143ff5	0.14477523
134	0x3e311172	0.17291811
135	0x3ebea88a	0.3723796
136	0x3d413583	0.047170173
137	0xbd9bdc85	-0.0761042
138	0xbeb70db7	-0.3575265
139	0x3c67ed37	0.0141556775
140	0xbe1ba4f4	-0.15199643
141	0x3dff09b0	0.124530196
142	0xbd9dd3c6	-0.07706408
143	0x3e7a1a5f	0.24424122
144	0xbc90f56c	-0.017695151
145	0xbcc3d527	-0.02390535
146	0x3cf08f6f	0.02936527
147	0xbe573e05	-0.21019752
148	0x3e3f4b48	0.18681061
149	0x3eee3468	0.46524358
150	0xbd1fb34a	-0.038989343
151	0xbd5e275c	-0.054236755
152	0xbdaacdff	-0.08340072
153	0x3cb11c09	0.021619814
154	0xbda99bdf	-0.08281683
155	0xbde044b2	-0.109506026
156	0x3d01fe30	0.031736553
157	0x3de18897	0.110123806
158	0x3dae2c6d	0.08504567
159	0xbd3ac39a	-0.045596696
160	0x3b507888	0.0031810123
161	0x3d87fd08	0.06640059
162	0x3e22785f	0.1586623
163	0x3e338c3a	0.17533961
164	0x3f4aa959	0.79164654
165	0xbe708b3b	-0.23490612
166	0x3e0676a1	0.13131191
167	0x3da6263b	0.08112761
168	0x3ddec32f	0.10877072
169	0x3d651510	0.05592829
170	0x3c225f6d	0.009910447
171	0xbe19e351	-0.1502812
172	0xbd96d501	-0.07364846
173	0xbb8d0070	-0.0043030307
174	0xbe9f30ec	-0.31092012
175	0xbc907199	-0.017632293
176	0x3e18b5b8	0.1491307
177	0x3d8eeef0	0.069791675
178	0x3d37d20e	0.044878058
179	0xbe825c5b	-0.25461087
180	0xbcce5470	-0.025186747
181	0xbcdd50cc	-0.027016066
182	0x3db25c6f	0.087090366
183	0xbddb1efd	-0.1069927
184	0xbca3e69d	-0.020007426
185	0xbdf4cfb7	-0.11953681
186	0x3e74d6c9	0.23910059
187	0x3d7cf627	0.061758187
188	0x3e688b5d	0.22709413
189	0x3cc899d2	0.02448741
190	0x3aab007d	0.001304641
191	0x3d5f7974	0.054559186
192	0xbd804e5e	-0.06264947
193	0x3d59d44a	0.05318097
194	0x3c72a861	0.0148106525
195	0xbd9a9e1c	-0.07549688
196	0xbe406869	-0.1878983
197	0xbd977e3a	-0.07397123
198	0x3db49439	0.08817334
199	0x3d08b22c	0.033373043
200	0xbc567393	-0.0130890785
201	0xbcdc09e8	-0.026860192
202	0xbc5e063b	-0.01355129
203	0xbd470a19	-0.048593614
204	0x3d8e0cbf	0.06936025
205	0xbd98da0c	-0.07463464
206	0x3d6fed7c	0.058576092
207	0x3ba9afab	0.005178412
208	0x3d1184bd	0.03552698
209	0xbd8050da	-0.06265421
210	0xbd4cc701	-0.049994472
211	0x3d162eec	0.036665842
212	0x3d54dce8	0.051968485
213	0x3d9c92fc	0.076452225
214	0xbdeb7a7d	-0.11497972
215	0xbd71f165	-0.059068102
216	0x3d0ca65e	0.034338348
217	0xbcbf4fa2	-0.023353402
218	0x3d103f11	0.035216395
219	0x3e18e3f6	0.1493071
220	0xbd98a82a	-0.0745395
221	0x3d079597	0.033101644
222	0xbc3b1863	-0.011419388
223	0x3c314554	0.010819752
224	0x3e9bc377	0.30422565
225	0x3e13cd7d	0.14433856
226	0xbbe71db5	-0.007053102
227	0xbda650ac	-0.08120856
228	0xbe01479b	-0.12624972
229	0xbe07d242	-0.132638
230	0x3cbeadba	0.023276199
231	0xbbcfae85	-0.006337943
232	0x3d28ff68	0.0412592
233	0x3d662906	0.056191467
234	0x3e10ec72	0.14152697
235	0x3daa0792	0.08302225
236	0x3d79bce8	0.06097117
237	0xbd281f5d	-0.041045535
238	0x3d0b0ef0	0.033949792
239	0x3e94b59b	0.29044804
240	0xbd829952	-0.063769
241	0xbc35741d	-0.011075047
242	0x3dc111f7	0.09427255
243	0xbcfd4715	-0.030917684
244	0x3e9daaab	0.30794272
245	0xbf6e9a9c	-0.93204665
246	0xbe93fda4	-0.2890445
247	0x3e314820	0.1731267
248	0x3f0c44ad	0.5479229
249	0x3f4d99b0	0.80312634
250	0xbd59ddf0	-0.05319017
251	0x3c399d6f	0.011329039
252	0xbcba312e	-0.022728529
253	0x3c6c9211	0.014439122
254	0xbd83edd1	-0.06441844
255	0x3e4affbb	0.19824116

layers.0.base_linear.weight f4 [92, 195]
0	0x3d6bda9e	0.057581536
1	0xbd12cea2	-0.03584159
2	0x3b8789a8	0.004136283
3	0xbd70f5d1	-0.05882818
4	0x3cfbf35b	0.03075569
5	0x3d64832d	0.05578916
6	0xbe61352c	-0.2199294
7	0x3ce27b32	0.027646635
8	0xbdeed965	-0.116625585
9	0x3e0a47b8	0.13503921
10	0x3f62fa02	0.8866273
11	0x3df3ea1c	0.11909887
12	0xbe0159ef	-0.12631963
13	0xbd1cc062	-0.038269408
14	0xbd9313dd	-0.07181523
15	0xbcfc72a6	-0.030816387
16	0xbd2d0eca	-0.042250432
17	0xbf77e9e4	-0.96841264
18	0xbe174bf3	-0.14775066
19	0x3d81fc7f	0.06346988
20	0xbe28869e	-0.16457602
21	0xbe133735	-0.14376529
22	0x3e8c65ac	0.2742132
23	0x3e0b9bb7	0.13633619
24	0xbc99cc5a	-0.0187742
25	0xbed328c0	-0.41242027
26	0xbe227c30	-0.15867686
27	0xbf0881cd	-0.5332306
28	0x3e604ca4	0.21904236
29	0xbaaa33da	-0.0012985424
30	0x3c513bc5	0.012770598
31	0xbf00e3aa	-0.5034739
32	0xbd2a20c1	-0.041535143
33	0xbee0f153	-0.43934116
34	0xbfa3d33c	-1.2798839
35	0x3db58b5e	0.08864473
36	0xbe358083	-0.17724805
37	0xbdb9f265	-0.09079436
38	0xbd7165fd	-0.058935154
39	0xbd4222a7	-0.04739633
40	0xbb330e4f	-0.002732176
41	0x3ce8716c	0.028374396
42	0xbc0e8369	-0.008698323
43	0xbd0ec8c4	-0.034859434
44	0x3db9d288	0.09073359
45	0xbd9da6d4	-0.076978356
46	0xbcca8431	-0.024721237
47	0xbd284133	-0.041077804
48	0x3d33f543	0.04393507
49	0x3f54a95a	0.8307091
50	0x3b9781d0	0.004623629
51	0xbdb2103f	-0.08694505
52	0xbaf6db82	-0.0018833729
53	0xbc22d5b5	-0.009938647
54	0xbe0ebbcd	-0.13938828
55	0xbd74308e	-0.059616618
56	0xbfc26b78	-1.5189047
57	0xbe3d6b2a	-0.18497911
58	0x3ea5d63b	0.32390007
59	0xbd9f8f85	-0.07791046
60	0x3de19154	0.11014047
61	0x3e0030f6	0.12518677
62	0x3da8a039	0.08233685
63	0xbdcd1342	-0.10013439
64	0xbeb16f17	-0.34655067
65	0xbe2e257e	-0.1700649
66	0xbe3dcc47	-0.18534957
67	0xbdb6bdb7	-0.08922904
68	0xbc8903e0	-0.01672548
69	0xbcced988	-0.025250211
70	0xbf1e9ef5	-0.619613
71	0x3cfa1ad1	0.030530365
72	0x3d038222	0.032106526
73	0xbe286549	-0.16444887
74	0x3e105121	0.14093448
75	0xbdf67b33	-0.12035217
76	0x3d362189	0.044465575
77	0xbc02143b	-0.007939394
78	0xbd0cd8c5	-0.034386415
79	0xb89cf884	-7.484949e-05
80	0xbd02c93e	-0.0319302
81	0x3c2d8ebc	0.010593113
82	0x3cb71a21	0.022351326
83	0x3bb35c44	0.0054736454
84	0x3c35b649	0.011090823
85	0x3cd69778	0.026195273
86	0xbdc828ef	-0.097734325
87	0x3ca94035	0.0206605
88	0x3f4d4ca2	0.8019506
89	0xbcdb5158	-0.026772186
90	0xbdb98985	-0.09059433
91	0xbb4cdc8b	-0.0031259384
92	0xbe417e4c	-0.18895835
93	0xbbb3f074	-0.0054913107
94	0xbc00710e	-0.007839454
95	0xbfc3a8c6	-1.528588
96	0xbdb84a5d	-0.08998559
97	0x3e0424a2	0.129046
98	0xbd3d3982	-0.04619742
99	0x3d43366c	0.047659323
100	0x3dd38527	0.10328131
101	0x3ccc911f	0.024971543
102	0xbdd55297	-0.104161434
103	0xbed2e42d	-0.4118971
104	0xbdfed130	-0.12442243
105	0xbe9790e4	-0.2960273
106	0x3e455204	0.19269568
107	0xbd8314df	-0.06400465
108	0x3cb45f10	0.022017986
109	0xbed445e7	-0.4145958
110	0x3caceabb	0.021108022
111	0xbea9a8d8	-0.3313663
112	0xbe1f24b7	-0.1554135
113	0x3d7efa8b	0.062250655
114	0xbe08cc3e	-0.13359162
115	0x3d8e08b5	0.069352545
116	0xbd5ac3a7	-0.053409245
117	0xbde5e19f	-0.112246744
118	0x3b5759c7	0.0032859908
119	0x3ceb1d4a	0.02870049
120	0x3d445c83	0.04793979
121	0x3d266688	0.040625125
122	0x3c449605	0.011998658
123	0xbd493dcf	-0.04913121
124	0x3ca44925	0.02005441
125	0xbe49f9cd	-0.19724198
126	0xbdd27c44	-0.10277608
127	0x3f22173d	0.6331671
128	0x3c8cbebc	0.017180793
129	0xbd562bb5	-0.052287776
130	0xbc6945a6	-0.014237797
131	0xbdeeb508	-0.11655623
132	0xbcc67199	-0.02422409
133	0x3b9bc998	0.0047542565
134	0xbfa5e45e	-1.2960317
135	0xbbe70457	-0.007050078
136	0x3e5b0a7e	0.21390721
137	0xbd5289ea	-0.051401056
138	0xbd4a7517	-0.04942807
139	0x3e0aabed	0.13542147
140	0x3b1e9cdc	0.0024202382
141	0xbd9fe73a	-0.07807775
142	0xbea0643e	-0.3132648
143	0xbdafa427	-0.085762314
144	0xbe853d2e	-0.2602324
145	0x3e13184a	0.14364734
146	0xbdb83db3	-0.08996143
147	0x3c53a6a2	0.012918146
148	0xbe41d29c	-0.18927997
149	0xbd0cd45c	-0.03438221
150	0xbed95324	-0.42446244
151	0xbdf3738a	-0.11887272
152	0x3dfe2505	0.12409405
153	0xbdd3e4fb	-0.10346409
154	0x3c9a9c02	0.018873218
155	0xbcb6874f	-0.022281317
156	0xbe190059	-0.14941539
157	0x3c8b5f86	0.017013323
158	0x3d47631f	0.048678514
159	0x3d50d42b	0.05098359
160	0x3d8210e8	0.06350881
161	0x3d500839	0.05078909
162	0xbdd1762e	-0.10227619
163	0xbacf4bf4	-0.0015815482
164	0xbde23aa7	-0.11046343
165	0xbd968a50	-0.073506
166	0x3e8542f8	0.26027656
167	0x3d448c4e	0.047985367
168	0x3d47aa8b	0.048746627
169	0x3c115615	0.008870621
170	0xbcf2518f	-0.029579906
171	0x3c2f9fc9	0.010719248
172	0xbd1940a3	-0.037415158
173	0xbf493f8b	-0.78612584
174	0xbcc60904	-0.02417422
175	0x3e619a2e	0.22031471
176	0x3e002332	0.12513426
177	0xbe1c3b76	-0.15257058
178	0xbb15cf44	-0.0022859136
179	0xbdaa6eb1	-0.08321894
180	0x3d13951a	0.036030866
181	0xbe3d92c1	-0.18513013
182	0xbe02a4c9	-0.12758173
183	0xbf13afd1	-0.5769015
184	0x3e303b3c	0.17210096
185	0xbd941f5a	-0.07232542
186	0x3ce0d115	0.027443448
187	0xbecff75e	-0.40618414
188	0xbeb6c64d	-0.35698166
189	0xbf85e149	-1.0459377
190	0x3ef7b084	0.48376858
191	0x3e427a77	0.18992029
192	0xbe4c4613	-0.19948606
193	0xbdf9b70f	-0.12193119
194	0x3d6eeebf	0.058333155
195	0x3e1188c2	0.14212325
196	0x3dc4c86c	0.0960854
197	0x3ca60402	0.020265583
198	0xbd411f47	-0.04714897
199	0x38066a4b	3.2047083e-05
200	0xbd3c27d1	-0.04593641
201	0xbdd997f3	-0.10624685
202	0xbd154dc5	-0.03645112
203	0x3eb38368	0.35061193
204	0x3c280530	0.010255143
205	0x3d54d21a	0.05195818
206	0xbd5081aa	-0.050904907
207	0xbcf2418c	-0.02957227
208	0x3d8baaab	0.06819662
209	0xbdc96037	-0.09832805
210	0xbd0465ad	-0.032323528
211	0x3e0833ee	0.1330106
212	0x3df9e1d2	0.12201275
213	0x3b1b764e	0.0023721638
214	0xbd3871ef	-0.04503053
215	0x3e02a3f9	0.12757863
216	0x3e80fc25	0.2519237
217	0x3d32d26e	0.043657713
218	0x3e777e01	0.2416916
219	0x3bb01239	0.005373266
220	0x3ec15638	0.37761092
221	0x3d6a3296	0.05717715
222	0x3c377fa4	0.0111998655
223	0xbe316833	-0.17324905
224	0xbd043a18	-0.032281965
225	0x3df886e4	0.12135103
226	0x3e91c054	0.28467047
227	0x3e11e487	0.14247333
228	0xbde2d606	-0.11075978
229	0x3e71e5c8	0.23622811
230	0x3d09d4ca	0.033650197
231	0x3e780a75	0.24222739
232	0x3d169974	0.036767438
233	0x3c8977df	0.016780792
234	0x3d7502e6	0.059817217
235	0x3d8b3a42	0.06798221
236	0x3e09589d	0.1341271
237	0xbd81b9a1	-0.06334234
238	0xbcc5b47c	-0.024133913
239	0x3d32f812	0.04369361
240	0xbe5071d6	-0.20355925
241	0xbc471dc5	-0.012153094
242	0x3e28192b	0.16415851
243	0x3c9f3d5d	0.01943844
244	0x3ded0854	0.11573854
245	0xbe2dc6e4	-0.16970402
246	0xbe0592e5	-0.13044317
247	0xbb228669	-0.0024799353
248	0xbeb177e6	-0.34661788
249	0xbd9b1042	-0.0757146
250	0x3dd74ef8	0.10513109
251	0x3d500d36	0.05079385
252	0x3cc3dc9d	0.023908908
253	0xbd11617a	-0.03549335
254	0x3e1ba742	0.15200523
255	0x3e5b7cfc	0.21434397

layers.0.base_linear.bias f4 [92]
0	0xbd55ddbb	-0.05221341
1	0x3d871a25	0.065967835
2	0xbd8e823a	-0.069584325
3	0x3c0a3ab1	0.008436845
4	0x3c5afe34	0.013366271
5	0xb992f4cf	-0.00028029687
6	0x3d219899	0.03945217
7	0xbd062622	-0.03275121
8	0xbd958926	-0.073015496
9	0xbd8aaa4b	-0.06770762
10	0x3d4e3756	0.05034574
11	0xbc9b1e86	-0.018935453
12	0x3b6b68fb	0.0035920728
13	0xbd853d1a	-0.06505795
14	0x3a663806	0.0008782152
15	0x3ce1fdd7	0.02758686
16	0x3d9b90ae	0.07595955
17	0xbd96df4d	-0.0736681
18	0xbcdabcdd	-0.026701385
19	0x3d7e11ac	0.062028572
20	0x3d1b21b5	0.037873942
21	0x3c8da800	0.017292023
22	0x3d5a754e	0.053334527
23	0x3d51d2ee	0.05122655
24	0xbbe43ef3	-0.006965512
25	0xbc8669d0	-0.016407877
26	0x3b0c1205	0.0021373045
27	0xbd4fbb79	-0.050715897
28	0x3d2ccaf0	0.042185724
29	0x3d6f1fd9	0.05837998
30	0xbd8fc522	-0.07020022
31	0x3c03ab58	0.008036457
32	0xbc74d888	-0.014944203
33	0x3ccd9d51	0.025099428
34	0x3c827315	0.015924016
35	0xbd82119e	-0.063510165
36	0xbd10a479	-0.035313103
37	0x3caf300d	0.021385217
38	0xbcc45370	-0.023965567
39	0xbcc1e7f9	-0.023670183
40	0xbd030698	-0.03198871
41	0xbbeecc47	-0.0072875354
42	0xbbef90d1	-0.0073109646
43	0x3d7480bc	0.059693083
44	0xbb968c79	-0.0045943824
45	0xbd89cd65	-0.06728629
46	0x3d14ac0e	0.036296897
47	0xbd17ee12	-0.037092276
48	0xbd8ffe37	-0.070309095
49	0x3d01c54c	0.031682298
50	0x3cc0a866	0.023517799
51	0xbc49b975	-0.012312283
52	0x3d6cf84a	0.057853974
53	0xbd79bb67	-0.060969736
54	0x3d9d2d8a	0.076747015
55	0xbd6a9068	-0.057266623
56	0x3c3cfa06	0.01153422
57	0x3d48b015	0.04899605
58	0x3b9a62a4	0.004711466
59	0x3c826190	0.015915662
60	0xbca1f5c0	-0.019770503
61	0xbd11a515	-0.035557825
62	0x3d2408bb	0.04004739
63	0xbcb94a8b	-0.022618553
64	0x3d1b6f57	0.03794798
65	0x3ca402c6	0.020020854
66	0xbd7ea043	-0.062164556
67	0xbd000bcb	-0.031261247
68	0x3d4e65a3	0.050389897
69	0x3d7d821d	0.061891664
70	0x39e89418	0.00044360827
71	0xbc5f73a9	-0.013638415
72	0x3d1904c5	0.037358064
73	0x3d94a89e	0.07258724
74	0xbd30e90c	-0.043191
75	0x3d9b54f8	0.07584566
76	0x3cfabba3	0.03060705
77	0x3c1bd5ff	0.00951147
78	0x3b4959cc	0.003072369
79	0x3b29a970	0.0025888346
80	0x3ce2edfe	0.027701374
81	0x3a5bf9ec	0.0008391428
82	0x3c156e25	0.009120499
83	0x3c69cf33	0.014270592
84	0xbd8a4e2d	-0.06753192
85	0xbd111dc0	-0.035428762
86	0x3d7fe9af	0.062478717
87	0x3c833581	0.016016724
88	0xbd08eace	-0.033427052
89	0x3d1d9ade	0.03847777
90	0xbd8c3a00	-0.06847
91	0xbcf10e2b	-0.029425701

layers.1.layernorm.weight f4 [92]
0	0x3f971231	1.1802427
1	0x3fa92268	1.3213625
2	0x3f8c0483	1.0938877
3	0x3f99c73b	1.2013925
4	0x3fb9f11b	1.4526705
5	0x3f8c815c	1.0976977
6	0x3f78559e	0.9700564
7	0x3fab6f28	1.3393297
8	0x3f952fee	1.1655252
9	0x3f81b45f	1.013317
10	0x3f8e63c1	1.1124192
11	0x3fa3b5e4	1.2789884
12	0x3fca7ec0	1.5819931
13	0x3f8c8ff2	1.0981429
14	0x3f9a9fe9	1.2080051
15	0x3fb8b22a	1.4429371
16	0x3fc4f36d	1.5386788
17	0x3fb24044	1.3925862
18	0x3f95b159	1.1694747
19	0x3f997b05	1.1990668
20	0x3faefc3b	1.3670725
21	0x3fa0cbe4	1.2562222
22	0x3f58186d	0.8441227
23	0x3f881530	1.0631466
24	0x3f9ce0bf	1.2256087
25	0x3fa211bf	1.2661666
26	0x3fc427f1	1.5324689
27	0x3fd46883	1.6594394
28	0x3f94c14f	1.1621493
29	0x3fb89558	1.4420576
30	0x3f966034	1.1748109
31	0x3fa706d3	1.3048958
32	0x3fdeae4b	1.739694
33	0x3f999bb8	1.2000647
34	0x3fcf5c40	1.6200027
35	0x3f75982b	0.95935315
36	0x3fa52b18	1.2903776
37	0x3f94189b	1.1570009
38	0x3f9608a8	1.1721392
39	0x3f9d3cba	1.2284157
40	0x3f821e1a	1.0165436
41	0x3fa2d1e2	1.2720301
42	0x3f920320	1.1407204
43	0x3fb57235	1.4175478
44	0x3fbd66d1	1.4797002
45	0x3f885908	1.065217
46	0x3f8ae1fa	1.0850213
47	0x3fae524c	1.3618865
48	0x3f9f42e1	1.2442285
49	0x3ff5d67b	1.9206079
50	0x3fc5f2da	1.5464737
51	0x3fd32ff8	1.6499014
52	0x3fb9d7f8	1.4519033
53	0x3faf3239	1.3687202
54	0x3f94213e	1.1572645
55	0x3f88659e	1.0656011
56	0x3fb52725	1.4152571
57	0x3fc5cf1d	1.5453831
58	0x3fba3f1b	1.4550508
59	0x3fac3a92	1.3455374
60	0x3f81156f	1.0084666
61	0x3fb6355a	1.4235032
62	0x3fd2284f	1.6418551
63	0x3fa087a0	1.254139
64	0x3f9bd013	1.2172874
65	0x3fb58c4d	1.4183441
66	0x3f9caebe	1.2240827
67	0x3fc50c13	1.539431
68	0x402c41d1	2.691517
69	0x3f8139cb	1.0095762
70	0x3fa4f029	1.2885791
71	0x3f852f1e	1.0405004
72	0x3fba9247	1.457589
73	0x3fb33ed7	1.4003552
74	0x3fade7d8	1.3586378
75	0x3fcae659	1.5851547
76	0x401cb105	2.4483044
77	0x3f9b8563	1.2150081
78	0x3f8e682d	1.1125542
79	0x3f992925	1.1965681
80	0x3f856d00	1.0423889
81	0x3fbb595c	1.4636645
82	0x3fa70e89	1.3051311
83	0x3fa3e675	1.2804705
84	0x402ee67e	2.7328181
85	0x3faa2d4f	1.3295077
86	0x3faaf225	1.3355147
87	0x3fbbd5db	1.4674639
88	0x3f9fb17b	1.2476038
89	0x3fa63449	1.2984706
90	0x4009754a	2.1477838
91	0x3fa5966a	1.2936528

layers.1.layernorm.bias f4 [92]
0	0xbda32122	-0.07965304
1	0x3d067608	0.032827407
2	0x3d84476e	0.06458937
3	0xbbca30a6	-0.00617035
4	0x3eb40ac6	0.3516447
5	0x3e1ac8f0	0.15115714
6	0x3da87347	0.082251124
7	0xbd21da4b	-0.03951482
8	0x3c61b352	0.013775663
9	0xbe16a990	-0.1471312
10	0xbdb0be6f	-0.08630072
11	0xbd99e808	-0.075149596
12	0xbddeac84	-0.108727485
13	0x3d86dcf9	0.06585116
14	0x3d4d540f	0.050128993
15	0x3e35aaba	0.17740908
16	0x3dfb212d	0.12262187
17	0x3d44b35a	0.048022605
18	0x3e364830	0.17800975
19	0x3e2b1483	0.16707043
20	0x3e01f708	0.12691891
21	0xbdb186f0	-0.086683154
22	0xbdc3fd76	-0.09569828
23	0xbceef876	-0.02917121
24	0xbbfacb28	-0.0076536126
25	0x3dda76d3	0.10667195
26	0xbd8de0a1	-0.0692761
27	0xbe042aa3	-0.1290689
28	0x3dcd3b88	0.1002112
29	0x3dde092f	0.108415954
30	0x3ab4ad67	0.0013784588
31	0x3e226605	0.1585923
32	0x3dd2e97e	0.10298441
33	0x3e3636a8	0.17794287
34	0x3e0c7100	0.13714981
35	0x3b97df5d	0.0046347813
36	0xbdf1e700	-0.11811638
37	0xbddb2cf2	-0.10701932
38	0x3e006561	0.12538673
39	0xbc322c39	-0.010874801
40	0x3e26c09b	0.1628441
41	0x3e91e072	0.2849155
42	0x3cb85ea6	0.02250607
43	0x3db2a18f	0.08722221
44	0x3d0ea102	0.034821518
45	0x3e136931	0.14395596
46	0xbd8e62ea	-0.0695246
47	0xbd89501d	-0.067047335
48	0x3d389297	0.045061674
49	0x3d43f2a4	0.047838822
50	0x3df848ba	0.121232465
51	0x3d2b1dfc	0.041776642
52	0xbdd1a292	-0.10236086
53	0xbeabf418	-0.33584666
54	0x3e472f61	0.19451667
55	0x3e549a22	0.20761922
56	0x3c810d13	0.015753305
57	0x3e48ee67	0.19622193
58	0x3db7d3a4	0.08975914
59	0xbe157d5f	-0.14598607
60	0x3df8ca82	0.12148
61	0xbe3f38d9	-0.1867403
62	0x3eab314f	0.33436057
63	0x3dd2e2fa	0.102971986
64	0xbcbae319	-0.022813367
65	0xbc6d504c	-0.014484476
66	0x3c2e6a2a	0.010645429
67	0x3e23de2b	0.16002719
68	0xbe38d34f	-0.18049358
69	0xbc99a401	-0.018754961
70	0xbe20d21c	-0.1570515
71	0x3e1ae213	0.15125303
72	0x3dba1655	0.09086291
73	0x3dacfcf0	0.084466815
74	0x3d4e529f	0.050371762
75	0xbea9767d	-0.33098212
76	0xbdd4aa9b	-0.10384103
77	0x3dd50a4b	0.10402354
78	0xbd3785da	-0.044805385
79	0x3dedc7b7	0.11610358
80	0xbe07c453	-0.13258485
81	0x3e1b7f7f	0.15185355
82	0x3da750a5	0.081696786
83	0x3c835262	0.016030494
84	0xbdcbf2b9	-0.09958405
85	0xbcd24196	-0.02566604
86	0x3dfc855b	0.12330123
87	0xbd82fa28	-0.0639537
88	0x3e9fb36b	0.31191573
89	0xbdc8dc9c	-0.09807703
90	0xbdcfb3e8	-0.10141736
91	0xbd1799d5	-0.03701194

layers.1.rbf.grid f4 [5]
0	0xbfede3c2	-1.8585131
1	0xbf24e980	-0.6441879
2	0x3f11f480	0.570137
3	0x3fe46942	1.7844622
4	0x403fec22	2.9987874

layers.1.spline_linear.weight f4 [29, 460]
0	0xbe55a9b8	-0.20865524
1	0x3ec0cd23	0.37656507
2	0x3eba56f8	0.36394477
3	0x3e675495	0.22590859
4	0xbf63cd7e	-0.8898543
5	0xbc9d89b1	-0.019230695
6	0xbdf1bbc9	-0.11803395
7	0x3d86902e	0.06570469
8	0xbbc7ab72	-0.006093436
9	0xbcfc4aac	-0.030797325
10	0xbcdb3137	-0.026756866
11	0xbe031718	-0.12801778
12	0xbe9280f5	-0.2861401
13	0x3dc36329	0.09540398
14	0x3f5b0b9c	0.8556459
15	0xbddf0c6c	-0.10891041
16	0xbd715161	-0.0589155
17	0xbe068e83	-0.13140301
18	0xbd88a6fa	-0.06672473
19	0x3e66b095	0.22528298
20	0xb8e5d2ba	-0.00010958822
21	0x3cbe59ab	0.023236116
22	0x3e20dd78	0.15709484
23	0x3da9bbeb	0.08287796
24	0xbedb8913	-0.42878017
25	0x3e24924f	0.16071437
26	0x3c7712a2	0.015080126
27	0xbd2ec670	-0.042669713
28	0x3d397bf8	0.04528424
29	0x3e87e111	0.265389
30	0xbe076121	-0.13220645
31	0x3d4ac72c	0.04950635
32	0xbdb8981c	-0.090133876
33	0xbda28d6c	-0.0793713
34	0xbebe23e2	-0.3713675
35	0xbe0bf4ea	-0.13667646
36	0x3d8a4114	0.06750694
37	0xbc996b83	-0.018728023
38	0x3db6ea9a	0.089314654
39	0x3de3419d	0.11096499
40	0xbea8fa95	-0.3300368
41	0xbda8ad1b	-0.08236142
42	0xbd724a97	-0.059153166
43	0x3d572fe4	0.052535906
44	0x3e01e1a4	0.12683731
45	0xbd8777ec	-0.0661467
46	0xb98ddfae	-0.0002706027
47	0x3bc6c6f2	0.0060661966
48	0x3ce6ac3a	0.028158296
49	0x3ec4c45f	0.3843107
50	0xbd6d965c	-0.058004722
51	0xbe058b21	-0.13041355
52	0x3e198a48	0.14994156
53	0x3d3c7215	0.046007235
54	0x3dd7a769	0.10529978
55	0x3de4dbf7	0.111747675
56	0x3dcba592	0.099436894
57	0x3e4228f9	0.18960942
58	0x3dcdeaf3	0.10054579
59	0x3c76b59c	0.0150579475
60	0xbebe9d35	-0.37229314
61	0xbe0ed33c	-0.13947767
62	0x3dbe90ba	0.09304948
63	0x3e6679ef	0.22507451
64	0xbdefbee2	-0.1170633
65	0x3e3e5ec0	0.18590832
66	0xbbf24132	-0.007393026
67	0x3dbbfb73	0.091788195
68	0xbe83954a	-0.25699836
69	0xbe598e7c	-0.2124576
70	0xbd14bbd8	-0.036311954
71	0x3b009790	0.0019621588
72	0xbd73d6ce	-0.059531026
73	0xbda545c6	-0.08069949
74	0xbe2235b3	-0.15840797
75	0xbe6c3f83	-0.23071103
76	0xbf18d44d	-0.59698945
77	0xbc3cc82b	-0.011522333
78	0x3eefda12	0.46846062
79	0xbd1aa307	-0.03775313
80	0xbebf7618	-0.37394786
81	0xbccf9b9e	-0.025342759
82	0x3d561549	0.052266393
83	0x3e311097	0.17291485
84	0x3d12b48a	0.035816707
85	0x3db3b23c	0.0877423
86	0xbc7c6a1c	-0.015406158
87	0xbc72120b	-0.01477481
88	0xbd4d5f85	-0.050139923
89	0xbe1a5ed4	-0.15075237
90	0xbd144eee	-0.036208086
91	0x3df310a1	0.11868406
92	0xbd50747c	-0.05089234
93	0xbe4d2d1e	-0.20036742
94	0xbd8f3731	-0.06992949
95	0x3c13e5c0	0.009026945
96	0xbd94cab5	-0.07265226
97	0xbddcbb7a	-0.10777946
98	0xbe26c702	-0.16286853
99	0xbe7e2602	-0.24819186
100	0x3ccd62bc	0.025071494
101	0xbd44cebd	-0.048048723
102	0xbe7739c8	-0.24143136
103	0xbeae9b7a	-0.34102994
104	0xbf634cab	-0.8878886
105	0x3f183233	0.594516
106	0xbef1d9e9	-0.47236565
107	0xbdb73da1	-0.08947302
108	0x3d612be3	0.054973494
109	0x3d8f0457	0.0698325
110	0xbf19e98f	-0.6012201
111	0xbb9b5594	-0.0047404263
112	0x3d710108	0.058838874
113	0x3e3fc44c	0.18727225
114	0xbd813fc7	-0.06310993
115	0xbc1f3938	-0.009718232
116	0xbc03ef53	-0.008052665
117	0x3aa51496	0.0012594636
118	0xbda97846	-0.082748935
119	0xbe020789	-0.12698187
120	0x3cc47416	0.023981135
121	0xbc41c169	-0.011825898
122	0xbda23008	-0.079193175
123	0xbed3f4b1	-0.41397622
124	0xbe1a8115	-0.15088303
125	0xbc86cedd	-0.016456062
126	0xbc7f0068	-0.015564062
127	0x3df53527	0.11973029
128	0x3c6de0e5	0.014518951
129	0xbec4154c	-0.38297498
130	0xbee3632a	-0.44411594
131	0xbe00be82	-0.12572673
132	0x3dfb3b77	0.122672014
133	0x3e3cd667	0.18441163
134	0xbe39c85c	-0.18142837
135	0xbfa8b638	-1.3180609
136	0xbea14c54	-0.31503546
137	0x3d935b9e	0.07195209
138	0x3e75be33	0.23998336
139	0xbda033a5	-0.078223504
140	0xbcbe4924	-0.023228236
141	0x3cb0d5a0	0.02158624
142	0x3e337d68	0.17528307
143	0x3d3dbdd8	0.046323627
144	0x3e292c98	0.16520917
145	0x3df19df6	0.11797707
146	0x3e4808a1	0.19534542
147	0x3e03b71c	0.1286282
148	0xbb216c9e	-0.0024631391
149	0xbea663f0	-0.3249812
150	0x3df4521e	0.11929725
151	0xbd882dbe	-0.0664935
152	0xbd758aec	-0.05994694
153	0x3d493549	0.049123082
154	0x3e41e4bb	0.1893491
155	0xbdd347a6	-0.103164
156	0x3c851753	0.016246473
157	0x3c5d490f	0.013506188
158	0xb9861d68	-0.0002558038
159	0x3d6cbb42	0.05779577
160	0x3d98b2e8	0.07455999
161	0x3c30fd95	0.010802646
162	0xbe4cdeb0	-0.20006824
163	0xbf34ab17	-0.7057356
164	0xbf8f4ee3	-1.1195949
165	0x3cc95968	0.024578765
166	0xbc8a4748	-0.016879693
167	0x3d224625	0.039617676
168	0xbe622767	-0.22085343
169	0xbd86293d	-0.06550834
170	0x3d92f706	0.07176022
171	0x3dba07f8	0.09083551
172	0x3dd3765b	0.10325309
173	0xbdc66cb6	-0.09688704
174	0xbf0a3348	-0.539845
175	0xbd282425	-0.041050095
176	0xbe4f023f	-0.202157
177	0xbe4da50e	-0.20082495
178	0x3e3f61ba	0.18689623
179	0x3df89ddd	0.12139485
180	0xbd5e5fae	-0.054290466
181	0xbdadefcc	-0.08493003
182	0xbbd06ec3	-0.00636086
183	0x3bf154c7	0.0073648426
184	0x3ea2f083	0.3182412
185	0xbf67a95c	-0.90492797
186	0x3d75c04b	0.059997838
187	0x3d3a3775	0.045463044
188	0x3e440939	0.19144143
189	0xbe3999db	-0.18125097
190	0xbe5b631b	-0.21424524
191	0x3e380752	0.17971542
192	0x3dc446dc	0.09583828
193	0xbc1e876c	-0.009675842
194	0xbef45637	-0.47722027
195	0xbe41c571	-0.18922974
196	0xbeaabf87	-0.3334925
197	0xbddb4f94	-0.10708538
198	0xbdbdfd08	-0.092767775
199	0x3e4a5d15	0.1976207
200	0xbe6ed429	-0.2332312
201	0x3ccc7969	0.024960237
202	0x3d8db523	0.06919315
203	0x3e2c7127	0.16840039
204	0xbeff089b	-0.49811253
205	0x3e004e5b	0.1252989
206	0x3d206ccf	0.039166268
207	0xbe1d65a5	-0.15370806
208	0xbe5bd4f3	-0.21467952
209	0xbecd8e15	-0.40147462
210	0xbf1af8a2	-0.60535634
211	0xbe0b321e	-0.13593337
212	0xbd7a7918	-0.06115064
213	0x3df105f7	0.11768716
214	0x3dbf1575	0.093302645
215	0x3e183281	0.14863016
216	0x3decff6c	0.11572155
217	0x3cd3eceb	0.025869807
218	0xbe04f637	-0.12984549
219	0xbfad5ed8	-1.3544569
220	0x3c8f324b	0.017480036
221	0x3da891a0	0.08230901
222	0xbdb2a436	-0.08722727
223	0xbf093d39	-0.53609043
224	0xbf01d48e	-0.5071496
225	0x3e22053b	0.15822308
226	0xbe4629ea	-0.19351926
227	0xbe00b341	-0.1256838
228	0xbe22671a	-0.15859643
229	0x3e082d47	0.13298522
230	0xbe8fd438	-0.28091598
231	0xbbfd3177	-0.007726844
232	0xbd7b4a09	-0.061349902
233	0xbd25e21a	-0.04049883
234	0xbdbf93bd	-0.09354351
235	0x3d207633	0.039175224
236	0x3e00149e	0.12507865
237	0x3d5af948	0.05346039
238	0xbdddcc41	-0.10829974
239	0xbe81437a	-0.25246793
240	0xbe7fec51	-0.24992491
241	0x3da77ddf	0.08178305
242	0xbc3ea1a2	-0.011635216
243	0x3da6c90f	0.08143818
244	0xbd965e17	-0.07342165
245	0xbe8d1e53	-0.27562198
246	0x3e2a0ad7	0.16605698
247	0x3e5f4399	0.2180313
248	0xbd906a17	-0.07051485
249	0xbf48ecb2	-0.7848617
250	0xbe114a5f	-0.14188527
251	0xbe86f97c	-0.26362216
252	0xbdaf2b97	-0.08553236
253	0xbcec1bb7	-0.02882181
254	0x3caa02fa	0.020753372
255	0x3e1dfe2d	0.15428992

layers.1.base_linear.weight f4 [29, 92]
0	0x3da59df2	0.08086766
1	0x3ae4855f	0.0017434767
2	0xbc89090e	-0.01672795
3	0xbc9b92ba	-0.018990863
4	0xbdbe9f5c	-0.09307739
5	0xbdad7aab	-0.08470663
6	0xbbdb2fa2	-0.006689028
7	0xbc30d46c	-0.010792833
8	0x3c2bde3e	0.010489998
9	0x3cb0bb11	0.021573575
10	0x3cc099bb	0.023510804
11	0xbe0b1940	-0.13583851
12	0xbd9780c4	-0.07397607
13	0xbd7e9686	-0.06215527
14	0x3dbf82eb	0.093511425
15	0xbd89584a	-0.06706293
16	0xbd6601b2	-0.05615396
17	0xbda2155d	-0.07914231
18	0xbdf2830d	-0.11841402
19	0xbd011b17	-0.031519976
20	0xbdf88a48	-0.1213575
21	0x3d465cb8	0.048428267
22	0xbd1dba32	-0.038507648
23	0x3daa2950	0.08308661
24	0x3d4725bc	0.04861997
25	0xbe1fe691	-0.15615298
26	0xbccd8094	-0.025085725
27	0x3c10f862	0.008848282
28	0xbd027b38	-0.03185579
29	0x3ddb3094	0.10702625
30	0xbd479573	-0.04872651
31	0xbc01389d	-0.007887033
32	0xbc65251e	-0.0139859
33	0xbdedd881	-0.116135605
34	0xbb864313	-0.0040973513
35	0xbd85d7cd	-0.06535301
36	0xbd44ee73	-0.048078965
37	0xbb894aa5	-0.0041898065
38	0x3d45a900	0.048256874
39	0xbd126ab1	-0.03574628
40	0xbda4dcc7	-0.080499224
41	0xbb17500b	-0.002308848
42	0xbdf5b640	-0.11997652
43	0xbe03471f	-0.128201
44	0x3dd3eded	0.10348115
45	0xbc245948	-0.010031052
46	0x3d2b2b3f	0.04178929
47	0x3e17e87b	0.14834778
48	0x3d05b12f	0.03263968
49	0xbd9d3b15	-0.07677285
50	0x3d2129a5	0.039346356
51	0x3e588d5b	0.21147673
52	0xbd8fee3f	-0.07027864
53	0x3d066342	0.032809503
54	0xbd806769	-0.06269724
55	0xbd4bfe56	-0.0498031
56	0x3d00ff9b	0.031493764
57	0xbd82cd5c	-0.063868254
58	0xbd82cce8	-0.06386739
59	0xbd7fef53	-0.062484097
60	0x3cc5045d	0.024049932
61	0x3ddb9277	0.10721295
62	0xba9ca196	-0.0011950012
63	0x3d059e42	0.03262163
64	0x3d760560	0.06006372
65	0xbda987f3	-0.082778834
66	0xbc3999c4	-0.0113281645
67	0x3dc1ee13	0.09469237
68	0xbe52c859	-0.20584239
69	0xbd447c62	-0.047970183
70	0xbc07c9fd	-0.008287904
71	0x3ce2bb5c	0.02767723
72	0x3db0f75a	0.086409286
73	0xbcf9e2dd	-0.030503685
74	0x3dec2a43	0.11531498
75	0xbd88e667	-0.06684571
76	0xbdebf9bc	-0.115222424
77	0x3c2298ac	0.009924095
78	0xbdef1305	-0.116735496
79	0xbd11ffc5	-0.03564431
80	0x3d48833e	0.048953287
81	0xbc317087	-0.010830051
82	0xbd1cc1cd	-0.03827076
83	0xbe1a4a7f	-0.1506748
84	0x3cdda06a	0.02705403
85	0x3ccbf4ef	0.024897067
86	0x3d97663a	0.07392545
87	0x3d813961	0.06309772
88	0xbd31045c	-0.043217048
89	0x3c4e34c8	0.012585826
90	0x3d86bb6e	0.06578718
91	0x3d109252	0.035295792
92	0xbd06d037	-0.032913413
93	0xbe40ba2b	-0.18821017
94	0xbf26f5b6	-0.65218675
95	0xbe058bd7	-0.13041626
96	0xbe635d04	-0.22203451
97	0xbe587389	-0.21137823
98	0xbee112ea	-0.43959743
99	0xbee88eec	-0.4542154
100	0xbeca399d	-0.3949708
101	0x3ca1e33e	0.019761678
102	0x3d99b294	0.07504764
103	0xbef911f2	-0.48646504
104	0x3e0ed72c	0.13949269
105	0x3eb673fd	0.35635367
106	0x3dd2ffc1	0.103026874
107	0xbee0df3a	-0.43920308
108	0xbda50d8c	-0.080592245
109	0xbf302e47	-0.68820614
110	0x3ea0fcb5	0.314428
111	0x3ec5a0ec	0.38599336
112	0xbee7600f	-0.45190474
113	0x3eb56bf0	0.35433912
114	0x3e0b2bbd	0.13590904
115	0xbe505850	-0.20346189
116	0x3dd7b352	0.105322495
117	0xbf61defe	-0.88230884
118	0xbf0ac49b	-0.54206246
119	0x3d902708	0.070386946
120	0xbcc04622	-0.023470942
121	0x3e61519e	0.2200379
122	0xbe18e8e9	-0.14932598
123	0xbf06a330	-0.52592754
124	0x3e834543	0.2563878
125	0x3e9dc550	0.308146
126	0xbeb0d6a2	-0.34538752
127	0x3e77f069	0.24212803
128	0x3dd36045	0.10321096
129	0xbd5825f8	-0.052770585
130	0xbe8f5a66	-0.27998656
131	0x3e1bfcf4	0.15233213
132	0x3d8d19e7	0.06889706
133	0xbf5987eb	-0.8497302
134	0xbdc76132	-0.097353354
135	0x3ea47db1	0.32127145
136	0xbe6fe655	-0.23427708
137	0xbf2dbe6a	-0.67868674
138	0x3eaa1136	0.33216256
139	0xbf0c2c64	-0.54755235
140	0x3e324bec	0.17411774
141	0x3e78d19e	0.24298713
142	0xbe67a614	-0.22621948
143	0x3f21f52c	0.6326473
144	0x3db1e30a	0.086858824
145	0xbf4a5e31	-0.79049975
146	0xbe32b756	-0.1745275
147	0x3e88011b	0.26563343
148	0xbefdbaf7	-0.49556705
149	0x3f052b34	0.5201905
150	0xbfafe100	-1.374054
151	0xbe259052	-0.16168335
152	0x3e5a7c97	0.2133659
153	0x3eab516d	0.3346056
154	0xbdda4e25	-0.10659436
155	0x3a7e790c	0.00097073684
156	0xbe97aa07	-0.29621908
157	0x3d815081	0.06314183
158	0x3e7554dd	0.23958154
159	0x3e8ab97f	0.27094647
160	0xbebc7088	-0.36804605
161	0xbd91b39d	-0.07114337
162	0x3c9062ec	0.017625295
163	0xbec7cef0	-0.39025068
164	0xbd945508	-0.07242781
165	0xbe393bc7	-0.1808921
166	0xbf116fe0	-0.5681133
167	0xbdc42fe4	-0.09579447
168	0xbe0d23a8	-0.13783133
169	0x3e978449	0.29593113
170	0x3df27293	0.118382595
171	0xbe89a76d	-0.26885548
172	0xbddd3873	-0.108017825
173	0xbeede561	-0.46464065
174	0xbe969c8c	-0.2941631
175	0x3e82d052	0.2554956
176	0xbedb60bd	-0.42847243
177	0xbe965d7e	-0.29368204
178	0x3dd3627f	0.10321521
179	0x3e82cc00	0.25546265
180	0xbe86be29	-0.26316956
181	0xbf51b641	-0.8191872
182	0xbe610931	-0.21976162
183	0x3dab2e53	0.08358445
184	0x3dce26d0	0.10065997
185	0x3e583c1d	0.21116681
186	0xbec3f9b7	-0.38276455
187	0xbe3980ff	-0.18115614
188	0x3db3876c	0.08766064
189	0xbd5c1cbb	-0.053738337
190	0xbe3f4286	-0.1867772
191	0xbda8969d	-0.08231852
192	0x3e3d6137	0.18494116
193	0xbd7cdd02	-0.061734207
194	0x3e0d57ae	0.13802978
195	0x3ea9c913	0.3316122
196	0x3e5482ad	0.20752974
197	0x3d18a44b	0.037266057
198	0xbebafd87	-0.3652155
199	0x3e8157fe	0.25262445
200	0x3d98cfbb	0.074614964
201	0xbe8a5771	-0.27019837
202	0x3e6c3ba6	0.23069629
203	0xbe9bdaeb	-0.3044046
204	0x3e6ab257	0.22919594
205	0x3dcfc5cd	0.101451494
206	0xbdd18cbd	-0.10231922
207	0xbdefe934	-0.11714402
208	0x3dd4680f	0.1037141
209	0xbe214f60	-0.15752935
210	0x3df4fa11	0.11961759
211	0xbcc3cb5a	-0.023900677
212	0x3de64616	0.112438366
213	0x3db6fe8c	0.0893527
214	0xbe6f841b	-0.23390238
215	0xbe2d6d8e	-0.16936323
216	0x3f380226	0.7187828
217	0x3e15fd95	0.14647515
218	0xbe8a5366	-0.27016753
219	0x3ea7f229	0.3280194
220	0xbdd2054d	-0.10254917
221	0xbdbb7a30	-0.09154165
222	0xbdfa09e0	-0.12208915
223	0x3de65d8e	0.11248313
224	0xbe052bc9	-0.13004984
225	0xbe8d16d3	-0.27556476
226	0xbd00915b	-0.03138862
227	0x3b240004	0.0025024423
228	0xbeb540ec	-0.35401094
229	0xbe14e358	-0.1453985
230	0x3e8a4c13	0.27011165
231	0xbea1b6e3	-0.31584844
232	0x3e63523f	0.22199343
233	0x3cb42223	0.021988934
234	0x3d038618	0.032110304
235	0x3dc93ffa	0.09826656
236	0x3e3e37de	0.18575999
237	0xbe4f156c	-0.20223016
238	0xbec50043	-0.38476762
239	0x3d090fb8	0.033462256
240	0xbe97a5af	-0.29618594
241	0xbcdb1338	-0.026742563
242	0xbe865f77	-0.2624471
243	0x3e14e100	0.14538956
244	0x3e55d979	0.2088374
245	0x3df88eaa	0.12136586
246	0xbeb08f81	-0.34484485
247	0xbb5417f1	-0.0032362903
248	0xbf163738	-0.5867801
249	0x3d2b86af	0.04187649
250	0x3d472627	0.04862037
251	0x3e0b3be6	0.13597068
252	0x3dedd0cf	0.11612093
253	0xbe67bcd0	-0.2263062
254	0x3d13843d	0.036014784
255	0xbecbae17	-0.39781258

layers.1.base_linear.bias f4 [29]
0	0xbd35db5d	-0.044398654
1	0x3d461cee	0.048367433
2	0xbd8d73ae	-0.0690683
3	0x3e001a81	0.1251011
4	0x3d4fe55f	0.050755855
5	0x3dc0d435	0.09415475
6	0xbe13f540	-0.14449024
7	0x3dec6c62	0.1154411
8	0x3dc44e4c	0.095852464
9	0x3dead03b	0.11465498
10	0xbdaed6fb	-0.08537098
11	0x3daf6424	0.08564022
12	0xbc4eaa84	-0.012613896
13	0xbdb7d679	-0.08976454
14	0x3dec7788	0.11546236
15	0xbd1d6804	-0.038429275
16	0xbd94034f	-0.072271936
17	0xbd74bcec	-0.059750482
18	0xbdcaf77c	-0.09910485
19	0xbd6cbfde	-0.057800166
20	0xbd32fc1b	-0.043697458
21	0x3d846f83	0.06466582
22	0x3be5ecf4	0.0070167724
23	0xbd80719b	-0.062716685
24	0x3c1f8cd2	0.009738164
25	0x3ddc88d0	0.107682824
26	0x3d7c0a55	0.06153329
27	0x3c4b4af0	0.012408003
28	0xbd0ae561	-0.03391016
