results/efficient_kan/best_model.pt (torch, 977252 bytes, 8 tensors)

layers.0.base_weight f4 [107, 195]
000000 f6 12 31 3d 71 f3 13 be c2 88 f6 be c3 b5 49 3d
       0.043230973 -0.14448334 -0.48151213 0.049245607
000010 b0 90 63 be f1 a9 d0 3e be 8a 4c 3e 2a 7a dd 3e
       -0.22223163 0.40754655 0.19974801 0.43257266
000020 1c 75 6f be 7b 24 3e 3d 76 55 1a 3d 37 6e 9b be
       -0.23384517 0.04642151 0.03767916 -0.30357525
000030 e1 8e 4c bd fc f8 4a be 47 1f 5e 3e 93 ad 94 3d
       -0.049940947 -0.19821543 0.21691619 0.07259669
000040 7f 92 c8 be 2a 2a 9b 3e e0 c5 fb 3b 8c a7 bc 3e
       -0.39174268 0.30305606 0.0076835006 0.36846578
000050 2b 45 71 bf 68 c2 05 bd 56 45 11 3f 6e 06 1a bf
       -0.94246167 -0.032656103 0.56746423 -0.6016606
000060 6b 55 0b 3e 8f f4 91 3f 6d 24 bf bc 2e 04 28 bf
       0.13606803 1.1402758 -0.023332799 -0.6563138
000070 85 6c 7e bd 95 56 38 be 1d a6 b9 3d 75 3b cb 3e
       -0.06211521 -0.18001778 0.09064887 0.396938
000080 4f 80 1d be 47 46 56 3f fe 7a 03 3f 7a 67 f7 3b
       -0.15380977 0.83700985 0.51359546 0.007550177
000090 cc 47 97 bd ae 2d 4d bf fa 17 20 bf 90 8f 07 3d
       -0.07386741 -0.80147827 -0.62536585 0.033095896
0000a0 0d ac 59 3d 25 4e ad bc bb df 21 3e 24 2e e4 bb
       0.053142596 -0.021155426 0.15808003 -0.006963508
0000b0 3c 23 33 3f 24 9f 1c be 09 6b a3 3e 65 76 fa bc
       0.6997564 -0.15295082 0.319176 -0.030574033
0000c0 0c 97 d6 3d 36 73 90 3d 2e 86 a7 be 49 25 6c be
       0.10478029 0.07053225 -0.32719558 -0.23061098
0000d0 9f 0f 12 bf b9 ba b7 bd 35 f3 a9 bd fb a0 e6 be
       -0.57055086 -0.089711614 -0.08298341 -0.45044693
0000e0 e9 c2 6a 3e e0 6e 21 be 03 86 39 3e 87 a2 04 bf
       0.22925915 -0.15764952 0.18117528 -0.518105
0000f0 4f 86 29 bc 00 99 f5 3e 54 8b ef be 0c c1 1c 3e
       -0.010346963 0.47968292 -0.46785986 0.15308017
000100 95 80 95 3f 1d 17 cd 3d fb c1 5b bf 6a 79 36 3e
       1.1679865 0.10014174 -0.85842866 0.17819753
000110 59 a3 28 3e 04 7f 64 bd 5d f9 6a 3d 91 64 45 be
       0.16468562 -0.055785194 0.057366718 -0.19276644
000120 69 9d 5f 3f f2 d4 69 3e 04 83 35 3e f3 6c 06 be
       0.87349564 0.22835138 0.1772576 -0.13127498
000130 55 74 03 bf aa cc e9 be ca b1 8a 3d 91 0e 34 3e
       -0.51349384 -0.4566396 0.06772192 0.17583682
000140 d7 f6 10 3d 92 75 a0 3e 15 d0 44 be 4a 60 2d 3f
       0.035391655 0.313397 -0.19220002 0.6772505
000150 b6 a1 1e be ae 9e f1 be 7d fe 0d bf be 3f 0b 3e
       -0.15491375 -0.47191375 -0.55466443 0.13598534
000160 59 a1 ce 3e 1f bb 11 bf 96 6a 4f be 0b 89 27 be
       0.40357473 -0.5692615 -0.20255503 -0.16360871
000170 d9 52 5a 3d 8f fc d4 bc 71 21 3c bf 2c 95 8e 3e
       0.053301666 -0.025999336 -0.7348853 0.27848184
000180 42 53 dc be cc d9 23 3f ea 0c b9 be dc ff f0 3d
       -0.4303227 0.64004207 -0.36142665 0.11767551
000190 b3 ba d6 3e 97 a6 8b be ea be d0 3d ea c5 b6 3f
       0.41939315 -0.27275535 0.10192664 1.4279149
0001a0 fb a2 ce 3d 7b c6 6f bf 55 07 67 be 1f f4 c3 bc
       0.1008968 -0.9366223 -0.2256139 -0.023920117
0001b0 ec b5 16 3e 3e 95 54 3d a3 7a 91 be a3 82 6b 3f
       0.14717835 0.05190014 -0.28413877 0.9199621
0001c0 0a dd 77 3e 79 56 86 3e c8 af 13 be f2 0e 45 be
       0.24205413 0.26237848 -0.14422524 -0.19243982
0001d0 05 7e 00 bf 22 bc 90 bc 84 38 ba 3e 7c 56 0d bf
       -0.5019229 -0.017667834 0.36371243 -0.5521009
0001e0 71 f9 69 3f 80 35 f3 bd 8f 27 49 3f 93 6d 7b 3e
       0.9139624 -0.11875439 0.78575987 0.24553518
0001f0 a1 43 8e 3e ba 9e ea bd a9 85 d1 3d e6 01 32 3f
       0.27785972 -0.11456056 0.10230572 0.69534147
000200 02 e7 09 bf 58 db cd 3e 25 f9 99 be f5 e4 0b 3f
       -0.53868115 0.40206409 -0.30072895 0.54646236
000210 31 df 2b 3f 32 e8 56 bf fd 93 81 3e 64 c2 1e 3e
       0.6713744 -0.8394805 0.2530822 0.15503842
000220 27 0d 21 3f 7a fe 37 bf bf 9c 0f 3f ab 8e aa 3e
       0.62910694 -0.71872675 0.5609855 0.33311972
000230 9f 09 8d 3c 7e 75 58 3d 9d 32 9b 3f 26 ff 29 3e
       0.017216502 0.052846424 1.2124821 0.16601238
000240 7e bf 73 bf 1a 35 8f be 47 65 d3 3d 63 53 fb 3e
       -0.9521407 -0.279702 0.103220515 0.49087057
000250 81 95 95 3e ac 05 bd be 9d eb 19 3f 28 29 3b 3e
       0.29215625 -0.3691839 0.6012514 0.18277419
000260 e6 1c 3a 3e 9d 31 58 3c 48 2c c3 3d ac 71 14 bf
       0.18175086 0.0131954225 0.0952993 -0.5798595
000270 db 1c bd 3d e3 ec 0d 3f 90 bd af 3e 9d 46 c6 3d
       0.09234019 0.55439585 0.34324312 0.09681437
000280 9f 22 32 3d 35 e6 87 3e 27 72 34 bc 1c 83 3b 3f
       0.04349005 0.26542822 -0.011013544 0.7324693
000290 c3 66 05 bf 19 f3 2d bd 67 ce c4 3e 3e 51 37 bf
       -0.52109927 -0.042468164 0.38438722 -0.7160834
0002a0 4e 05 ad 3e 0b 0f 0d bf c2 35 17 3f ec 1f 9e 3e
       0.3379311 -0.5510108 0.590664 0.3088373
0002b0 c1 89 eb be a8 4a ba 3e b6 e6 fd bd c1 b7 b1 3e
       -0.46003535 0.36385083 -0.1239752 0.34710506
0002c0 11 d6 1b bf 0b fb 82 3e 3f f0 43 3e 08 6c 2b be
       -0.60873514 0.25582156 0.19134615 -0.1674043
0002d0 ca 45 a0 3d 00 4f 80 3f 51 5f 0b bb 4e 63 a7 bf
       0.07825811 1.0024109 -0.002126653 -1.307718
0002e0 c2 0a 38 bf cf b7 a4 bd 8b 70 95 bc 4f bc ac bc
       -0.71891415 -0.08042871 -0.018242141 -0.021085886
0002f0 3e 90 ea bd 7b 2f 84 3f 95 96 0c 3e 45 4f 8c 3e
       -0.11453293 1.032699 0.13729317 0.27404228
000300 c7 70 ce bc 26 4f 51 3e e3 17 31 bf 7e 01 82 bf
       -0.02520026 0.20440349 -0.69177073 -1.0156705
000310 4e 1e 6c 3c 99 4e 02 3d 86 ac 65 3d 9d fa 92 3c
       0.014411522 0.031813238 0.056072734 0.017941767
000320 00 7a eb 3c 21 68 58 3f f0 a0 13 bd a4 05 b7 3e
       0.028744698 0.8453389 -0.036042154 0.3574649
000330 92 15 5e be 54 a8 e8 be ec 65 b8 3d 1f ce 11 3e
       -0.21687916 -0.45440924 0.09003815 0.14238785
000340 2d 12 b6 3d f0 54 98 be cc ac 0f 3e a6 f3 b7 3d
       0.088901855 -0.29752302 0.1403076 0.08982019
000350 1b fe dd 3e 46 f1 96 3c f9 c5 21 3f 03 e3 42 3f
       0.4335793 0.018425595 0.6319271 0.7612764
000360 d6 0e 66 3f 0a fc bb be 4e 04 a5 bd e7 3a 3e bf
       0.8986639 -0.36715728 -0.08057462 -0.7430863
000370 ba a1 1a bf 4a 34 ce be eb 79 fd be 63 40 93 be
       -0.60403025 -0.40274268 -0.4950708 -0.2876006
000380 4a aa 46 bf 92 f7 a3 3d 1e 1f 79 bf ba 49 62 3c
       -0.7760359 0.08006205 -0.97313106 0.013811523
000390 c6 af 81 3f a1 b3 c6 be 6e c1 89 3c cd 80 0d bf
       1.0131767 -0.3880892 0.016815867 -0.5527466
0003a0 61 1a 51 3f 54 82 c3 bb d0 70 4d bf b2 87 b4 3d
       0.81680876 -0.005966464 -0.80250263 0.08814944
0003b0 6b 4d 52 bd 74 6e cb 3d d5 92 0c bd 11 bf 36 3d
       -0.051343363 0.09933177 -0.034319717 0.04461581
0003c0 12 f8 1e 3f 91 56 6b 3c 32 12 c9 3e 1b d6 bd be
       0.62097275 0.014363901 0.39271694 -0.37077412
0003d0 39 a4 41 bf 33 29 49 3e 95 ee 1f be 82 82 e9 3c
       -0.7564121 0.19644623 -0.15618356 0.028504614
0003e0 17 fa 14 bf 63 af 44 3e e6 0e 10 3a 06 9f d3 3e
       -0.58194107 0.1920753 0.0005495384 0.41332263
0003f0 06 79 bf bd b9 0b 13 3f 77 78 c4 3e 7f 22 67 3f
       -0.09349255 0.5743976 0.38373157 0.9028701

layers.0.spline_weight f4 [107, 195, 8]
000000 dc 45 31 3f f3 2d 21 3f 8c 4a e9 bd 7d bf 00 3d
       0.6924722 0.6296074 -0.11391172 0.031432617
000010 7d 5a 0d 3e 62 38 23 3f fa be 6b 3e b6 36 e8 be
       0.1380405 0.6375791 0.2302207 -0.4535424
000020 61 a0 2c bf 62 5a 04 3e b0 03 bc 3d 9d e4 db 3d
       -0.6743222 0.12925103 0.09180391 0.10736964
000030 37 39 3c be aa aa 61 be f9 52 bf 3d fa 9f d0 3d
       -0.183812 -0.2203776 0.09341998 0.10186763
000040 71 21 cd be 61 0b 09 bf f2 83 62 3e c5 4b f0 3e
       -0.40064576 -0.5353299 0.22120646 0.46932808
000050 3a 76 38 3e dc 8c cc be 2a c9 ae be cf 4a d1 be
       0.1801385 -0.39951217 -0.3413785 -0.40877387
000060 c9 60 25 3f 74 36 2c bc 02 32 d3 3e d1 cb ef bd
       0.6460081 -0.0105110295 0.4124909 -0.11708797
000070 e0 b1 6e bc a4 c5 5d 3e f4 fd b6 3e 6c ee 02 bd
       -0.014568776 0.21657425 0.35740626 -0.031965658
000080 fe 32 03 3e 51 51 02 3c 1d ed ad be c9 ab b7 be
       0.1281242 0.007953958 -0.33969966 -0.3587325
000090 5c 5f 62 3d 1c 9b b7 3e 2e e3 87 3e e8 36 79 be
       0.055266723 0.35860527 0.26540512 -0.24337351
0000a0 cd a9 9f be 1a 75 51 bf b2 10 57 bf a0 9b 9f be
       -0.31184235 -0.8181931 -0.8400985 -0.3117342
0000b0 80 25 95 3e b0 7b 2a 3f 0c d3 c6 be 45 d8 ab be
       0.29130173 0.6659498 -0.3883289 -0.33563438
0000c0 b2 0e a7 bf 54 60 25 bf c6 48 c0 bf 6b d5 61 be
       -1.305136 -0.6460011 -1.5022209 -0.22054069
0000d0 7c e0 85 3e 5e 08 b3 be 3f 6a 7c bf 86 ba 78 be
       0.2614783 -0.3496732 -0.9859962 -0.24289903
0000e0 95 e9 2d bd d5 7e 22 be 86 64 b1 3d 91 65 0a be
       -0.04245909 -0.15868695 0.086617514 -0.13515307
0000f0 ee 41 9c 3c 16 83 40 3e da 6d a9 be aa 85 59 bf
       0.019074406 0.18800005 -0.33091623 -0.8496958
000100 27 b7 14 bf c9 62 4b bf 4a 44 62 bf e6 2b 91 3e
       -0.5809197 -0.7944761 -0.8838545 0.28353804
000110 78 16 48 3f 3d 50 34 be b9 6e c6 bf 74 6d 82 bf
       0.78159285 -0.17608733 -1.550254 -1.0189652
000120 fa ac 02 3f 2b 7c 3c 3f 6d 61 18 3f e7 df 9d bc
       0.5104519 0.73626965 0.5952366 -0.019271804
000130 3e de 47 be a5 4b 63 be b7 e4 40 3e 44 6d e3 3e
       -0.19518372 -0.22196825 0.18837248 0.444193
000140 74 5f 4e be 30 68 90 3e 89 9e 8e bd 2d 4d 07 bf
       -0.201536 0.2820449 -0.06963832 -0.52852136
000150 7c d3 2f 3e 16 11 d7 3e 18 09 8e 3f 60 e0 0d 3f
       0.17170519 0.42005223 1.1096525 0.55420494
000160 41 97 ea 3d 5f ad 9d 3e c8 f3 04 3f 4e 8f 6c be
       0.11454631 0.30796334 0.5193448 -0.23101541
000170 d2 ac 4b be 11 e5 e8 bb d0 88 4d be f4 7c 41 3f
       -0.19890144 -0.007107385 -0.20071721 0.7558129
000180 44 49 67 bf e8 2f e5 be 3f f9 5e bf f8 65 9f bd
       -0.9034617 -0.44763112 -0.8709907 -0.07783121
000190 b7 ed df 3d d8 bf b7 be 99 45 0a bf 6f 1b cd 3d
       0.109340124 -0.35888553 -0.5401245 0.10014998
0001a0 e3 3b 01 bf b7 91 b2 be 67 95 e0 3e db fb 99 3e
       -0.50482005 -0.34876797 0.43863985 0.30074963
0001b0 d3 63 57 be 8e e1 75 be 98 c0 58 3e bf 39 24 3f
       -0.21034174 -0.24011824 0.21167219 0.64150614
0001c0 49 17 88 3e 82 89 80 3d 8a ab 41 3e 02 a7 54 bd
       0.26580265 0.062762275 0.18913093 -0.051917084
0001d0 f1 d5 c5 3b bf 26 82 3e 13 6e 7c 3e 24 1c 1c 3f
       0.0060374667 0.25420186 0.24651365 0.6098044
0001e0 78 3b 92 bf 4c a6 f1 be 70 e4 83 bf 84 41 cb bd
       -1.1424398 -0.47197187 -1.0304089 -0.099246055
0001f0 dd 23 30 3e 59 ab b8 be 34 1d 2c bf 13 01 24 bd
       0.17201181 -0.36068228 -0.6723206 -0.040040087
000200 4a 92 e1 3d 73 98 46 3e 5e 8f 03 3d b8 12 fd bd
       0.110142305 0.19394092 0.032119147 -0.12357086
000210 92 e5 2c 3e 69 8d 41 3e 70 08 e8 be 70 a4 07 bf
       0.16884449 0.189016 -0.45318937 -0.52985287
000220 1c 14 10 be 20 f7 8d 3e ab bb 1a be 89 d8 d1 bd
       -0.14070171 0.27727604 -0.15110652 -0.10246379
000230 6b 5b b9 bc 8c 8e a5 3d 06 58 7e 3e a2 bd 11 3e
       -0.0226266 0.08083829 0.24838266 0.14232495
000240 51 c7 19 3e 76 3c 35 be 4d b0 4f be 84 d5 84 3d
       0.1501744 -0.17698845 -0.20282097 0.064860374
000250 45 b2 d8 3e ae 45 0c be fc b4 ad be 6b 7e a2 3d
       0.4232351 -0.13698456 -0.33927143 0.079342686
000260 cf c2 67 bf 71 19 15 bf d9 ad e0 3f a5 9d ae 3f
       -0.9053163 -0.58241946 1.7553054 1.3641859
000270 ad d9 44 bd 17 6d 8f bf ee 32 8a bf 5d 2b 41 be
       -0.048059154 -1.1205167 -1.0796793 -0.18864198
000280 b0 bd 3c 3f 95 67 4f 3f ac 6c de 3e d1 fe 5e bd
       0.7372694 0.8101743 0.43442285 -0.05444223
000290 6d 0f c8 bd da be 91 3e 56 0f b5 3f 09 c1 94 3f
       -0.09768567 0.2846592 1.4145305 1.162141
0002a0 6f f1 39 bf e3 df be 3e b9 08 6b 3f b6 09 f0 3e
       -0.72634023 0.37280187 0.91810185 0.4688241
0002b0 05 44 94 bd 99 9d d4 be 6e 39 37 bf 7d a8 1f bf
       -0.07239536 -0.41526487 -0.71572006 -0.6236647
0002c0 a8 bd 8a be ec 53 2d bf f5 20 94 3e be 47 f1 3e
       -0.2709782 -0.6770618 0.28931394 0.47125047
0002d0 33 40 4b 3f 94 50 08 3e 85 04 f0 bf ac 61 0f c0
       0.79394835 0.13311988 -1.8751379 -2.2403364
0002e0 e5 dd 23 bf 4c a3 b0 bf c9 e5 85 be cf 45 1b 3f
       -0.6401046 -1.3799834 -0.26151875 0.60653394
0002f0 1c 1e 8e 3e de b9 91 3c 66 05 f0 be e8 c9 48 3f
       0.27757347 0.017788824 -0.4687912 0.78433084
000300 b0 e8 9e 3e 1d 2a 35 3f ae 65 48 bd 83 06 0a 3b
       0.310369 0.70767385 -0.048925094 0.002106101
000310 00 1e 5b 3e 42 1b 13 3f bc 2f ee 3d c3 34 ba be
       0.21398163 0.5746347 0.11630198 -0.3636838
000320 70 f7 45 bf 1e 01 8d bf 30 0e df bf 3f 14 e5 bd
       -0.77330685 -1.1015966 -1.7426205 -0.11185502
000330 b9 b0 5e bc 97 ec 64 bf 66 f6 19 bd 10 e5 cb be
       -0.013591939 -0.8942351 -0.0375885 -0.39823198
000340 c8 e5 18 3f 89 a4 70 3f 73 80 16 3f 11 bb 48 bd
       0.5972562 0.9400106 0.5878975 -0.049006525
000350 94 36 91 bd d1 b1 8a bd d0 5f ea 3e 91 6f 1c 3f
       -0.07090488 -0.06772197 0.45776224 0.61107737
000360 5b 34 14 bf be 6f 39 bf 75 6d f4 3e 89 47 ae 3e
       -0.5789239 -0.7243613 0.4773976 0.34038952
000370 a1 f5 5c be d0 cf a9 bf 14 18 85 bf a3 ea e3 be
       -0.21578075 -1.3266544 -1.0397973 -0.4451495
000380 95 89 3c bf d2 1c 55 bf d7 c1 90 be dc 70 ca 3d
       -0.73647434 -0.832471 -0.28272888 0.098848075
000390 1b 1f 9a bd 76 1b ef be 84 29 97 bf 6a e0 45 bf
       -0.07525464 -0.4670064 -1.1809545 -0.77295554
0003a0 8a f2 b9 bd 59 11 3b bd b0 83 34 3e bd f8 d9 3d
       -0.09079464 -0.04567084 0.1762836 0.10643146
0003b0 2f 39 b0 bd c4 4d 90 be 50 e2 c3 3d c6 c4 ba 3d
       -0.08604657 -0.2818433 0.0956465 0.09119563
0003c0 8b 76 0a 3e 06 a4 c3 3d f8 45 34 bf 0e e6 fc bc
       0.13521783 0.09552769 -0.70419264 -0.030871417
0003d0 a4 59 1c 3e 41 e8 5b bf 21 1e f8 be 14 79 61 be
       0.1526857 -0.85901266 -0.48460487 -0.22018844
0003e0 ab 3c 05 3f 9e 74 1f 3f f9 c1 98 3e 0e 51 8c 3b
       0.52045697 0.6228732 0.2983549 0.0042821234
0003f0 74 7a 1a bd 69 37 58 3e e7 d6 00 3f 20 ec 8f 3e
       -0.037714437 0.21114887 0.50327915 0.28109837

layers.0.spline_scaler f4 [107, 195]
000000 10 ff db 3d dc 47 a1 bd 0c 2d c1 3e c5 49 a1 3d
       0.10742009 -0.07875034 0.3772968 0.078753985
000010 cc 56 ca bc cf 41 d2 3e 4c da 1a 3e 76 2a 53 bd
       -0.024699591 0.41065833 0.15122336 -0.051554166
000020 78 be 37 bf 25 60 85 3d 57 bc b1 3e 58 cf ad 3d
       -0.7177501 0.06512479 0.34714004 0.08486813
000030 b4 f3 47 bd 2a 92 f4 3b a9 5f ca 3d af 17 35 bb
       -0.048816398 0.007463713 0.09881527 -0.0027632525
000040 67 46 ca bd 09 93 e1 bb 9f 39 99 3d 0a 54 ac bf
       -0.098767094 -0.006883983 0.074816935 -1.3463147
000050 b8 89 57 bd 72 95 a7 be ab 3b 8e bf 09 44 31 bf
       -0.052621573 -0.32731205 -1.1111959 -0.6924444
000060 08 74 04 3e b9 a7 77 3f 92 47 07 3e a7 aa 77 3e
       0.12934887 0.967403 0.13210896 0.24186192
000070 19 d9 3f be d7 7d 02 3d b1 ef d4 3d 16 33 c6 3b
       -0.1873516 0.03185829 0.1039728 0.0060485704
000080 dd 56 9b bd dc 71 21 bf 4b e6 cc be 84 91 80 3c
       -0.07584927 -0.6306436 -0.4001945 0.015694387
000090 f2 55 7d 3d 52 61 11 bb 5c e1 81 3e e6 b2 9b 3d
       0.061849542 -0.0022183252 0.25367248 0.076024815
0000a0 cf 01 ed 3c 5b 82 38 bd 8f 05 0d bd 5e 8f d7 bb
       0.028931526 -0.04504619 -0.03442913 -0.00657837
0000b0 76 a1 24 bf 05 76 f3 bc 68 d6 23 3f 8d 67 5f bd
       -0.6430887 -0.029719362 0.6399903 -0.054542113
0000c0 65 b8 0d 3e ef 66 67 bc 70 4a 95 bd 4c 2a fe 3d
       0.13839872 -0.014123662 -0.072895885 0.12410411
0000d0 78 53 a3 3e 48 03 34 bf 9a 1e bd bd ec 61 4c 3e
       0.3189962 -0.70317507 -0.092343524 0.19959229
0000e0 2d 4e 2f 3f 9d c9 88 be 52 94 94 3f a9 7b 09 bd
       0.6847866 -0.2671632 1.1607764 -0.033565197
0000f0 59 c7 f7 bc cc 7e 92 3f 38 67 47 bf 6a 02 99 3d
       -0.030246424 1.1444945 -0.77891874 0.074711636
000100 df 75 6a 3e 4e 7c 11 3e 02 83 98 be f2 75 7f be
       0.22896527 0.14207575 -0.2978745 -0.24947336
000110 07 66 bd bc 1e 44 d0 3e e4 40 53 bc cf 58 da bd
       -0.02311994 0.4067697 -0.012893889 -0.1066147
000120 2f 4d d6 3e 45 e1 f0 3b 88 d5 64 3d f4 eb b3 3d
       0.4185576 0.007351073 0.0558677 0.08785239
000130 7f 1b 02 bf 87 8f a1 3e 5f f5 a0 bd 59 0f 59 3d
       -0.50823206 0.31554815 -0.07859301 0.052993152
000140 55 2f eb bc 39 ce b5 bd 46 b6 8e bd dc 95 ad 3e
       -0.028709093 -0.088772245 -0.0696836 0.33903396
000150 68 d6 dd bd 31 62 c5 be af 55 51 be dd 50 cc 3c
       -0.1083191 -0.38551477 -0.20442842 0.024940902
000160 42 4e a7 bd 36 c8 d9 3e 9f 43 24 bd de 9f a9 3e
       -0.08169223 0.4253556 -0.04010355 0.3312978
000170 af 4a 08 3d 18 56 86 3c 4d f3 b8 3d d9 82 74 bd
       0.03327435 0.016398475 0.09030781 -0.0596951
000180 0a 36 12 bf 7c cb ac 3f 20 84 d1 bb 31 ea f2 3d
       -0.5711371 1.3499599 -0.0063939244 0.11861075
000190 c5 46 6a 3f 3c 6f 1b 3f 06 5f a5 bc ce ff 21 3f
       0.91514236 0.60716605 -0.020186912 0.6328095
0001a0 c5 95 ef 3d ad 4b 95 be 23 22 85 be 05 f4 97 bc
       0.11698488 -0.291593 -0.26002607 -0.018548975
0001b0 94 1d 53 3c 49 ae 07 ba ae f8 67 3e 6f 0a c9 3e
       0.01288547 -0.0005175812 0.22653458 0.39265773
0001c0 5b b1 87 be 07 95 ab bd eb 62 a3 bc 87 bc c4 b8
       -0.265025 -0.08378034 -0.019944629 -9.381124e-05
0001d0 51 06 9c 3e c8 d4 a9 3d 37 9e b0 3d 6e 47 03 bf
       0.3047357 0.08292538 0.08623927 -0.5128087
0001e0 8c 43 69 3e 47 00 87 bd 14 a8 18 bf 61 40 b2 3e
       0.22779673 -0.0659185 -0.59631467 0.34814742
0001f0 04 c5 7e be f9 6e 8a be fc 74 e7 3d 96 7e 76 3e
       -0.24879843 -0.2703779 0.1130161 0.24071726
000200 b8 61 a1 3d 75 5b 15 3f c3 9e 1e 3f f5 2d 37 3d
       0.078799665 0.5834268 0.61961 0.044721562
000210 17 0c 2d 3f 9d 89 c5 3d dc be 99 3b fd 18 d7 bd
       0.6759657 0.09645388 0.0046919417 -0.10502813
000220 1f 11 0b 3e 20 ee 02 be cf 66 9f be 34 f3 35 3f
       0.1358075 -0.1278615 -0.31133124 0.71074224
000230 e7 af 75 3e b3 eb 83 bc bd 31 00 3d 56 3b 0a be
       0.23992883 -0.016103601 0.031297434 -0.13499197
000240 31 0a a0 be 79 4e ef 3d c8 0a e2 3d 33 84 8e be
       -0.31257775 0.11684889 0.110372126 -0.27835235
000250 77 f5 41 be 86 a4 67 bd a5 08 22 bf 30 6c 0b 3c
       -0.18941294 -0.056553386 -0.6329444 0.008509681
000260 0e a3 20 bf 10 5d d6 bc 68 14 f2 3b 65 08 a2 be
       -0.627488 -0.026167423 0.0073876865 -0.3164703
000270 d2 f0 00 3d fc 00 ab bd b4 ee 7c be 57 5f 10 bd
       0.031479664 -0.08349797 -0.24700433 -0.035247173
000280 cd 38 b0 be d0 07 59 3e 92 42 4a bf 9c 9b fa 3e
       -0.34418336 0.21194386 -0.7900783 0.48946846
000290 e9 2f 18 bd 45 e7 37 bb d7 c4 9e 3c 97 e1 9a 3e
       -0.037155066 -0.0028061431 0.01938097 0.30250236
0002a0 70 4b 6f bf 46 82 5a 3e 05 40 78 3e d7 a0 33 3f
       -0.93474483 0.21338758 0.24243172 0.701673
0002b0 07 6e 22 3e 29 2d 0f 3d 50 4d db be 54 7e ae bf
       0.15862285 0.034955177 -0.42832422 -1.3632302
0002c0 5a 25 7f 3f 3b 3f aa 3d a5 b7 14 bf ac 92 01 3d
       0.9966637 0.083128415 -0.5809272 0.031634018
0002d0 f8 13 b9 bb f4 11 e2 3e f3 83 75 3d 78 f6 4f 3f
       -0.0056481324 0.44154322 0.05994029 0.81235456
0002e0 ec c0 55 3e 1f 4f 5f 3e 43 05 2c 3e e2 b9 06 bc
       0.20874375 0.21807526 0.16798882 -0.008223029
0002f0 41 87 cc 3a 3a ba 1f 3f d4 cd c0 bd 2f 88 97 bb
       0.0015604274 0.62393534 -0.094142586 -0.0046243886
000300 e0 9b 2e 3e 05 02 3e 3b 0d db 49 3d 43 2c b9 bd
       0.17051649 0.0028992903 0.04928117 -0.090416454
000310 d9 0f a7 3d 4c 50 89 bc a1 69 48 3e d2 e0 5c 3d
       0.081573196 -0.016761921 0.19571544 0.053925343
000320 8a a6 a0 3d 0c 0e b7 3c 59 84 12 3e b1 dc 29 bd
       0.07844265 0.022345565 0.14308299 -0.041470233
000330 3f 31 9e 3d c3 b0 49 3e a6 b0 2f 3d 3d b5 fa 3c
       0.07724237 0.19696335 0.042893074 0.030604
000340 53 5b aa 3d e8 68 0d 3b c8 18 4b bc 0d 4b b3 bd
       0.083182 0.0021577422 -0.012396045 -0.08754549
000350 c8 7a c2 3f 41 60 50 bd 43 ce 0d 3e 8a 7b fe 3b
       1.519372 -0.050873045 0.13848214 0.007766192
000360 52 d9 64 be bb 5c ca 3d 5b 2f 2b 3d 03 29 c6 3c
       -0.22348526 0.09880968 0.04179321 0.024189478
000370 a2 98 58 3a be 38 9b bd db 75 47 bf e5 33 9c 3d
       0.000826249 -0.07579182 -0.7791421 0.076270856
000380 4c 2e 84 bc 81 cf 2d 3d b1 97 02 bc 9b 94 6e ba
       -0.016135357 0.04243422 -0.007970736 -0.00091011234
000390 21 26 de 3e b9 bf a8 3a 3f 4c 68 3a 21 30 7d 3d
       0.43388465 0.0012874521 0.0008861459 0.061813477
0003a0 5a ce fb b7 fa 95 97 3c 09 41 ee 3b ff 5f 32 3c
       -3.0017622e-05 0.018504132 0.0072709364 0.010887145
0003b0 da 4f a5 bc 80 ed 24 3e e1 28 33 bc e9 1e c7 3d
       -0.020179678 0.16106224 -0.010935039 0.097226925
0003c0 7b 14 cc 3c fc 36 23 bd 6e 27 1f bd bf 16 61 3d
       0.02491211 -0.03984736 -0.038855962 0.054953333
0003d0 2b 7a bc 3c a1 da 87 bc fa 0c da bc 29 f8 8f 3d
       0.023007473 -0.016583743 -0.026617516 0.07029755
0003e0 cb 88 3c bd aa 21 8d 3c 0c 25 9b 3d 17 57 39 bf
       -0.046028893 0.017227966 0.075754255 -0.72398514
0003f0 2e 03 93 bd 61 77 07 be f3 82 5c bc 8b c8 8a be
       -0.07178341 -0.13229133 -0.013458955 -0.27106127

layers.0.grid f4 [195, 13]
000000 00 00 40 c0 00 00 20 c0 00 00 00 c0 00 00 c0 bf
       -3.0 -2.5 -2.0 -1.5
000010 00 00 80 bf 00 00 00 bf 00 00 00 00 00 00 00 3f
       -1.0 -0.5 0.0 0.5
000020 00 00 80 3f 00 00 c0 3f 00 00 00 40 00 00 20 40
       1.0 1.5 2.0 2.5
000030 00 00 40 40 00 00 40 c0 00 00 20 c0 00 00 00 c0
       3.0 -3.0 -2.5 -2.0
000040 00 00 c0 bf 00 00 80 bf 00 00 00 bf 00 00 00 00
       -1.5 -1.0 -0.5 0.0
000050 00 00 00 3f 00 00 80 3f 00 00 c0 3f 00 00 00 40
       0.5 1.0 1.5 2.0
000060 00 00 20 40 00 00 40 40 00 00 40 c0 00 00 20 c0
       2.5 3.0 -3.0 -2.5
000070 00 00 00 c0 00 00 c0 bf 00 00 80 bf 00 00 00 bf
       -2.0 -1.5 -1.0 -0.5
000080 00 00 00 00 00 00 00 3f 00 00 80 3f 00 00 c0 3f
       0.0 0.5 1.0 1.5
000090 00 00 00 40 00 00 20 40 00 00 40 40 00 00 40 c0
       2.0 2.5 3.0 -3.0
0000a0 00 00 20 c0 00 00 00 c0 00 00 c0 bf 00 00 80 bf
       -2.5 -2.0 -1.5 -1.0
0000b0 00 00 00 bf 00 00 00 00 00 00 00 3f 00 00 80 3f
       -0.5 0.0 0.5 1.0
0000c0 00 00 c0 3f 00 00 00 40 00 00 20 40 00 00 40 40
       1.5 2.0 2.5 3.0
0000d0 00 00 40 c0 00 00 20 c0 00 00 00 c0 00 00 c0 bf
       -3.0 -2.5 -2.0 -1.5
0000e0 00 00 80 bf 00 00 00 bf 00 00 00 00 00 00 00 3f
       -1.0 -0.5 0.0 0.5
0000f0 00 00 80 3f 00 00 c0 3f 00 00 00 40 00 00 20 40
       1.0 1.5 2.0 2.5
000100 00 00 40 40 00 00 40 c0 00 00 20 c0 00 00 00 c0
       3.0 -3.0 -2.5 -2.0
000110 00 00 c0 bf 00 00 80 bf 00 00 00 bf 00 00 00 00
       -1.5 -1.0 -0.5 0.0
000120 00 00 00 3f 00 00 80 3f 00 00 c0 3f 00 00 00 40
       0.5 1.0 1.5 2.0
000130 00 00 20 40 00 00 40 40 00 00 40 c0 00 00 20 c0
       2.5 3.0 -3.0 -2.5
000140 00 00 00 c0 00 00 c0 bf 00 00 80 bf 00 00 00 bf
       -2.0 -1.5 -1.0 -0.5
000150 00 00 00 00 00 00 00 3f 00 00 80 3f 00 00 c0 3f
       0.0 0.5 1.0 1.5
000160 00 00 00 40 00 00 20 40 00 00 40 40 00 00 40 c0
       2.0 2.5 3.0 -3.0
000170 00 00 20 c0 00 00 00 c0 00 00 c0 bf 00 00 80 bf
       -2.5 -2.0 -1.5 -1.0
000180 00 00 00 bf 00 00 00 00 00 00 00 3f 00 00 80 3f
       -0.5 0.0 0.5 1.0
000190 00 00 c0 3f 00 00 00 40 00 00 20 40 00 00 40 40
       1.5 2.0 2.5 3.0
0001a0 00 00 40 c0 00 00 20 c0 00 00 00 c0 00 00 c0 bf
       -3.0 -2.5 -2.0 -1.5
0001b0 00 00 80 bf 00 00 00 bf 00 00 00 00 00 00 00 3f
       -1.0 -0.5 0.0 0.5
0001c0 00 00 80 3f 00 00 c0 3f 00 00 00 40 00 00 20 40
       1.0 1.5 2.0 2.5
0001d0 00 00 40 40 00 00 40 c0 00 00 20 c0 00 00 00 c0
       3.0 -3.0 -2.5 -2.0
0001e0 00 00 c0 bf 00 00 80 bf 00 00 00 bf 00 00 00 00
       -1.5 -1.0 -0.5 0.0
0001f0 00 00 00 3f 00 00 80 3f 00 00 c0 3f 00 00 00 40
       0.5 1.0 1.5 2.0
000200 00 00 20 40 00 00 40 40 00 00 40 c0 00 00 20 c0
       2.5 3.0 -3.0 -2.5
000210 00 00 00 c0 00 00 c0 bf 00 00 80 bf 00 00 00 bf
       -2.0 -1.5 -1.0 -0.5
000220 00 00 00 00 00 00 00 3f 00 00 80 3f 00 00 c0 3f
       0.0 0.5 1.0 1.5
000230 00 00 00 40 00 00 20 40 00 00 40 40 00 00 40 c0
       2.0 2.5 3.0 -3.0
000240 00 00 20 c0 00 00 00 c0 00 00 c0 bf 00 00 80 bf
       -2.5 -2.0 -1.5 -1.0
000250 00 00 00 bf 00 00 00 00 00 00 00 3f 00 00 80 3f
       -0.5 0.0 0.5 1.0
000260 00 00 c0 3f 00 00 00 40 00 00 20 40 00 00 40 40
       1.5 2.0 2.5 3.0
000270 00 00 40 c0 00 00 20 c0 00 00 00 c0 00 00 c0 bf
       -3.0 -2.5 -2.0 -1.5
000280 00 00 80 bf 00 00 00 bf 00 00 00 00 00 00 00 3f
       -1.0 -0.5 0.0 0.5
000290 00 00 80 3f 00 00 c0 3f 00 00 00 40 00 00 20 40
       1.0 1.5 2.0 2.5
0002a0 00 00 40 40 00 00 40 c0 00 00 20 c0 00 00 00 c0
       3.0 -3.0 -2.5 -2.0
0002b0 00 00 c0 bf 00 00 80 bf 00 00 00 bf 00 00 00 00
       -1.5 -1.0 -0.5 0.0
0002c0 00 00 00 3f 00 00 80 3f 00 00 c0 3f 00 00 00 40
       0.5 1.0 1.5 2.0
0002d0 00 00 20 40 00 00 40 40 00 00 40 c0 00 00 20 c0
       2.5 3.0 -3.0 -2.5
0002e0 00 00 00 c0 00 00 c0 bf 00 00 80 bf 00 00 00 bf
       -2.0 -1.5 -1.0 -0.5
0002f0 00 00 00 00 00 00 00 3f 00 00 80 3f 00 00 c0 3f
       0.0 0.5 1.0 1.5
000300 00 00 00 40 00 00 20 40 00 00 40 40 00 00 40 c0
       2.0 2.5 3.0 -3.0
000310 00 00 20 c0 00 00 00 c0 00 00 c0 bf 00 00 80 bf
       -2.5 -2.0 -1.5 -1.0
000320 00 00 00 bf 00 00 00 00 00 00 00 3f 00 00 80 3f
       -0.5 0.0 0.5 1.0
000330 00 00 c0 3f 00 00 00 40 00 00 20 40 00 00 40 40
       1.5 2.0 2.5 3.0
000340 00 00 40 c0 00 00 20 c0 00 00 00 c0 00 00 c0 bf
       -3.0 -2.5 -2.0 -1.5
000350 00 00 80 bf 00 00 00 bf 00 00 00 00 00 00 00 3f
       -1.0 -0.5 0.0 0.5
000360 00 00 80 3f 00 00 c0 3f 00 00 00 40 00 00 20 40
       1.0 1.5 2.0 2.5
000370 00 00 40 40 00 00 40 c0 00 00 20 c0 00 00 00 c0
       3.0 -3.0 -2.5 -2.0
000380 00 00 c0 bf 00 00 80 bf 00 00 00 bf 00 00 00 00
       -1.5 -1.0 -0.5 0.0
000390 00 00 00 3f 00 00 80 3f 00 00 c0 3f 00 00 00 40
       0.5 1.0 1.5 2.0
0003a0 00 00 20 40 00 00 40 40 00 00 40 c0 00 00 20 c0
       2.5 3.0 -3.0 -2.5
0003b0 00 00 00 c0 00 00 c0 bf 00 00 80 bf 00 00 00 bf
       -2.0 -1.5 -1.0 -0.5
0003c0 00 00 00 00 00 00 00 3f 00 00 80 3f 00 00 c0 3f
       0.0 0.5 1.0 1.5
0003d0 00 00 00 40 00 00 20 40 00 00 40 40 00 00 40 c0
       2.0 2.5 3.0 -3.0
0003e0 00 00 20 c0 00 00 00 c0 00 00 c0 bf 00 00 80 bf
       -2.5 -2.0 -1.5 -1.0
0003f0 00 00 00 bf 00 00 00 00 00 00 00 3f 00 00 80 3f
       -0.5 0.0 0.5 1.0

layers.1.base_weight f4 [29, 107]
000000 05 5c 6e 3d 8b 97 83 bd 52 fa b8 be 87 bf 68 bc
       0.058193225 -0.06425389 -0.3612848 -0.01420582
000010 16 fe ab be 18 92 76 3e 3a 6d 8d be 7d 39 23 bf
       -0.3359229 0.24079168 -0.27622396 -0.63759595
000020 bf 04 a8 be 34 44 51 3e 35 4c 0d 3f b8 07 0b bf
       -0.3281612 0.20436174 0.5519441 -0.5430865
000030 78 18 89 bd 7e 37 45 be 9e c1 36 3e 6e a8 71 bd
       -0.0669412 -0.1925945 0.17847297 -0.058998518
000040 3d f5 d2 bd 50 cc b4 be 27 2f 93 be d8 65 9c bd
       -0.10300682 -0.35312128 -0.28746912 -0.07636613
000050 ec b8 80 bc 26 65 0b 3f 47 9f 94 3e 8f a1 e1 3c
       -0.015713178 0.54451215 0.2902777 0.027542857
000060 98 11 db 3c 75 14 cf be d1 bf 07 3e 6c cd 03 bd
       0.026741788 -0.40445295 0.13256766 -0.032178327
000070 d2 62 d3 3c 69 0b 40 be c8 f1 84 be 6f ac 09 bf
       0.025803957 -0.18754353 -0.25965714 -0.5377874
000080 df a9 ab 3d de d3 56 3d 1a d7 ca b9 00 60 de be
       0.0838201 0.052448146 -0.00038688706 -0.43432617
000090 10 1a e9 3d 55 08 22 3d 46 6a 2d 3e 1b 08 bf 3d
       0.11381924 0.039558727 0.16935071 0.09327718
0000a0 78 77 b0 3c eb 72 cd bd b7 5f 62 3d ab d8 c6 3c
       0.021541342 -0.100316845 0.055267062 0.024273237
0000b0 73 4e f0 bd e8 df 45 be 93 75 be 3c 6f bf cd be
       -0.11733713 -0.19323695 0.023249423 -0.40185115
0000c0 3b 88 9b be 0a d1 f9 bc 6f f4 ce be b3 e8 1e bf
       -0.30377373 -0.030495185 -0.40420863 -0.6207382
0000d0 63 59 1d 3e cc 98 09 bf be c4 7e be 69 d2 f4 bd
       0.1536613 -0.53748775 -0.24879739 -0.11954195
0000e0 a4 e7 d0 3c 97 f3 b1 3c 14 c7 09 3a ac a8 38 be
       0.02550108 0.021722598 0.00052558 -0.18033093
0000f0 94 48 b3 bd c5 8f 37 bd 7b ad b2 be d8 4f 12 bf
       -0.087540776 -0.044814844 -0.3489798 -0.5715308
000100 a1 4f e1 be 63 b9 af 3d 8c 7f 60 be 54 e7 3d be
       -0.44006065 0.085802816 -0.21923655 -0.18545276
000110 ed 34 02 bf 60 51 63 bd 53 c9 54 be 23 16 e7 bd
       -0.5086201 -0.055497527 -0.20779924 -0.11283519
000120 09 83 c3 3d 26 d8 0c be be 28 2d 3d 44 d8 de 3c
       0.09546477 -0.13754329 0.042275183 0.027202733
000130 74 1c b1 3d e6 d7 27 be 6a c0 a0 3e 17 dc 8d 3e
       0.08648005 -0.16390952 0.313968 0.27706978
000140 d4 94 28 be e8 86 45 3d 1f 78 30 bd 35 79 d9 bd
       -0.16463023 0.04822436 -0.043083306 -0.106188215
000150 87 45 9e be 3a df ef bd ec 30 c4 be 0f 19 35 be
       -0.3091242 -0.11712499 -0.38318574 -0.1768534
000160 0f 31 8f 3d e5 1e dd bd eb 96 38 be cd 92 84 3c
       0.06991779 -0.10796908 -0.1802632 0.016183281
000170 86 13 61 3d db a9 05 3d 48 67 6d 3e 24 1a ba be
       0.05495026 0.03263269 0.2318393 -0.3634807
000180 6e 56 a2 be 9b df 02 bf ff 15 8f be 08 11 de be
       -0.31706566 -0.51122445 -0.2794647 -0.4337237
000190 fe b0 f1 3e 1d 44 b5 bd 99 7b c9 bc 00 64 fe 3d
       0.47205347 -0.08850882 -0.024595069 0.12421417
0001a0 59 94 ad 3c 1a 2c 34 3e 4c c2 a8 bd 3b ba 44 3e
       0.021188902 0.17594948 -0.08240184 0.19211666
0001b0 72 68 95 be 9b 3c 84 bf 2d d4 47 bf 3e 21 33 3d
       -0.29181248 -1.0330995 -0.7805813 0.043732874
0001c0 99 dc 35 3f 12 55 2e 3e 8a a2 87 bf 80 1a 43 be
       0.7103973 0.17024639 -1.0596478 -0.19053078
0001d0 c7 37 33 be 04 26 1d 3d a3 8f 8d 3e 36 aa 1e bf
       -0.17501746 0.038366333 0.2764865 -0.6197847
0001e0 be 25 52 3f 5a aa e7 3d 55 8b b9 bd e2 9f f6 bd
       0.8208884 0.11311789 -0.090597786 -0.12042214
0001f0 f2 8b 43 bf 6f ab 8a 3d fa 6b f1 3e 85 b1 e3 3c
       -0.76385415 0.067709796 0.47152692 0.027794609
000200 82 f0 35 be 26 87 0e bf 6a 45 a2 3d 18 fc 43 bd
       -0.17767528 -0.5567497 0.07923396 -0.047847837
000210 70 83 96 bf 95 fb 73 3d 30 78 92 bd 7d 29 bb be
       -1.1758862 0.0595661 -0.0715183 -0.3655509
000220 1f 08 0c bf d3 f2 cd 3e e8 3c be bf 56 66 13 3e
       -0.5469989 0.40224323 -1.4862337 0.14394507
000230 a7 16 bc bd 87 81 84 be 75 3e 8e 3e aa c2 d2 be
       -0.09184008 -0.25880072 0.27782026 -0.41164142
000240 07 5e 2c 3f 07 a8 66 bf 78 50 f4 3e 43 b9 7e 3e
       0.67330974 -0.9010014 0.47717643 0.24875359
000250 c4 96 a1 3c d1 5b f8 3d 46 aa 80 3d 2d 44 bb bd
       0.019725211 0.121268876 0.06282477 -0.09143863
000260 d9 d0 3c 3f 24 91 30 3d 75 70 63 3e 4a 58 42 3d
       0.73756176 0.043107167 0.22210868 0.04744748
000270 84 16 95 3e 17 4a 83 bf ea 79 75 be 62 51 54 bf
       0.2911874 -1.0256985 -0.23972288 -0.8293668
000280 94 62 09 3f f0 d1 27 bd fd ae 20 bd c0 fa e0 3d
       0.53666043 -0.040971696 -0.03922938 0.10985327
000290 58 f7 14 be 19 cf eb 3d 6a 1c 88 3c d0 73 65 3e
       -0.14547479 0.1151411 0.016615111 0.2240746
0002a0 c3 1a dd 3d 3b 17 a5 3d 1a 75 df bf ac 99 56 bf
       0.1079612 0.080610715 -1.7457612 -0.83828235
0002b0 cb 54 53 3e b2 75 47 be e6 04 9f 3e 97 bb 5e bf
       0.20637815 -0.19478491 0.31058425 -0.8700499
0002c0 b7 2e 4e 3e 12 e0 6a be fc c7 35 be af 20 20 3e
       0.20135008 -0.22937039 -0.17752069 0.15637468
0002d0 e9 a1 1c be 2c 9e 0b bf b9 86 5b 3e 80 7a 6e 3d
       -0.15296139 -0.54538226 0.21438111 0.058222294
0002e0 fc ee c8 be 65 43 d0 be fe f3 85 be 23 31 94 3c
       -0.3924483 -0.40676418 -0.26162714 0.018089836
0002f0 f2 01 37 be 80 d6 9c be 43 7d 8d be bc eb d7 3d
       -0.17871836 -0.306324 -0.2763463 0.1054301
000300 39 9c c0 bc 56 7f 02 3f f7 b4 0f bd c1 69 25 bf
       -0.023511993 0.5097555 -0.03508469 -0.6461449
000310 13 f7 29 3f e8 f3 4c 3c 79 30 c4 3e 01 0a 87 3d
       0.6639263 0.012509324 0.38318232 0.06593705
000320 fc 11 ea 3d 57 dd 3d bf 4e e0 0a bf 70 db 54 bf
       0.114292115 -0.7416586 -0.5424851 -0.83147335
000330 a6 00 1b bf d1 eb 92 be e8 70 2d 3e 72 e1 e0 bd
       -0.60547864 -0.2869554 0.16937602 -0.109805
000340 c6 34 65 be 40 d2 86 bf f6 64 18 3f 4d 51 58 3d
       -0.22383413 -1.0532913 0.59529054 0.05281191
000350 df c7 c3 3d c2 38 82 3e 79 81 6e 3e 74 94 5e be
       0.09559607 0.25433928 0.23291577 -0.21736318
000360 6b a2 47 bf 0e ee 2d 3f 77 d7 fd be c6 08 9e be
       -0.77982205 0.6794137 -0.4957845 -0.3086607
000370 28 36 09 3f 86 fe db bf 55 44 aa 3e 10 a0 9a 3c
       0.5359826 -1.7187049 0.33255258 0.018875152
000380 84 bc c6 3e 07 e3 a0 bf 56 1f c1 3b e1 a5 08 3f
       0.388157 -1.2569283 0.005893628 0.5337811
000390 c9 a7 5a 3e 66 24 af 3e 9e 14 60 3d 42 2c 66 bf
       0.21353067 0.34207457 0.054707162 -0.8991128
0003a0 6b 7f 1f be 44 aa 20 bf bb 7c 4d bd 4a 84 54 be
       -0.1557595 -0.62759805 -0.05016778 -0.2075359
0003b0 a1 a6 10 bf d5 50 cb 3d e3 f3 29 bd ec 43 b5 3e
       -0.56504256 0.09927527 -0.041492354 0.35403383
0003c0 f9 54 22 bd a6 5c a5 bf e6 fd 9c 3c 7b 8b 6f bd
       -0.039631817 -1.2918899 0.019164037 -0.05848263
0003d0 18 fd f4 bf e6 a7 49 3f ac 08 a2 be 29 89 83 bd
       -1.9139738 0.7877182 -0.3164724 -0.064226456
0003e0 6d 31 70 3c b5 68 10 be 7c 11 60 bd 93 20 63 3e
       0.0146602215 -0.14102443 -0.054704174 0.22180395
0003f0 3c 0d 52 3d 37 d5 29 bb 9b 98 23 bd 44 bb 8f be
       0.051282153 -0.002591444 -0.039940458 -0.2807256

layers.1.spline_weight f4 [29, 107, 8]
000000 65 01 68 3e 1b 4f 77 be 04 59 02 be f6 a2 72 be
       0.22656782 -0.2415127 -0.1272927 -0.23694977
000010 bf 28 a9 be ad 98 50 3e 30 32 25 be 47 55 ab be
       -0.330389 0.20370741 -0.16132426 -0.334635
000020 a6 68 42 3f fc ac 73 3f 48 5c 98 3f 54 48 6b 3f
       0.7594093 0.9518583 1.1903162 0.9190724
000030 d8 40 a9 3e ed fe 25 3e c6 a1 f0 3d 9d 5e 3b bd
       0.33057284 0.16210528 0.11749606 -0.045744527
000040 bc 88 31 be be e0 61 3e db e8 fe bd 19 4a 43 3e
       -0.17337316 0.22058389 -0.124467574 0.19071235
000050 cd 7e 5f bc 62 ac 71 bd 47 d3 4b be aa 7d 96 bf
       -0.0136410715 -0.059002288 -0.19904815 -1.17571
000060 82 21 85 3d 58 ae 99 3e 75 68 a0 3e 1f e8 0d 3e
       0.06500532 0.30015826 0.31329694 0.13858078
000070 ab 05 ba 3d ab e2 5a be 4c 67 d2 bd 2d 70 21 be
       0.09083112 -0.2137553 -0.102736086 -0.15765448
000080 67 f1 f8 3d 96 d0 9d 3a e4 ab f1 bd 7b 5a 84 3d
       0.12155419 0.0012040313 -0.11800364 0.0646257
000090 1e bd 3f 3e 93 87 dd bd 08 a9 cc be 8a 89 e6 3e
       0.18724486 -0.10816874 -0.3997271 0.4502681
0000a0 5a 80 80 be c5 5b 23 be f7 7e ca bd 68 79 03 be
       -0.25097924 -0.15952976 -0.09887498 -0.12839282
0000b0 1a bc 33 3d 79 14 f9 bd 48 7d 00 be fd e7 73 bd
       0.04388056 -0.12162108 -0.12547791 -0.059547413
0000c0 bb 92 c7 bd 2a 8f 2c 3d 74 01 8f 3d 95 2d 5c 3e
       -0.097447835 0.04212872 0.06982699 0.21501763
0000d0 c8 cd 30 3e 4c c9 10 bf 84 8c c6 3d 70 bb aa 3e
       0.17266 -0.56557155 0.0969477 0.33346128
0000e0 ea e3 0b 40 4b 22 d6 3e 6c 70 51 be d8 d6 db be
       2.1857858 0.41823038 -0.20453042 -0.4293735
0000f0 b0 88 cf be 55 c9 f1 be d2 92 b1 be f9 37 9c bc
       -0.40533972 -0.47223917 -0.34682328 -0.019069659
000100 05 2e 4b be cf f0 dd 3c 4b da c9 3d 9c 7f 0c 3e
       -0.19841774 0.027092366 0.09856089 0.13720554
000110 aa a4 05 3e 7e 9e 9f bd cf 42 b2 be 73 6f 64 bf
       0.13051096 -0.07793902 -0.34816596 -0.8923256
000120 2c 1b 31 40 b2 0e 65 40 16 80 90 40 37 45 8c 40
       2.7672834 3.579022 4.5156355 4.383449
000130 bd 81 63 40 d6 cc e0 3f 4f b1 a3 bd d2 24 84 be
       3.5547936 1.7562511 -0.07992803 -0.25809342
000140 a1 2f f5 3e d0 c3 13 be 32 88 76 be 39 f1 c2 bd
       0.478879 -0.14430165 -0.24075392 -0.09518666
000150 ae af 51 3e 9f 43 f9 3c cd f5 a3 3d 07 09 99 3e
       0.20477173 0.030427752 0.08005867 0.298897
000160 43 f3 5c c0 28 ff d2 be 45 13 c3 3d 70 27 da 3e
       -3.4523475 -0.41210294 0.0952516 0.42608213
000170 25 06 e8 3e 75 c0 2c 3e 75 b2 71 3c e6 8a e9 bf
       0.45317188 0.16870292 0.01475202 -1.8245513
000180 42 d5 85 3e a3 43 8e bd 1f fa 69 bd 59 8e 7f 3d
       0.26139265 -0.069464944 -0.0571233 0.062391613
000190 a0 a7 f3 3d 32 c6 1f be 53 b6 7a bd 47 0f fe 3e
       0.11897206 -0.1560295 -0.061209034 0.4962103
0001a0 aa 6a e5 40 2d 72 2e 40 32 39 cf be 28 a4 cd bc
       7.1692705 2.7257187 -0.40473324 -0.02510269
0001b0 5f 0e 2c bd d6 1e 91 3d 50 42 62 3d 70 04 1d be
       -0.042005893 0.070859596 0.05523902 -0.15333724
0001c0 ec ed 81 be e0 fc 1d 3e 60 cd c4 bd 7c a0 32 3b
       -0.25376832 0.15428495 -0.09609485 0.00272563
0001d0 cc 1d 78 bd 80 49 da 3c 1d 99 0b 3e ec 0c be be
       -0.06057529 0.026646376 0.13632627 -0.37119234
0001e0 5d 4a bf bd e4 3c 65 3d 8c da 7a bd 18 35 e5 bd
       -0.093403555 0.055966273 -0.06124358 -0.111917675
0001f0 23 5d e0 3d 47 e8 72 3e 9a 04 63 be 77 c5 2e be
       0.109552644 0.2372142 -0.22169724 -0.17067514
000200 a2 46 1c 3f 5f cf 52 3e 04 2b 10 3e bb d8 3b bd
       0.6104528 0.20586918 0.14078909 -0.045860987
000210 9d fd e2 b8 8c 35 c3 3d 3d d1 82 bd 11 c0 8b be
       -0.00010823759 0.09531698 -0.06387565 -0.27294973
000220 ea 5e 8e bd 5c b9 ac be 36 4f 59 be 4b 77 c9 be
       -0.06951697 -0.33735168 -0.21221623 -0.39348826
000230 f2 7b 15 bf 1a 3a 48 bf 86 e9 1c bf f0 83 e8 3e
       -0.5839225 -0.78213656 -0.6129383 0.4541316
000240 01 7a c3 bd 16 1a 4c bd 50 44 f7 3d 5b e2 a4 3d
       -0.09544755 -0.049829565 0.120735765 0.080509864
000250 1b dd cd bd e6 4b ae be 86 16 7d bf d4 0c d2 be
       -0.10051938 -0.3404228 -0.98862493 -0.41025412
000260 43 f2 54 be 24 15 cf bd 8a c5 25 be a3 b9 7d be
       -0.2079554 -0.10111454 -0.16188636 -0.24777846
000270 51 66 ac 3d 2d 02 e9 bd 01 20 9a be 27 06 0e bf
       0.08417953 -0.11377368 -0.30102542 -0.5547814
000280 54 a4 ac be 8c 07 28 be 10 75 37 3e c8 b3 a8 3d
       -0.33719122 -0.16409129 0.1791575 0.082374156
000290 2f 75 a6 bb 61 b1 71 3d fe bf aa bd 88 85 9c bd
       -0.0050798873 0.059007052 -0.08337401 -0.076426566
0002a0 de e7 0d be 20 80 91 3d 80 4f 3a 3e 97 14 da bd
       -0.13857982 0.07104516 0.1819439 -0.106484585
0002b0 dc bf 0e be 44 d8 d1 3d 2a 56 ee 3d 06 eb aa 3e
       -0.13940376 0.102463275 0.11637528 0.33382434
0002c0 53 67 07 be af 1d 24 be ea 9b 10 bf 98 b8 9f be
       -0.13223009 -0.16026948 -0.56487906 -0.3119552
0002d0 8c 98 54 be 47 18 98 3e 25 78 c0 3e e9 c9 64 3f
       -0.20761317 0.29706022 0.37591663 0.8937059
0002e0 3d 45 48 be 3b e9 2d 3e 9a 4a 3a 3e 18 2f 87 be
       -0.19557662 0.16983502 0.1819252 -0.26403117
0002f0 ad 46 6c bd 8d e4 24 3e 83 a1 c1 bd 43 59 26 be
       -0.05768459 0.1610281 -0.09454634 -0.16244988
000300 e4 4d 06 3e cd 7e 35 3e e5 fb e9 3d ff 70 a5 be
       0.1311565 0.17724152 0.11424998 -0.32312772
000310 58 1b 25 bd 02 23 97 3d 05 84 82 be c8 9d 45 be
       -0.04030928 0.07379724 -0.25491348 -0.1929847
000320 45 cb 6b be 4e c4 c1 3c 11 50 b6 be 7c d7 8b bd
       -0.2302676 0.023653176 -0.3560796 -0.0682821
000330 9c 22 92 be 97 b0 0d bf 56 b4 10 bf 16 28 1c bf
       -0.2854203 -0.5534758 -0.5652517 -0.60998666
000340 59 e4 c0 3c 77 a7 50 bd e7 05 08 be 54 a8 88 3d
       0.023546385 -0.050940957 -0.13283502 0.06672731
000350 32 c1 e2 3d 4a b4 8a bb 44 b8 81 bd ef 40 e0 bc
       0.11072005 -0.004232918 -0.06333974 -0.027374713
000360 2d 4b 05 3d 2e 64 22 be 96 ba b6 be 66 dc 2c 3e
       0.032542396 -0.15858528 -0.3568923 0.1688095
000370 ae 8b ca 3e ba 7a 7a be fc 7e 66 3e bf 82 49 3f
       0.39559692 -0.24460879 0.22509378 0.7871513
000380 4d 90 3d be b3 12 a0 be c0 1e 65 be 0a d5 f0 be
       -0.18512078 -0.31264266 -0.22375011 -0.47037536
000390 c1 76 c0 be 80 9f 5c be a8 c4 2d be 2a 76 74 3e
       -0.37590602 -0.2154522 -0.1696955 0.23873201
0003a0 a5 d5 af be 6d fa e2 3e 75 96 20 3e af 61 99 3d
       -0.34342685 0.44331685 0.15682395 0.07489335
0003b0 4f e6 47 3d ed f6 2e 3e 4c d2 32 3f 97 78 60 bf
       0.048803624 0.17086382 0.6985214 -0.87684005
0003c0 aa 5d 08 3f d8 5a 33 3f 6f 2b 17 40 c3 cf 76 40
       0.5326792 0.7006049 2.362026 3.8564308
0003d0 d3 e3 ae 40 dc 36 9a 40 e2 be a5 40 c4 74 99 40
       5.4653106 4.8191967 5.179551 4.7955036
0003e0 b1 8a 80 3e 28 62 85 bd 85 45 4a bc 0c 5f a6 3d
       0.25105813 -0.065128624 -0.012345676 0.081235975
0003f0 f1 fe 82 3c b7 da 21 3e 24 92 a5 3e d6 72 5e 3f
       0.015990706 0.1580609 0.3233806 0.86893976

layers.1.spline_scaler f4 [29, 107]
000000 f1 7c 65 3d eb 38 ae 3e fd 62 85 bd 73 26 4c 3e
       0.056027357 0.340278 -0.06513021 0.19936542
000010 2e d7 07 bc 78 bc ee bd 9b 61 f8 3c 76 9d e4 be
       -0.008291049 -0.11657041 0.03031998 -0.44651383
000020 4a 75 37 3d 63 40 2d bf c1 fe 72 be 6d 6a 10 3f
       0.04478959 -0.6767637 -0.23729993 0.5641239
000030 7e 7a a5 3b cc 46 17 3d 7c 5c 4e bd 03 17 3f 3d
       0.0050500026 0.03693275 -0.05038117 0.046652805
000040 a3 00 c0 3e 88 c0 52 3e 5d a2 f0 bc 62 84 98 3d
       0.37500486 0.20581257 -0.029374296 0.07447125
000050 bd 92 95 bd 7b 80 60 bd 31 46 76 be c1 90 57 3d
       -0.07303379 -0.05481003 -0.24050213 0.052628282
000060 ab 88 a9 bd 95 d7 f8 3d 82 41 13 3d c9 45 b8 bd
       -0.082780205 0.12150494 0.035951145 -0.089976855
000070 77 bb 20 be a5 a4 ce bd c0 de 7d bf ab c9 b7 3c
       -0.15696512 -0.10089997 -0.99168015 0.02243503
000080 8d ed 1d 3c cd 95 59 bb 4c fe ee bd ff 7e 8d bd
       0.009639156 -0.003320086 -0.11669597 -0.06908988
000090 4e 26 1e 3e 86 6b 79 3c 3b ce c1 bc bb 33 d1 bb
       0.154443 0.0152233895 -0.023657909 -0.0063843406
0000a0 ad 0d 2e bd ed 12 7b bb d1 cf 54 3c 13 32 91 bd
       -0.04249351 -0.0038310841 0.012989 -0.07089629
0000b0 09 df d7 3c 8b 08 88 be c9 19 a3 3b fe 67 a3 bd
       0.026351469 -0.26569018 0.004977439 -0.07978819
0000c0 7b ff 18 bd 53 fa 8f 3a 70 87 c7 3c a8 6d 14 bf
       -0.03735302 0.0010984637 0.024356574 -0.5797982
0000d0 40 13 40 bc 23 c2 94 be 4b 08 ae bb 8b 09 c1 bc
       -0.01172334 -0.29054365 -0.005311047 -0.02356412
0000e0 64 a7 d3 bd d2 83 96 36 13 55 8b 3d 08 0f 99 be
       -0.103346616 4.4856943e-06 0.06803336 -0.2989428
0000f0 02 df bf bc 25 90 2d bc 03 b1 56 3c 76 86 c5 3b
       -0.023421768 -0.010593449 0.013103726 0.006027992
000100 4d c6 d1 3d cc d2 25 3d d6 7d 94 bd 29 c8 44 bd
       0.10242901 0.040484235 -0.07250564 -0.04804245
000110 cb 05 44 3c 73 b7 ea 3b 7d 40 b6 3d 10 a2 ee 3a
       0.011964272 0.007162982 0.08899019 0.0018206257
000120 b4 d7 16 3f a0 f0 60 3d 21 10 ad 3c af 8d 73 bd
       0.58922887 0.054916978 0.021125855 -0.059461292
000130 de d4 cf 3c d7 c7 2e 3e 43 2a 44 3e 98 1e 8c be
       0.025370058 0.1706842 0.19156747 -0.2736709
000140 19 95 6f 3e b2 40 c0 3c 88 75 b6 3c 60 b4 e8 be
       0.2339672 0.02346835 0.02227284 -0.45450115
000150 bf fb b6 bd 1d e2 64 3c a3 39 29 be 62 40 c8 3e
       -0.089347355 0.013969925 -0.16525893 0.3911162
000160 ae 20 2f bd 89 b5 32 bc c6 e1 d5 3d d4 f3 94 3b
       -0.042755775 -0.010907539 0.104434535 0.004545668
000170 65 f5 8a 3d 30 f7 93 3d a4 57 e8 bc 37 ab 73 3e
       0.067850865 0.07224882 -0.028362103 0.23795782
000180 78 11 c2 3d 67 fc 22 be b2 95 e2 3b fe fe 3c 3c
       0.09475988 -0.15916596 0.0069148177 0.011535404
000190 f1 74 61 3c bb fc 31 3d fb ab 94 3d 46 9d 1f bd
       0.013760791 0.043453913 0.07259365 -0.038968347
0001a0 45 d8 90 3b 5a 18 03 bd c0 48 fa bc 9a b4 04 3f
       0.0044203126 -0.032005645 -0.030552268 0.51838076
0001b0 ee de e2 3e f2 60 ab 3d 53 73 20 3e 6b 5e 1c 3f
       0.44310707 0.083681 0.15668993 0.6108157
0001c0 46 da 31 bf 7f 4c be be 04 c8 02 bd 2a 2b e9 3d
       -0.69473684 -0.37167737 -0.03192903 0.11385186
0001d0 f0 fb 8a 3f bd 20 26 3f 8e c5 9b 3f a1 e4 f9 be
       1.0858135 0.64893705 1.2169664 -0.48807243
0001e0 a0 98 01 c0 16 07 16 be 4a b6 45 be d1 51 bf be
       -2.0249405 -0.1465114 -0.19307819 -0.37367108
0001f0 87 77 21 3e ab 3d c0 be 39 40 de 3e 19 59 41 bf
       0.15768252 -0.3754705 0.43408373 -0.7552658
000200 9a 40 75 3d 92 1b 73 3f b6 d7 b5 3c eb f9 f3 3e
       0.059876062 0.94963944 0.022197586 0.4765161
000210 ec 09 1d 3f bf a3 3f be 89 26 b3 bf 27 72 43 bd
       0.61343265 -0.18714808 -1.3996135 -0.047716286
000220 37 b2 c5 3e 05 b4 38 be 05 61 3b 3f e3 ef 85 3e
       0.3861253 -0.18037422 0.73194915 0.26159582
000230 9a 0f 79 bf 78 ca 76 3e fa 93 1a 3e 23 f8 96 3e
       -0.9728943 0.24100673 0.15095511 0.29486188
000240 8f c9 19 bd e3 ca a6 3e 9b 76 1e bf b3 4e 1a 3f
       -0.037545737 0.32576665 -0.6189973 0.60276335
000250 4b 60 b0 be 71 49 cf 3e 94 d0 a5 be eb fe 87 3e
       -0.34448466 0.4048572 -0.32385695 0.26561674
000260 6b 87 1f bf 71 fd e6 3d ea cb 8e 3f d0 fc dd be
       -0.62316006 0.11278809 1.115598 -0.43356943
000270 3b 8b b4 bd 11 f1 0a 3f c0 9d 59 3f d5 56 c6 3e
       -0.088156186 0.5427409 0.8500633 0.38738123
000280 e7 bc 39 3f 2a d0 02 be 4d 7c ed be a7 c0 95 be
       0.7255387 -0.12774721 -0.46383896 -0.29248545
000290 e3 ea 26 3c 04 69 08 3e 11 d4 87 bf 9a aa b5 bb
       0.010187837 0.1332131 -1.0611593 -0.005544019
0002a0 4b b6 52 3e 10 0b ec be d9 67 0c bf 92 0c fb 3e
       0.20577352 -0.4610219 -0.5484596 0.49033028
0002b0 20 9d aa bd de 7b 1f 3f 0e d2 19 be 28 63 41 3e
       -0.083307505 0.6229838 -0.15021536 0.18885481
0002c0 7f f3 5c bf 19 48 3c be 47 3e ff 3e e3 9e cc be
       -0.86309046 -0.18386878 0.498522 -0.3996497
0002d0 ef 85 31 3f 51 1d f2 be 73 59 47 bf 52 10 ef 3c
       0.6934499 -0.47287992 -0.77870864 0.029182587
0002e0 c8 a7 62 3f 2c 50 36 bf ca da cb be 2c 65 68 be
       0.88537264 -0.7121608 -0.3981536 -0.22694844
0002f0 29 61 ac 3d e4 0b b0 be 55 ca 0f bf ab 7d db 3e
       0.08416969 -0.34384072 -0.5616811 0.42869315
000300 b5 e5 04 be 2a 40 ff 3e 32 c7 a6 be e5 fa 9b bf
       -0.12978251 0.4985364 -0.3257385 -1.2185942
000310 98 ac 61 bf db 23 69 3e b7 3f 2a bf 70 e7 54 be
       -0.8815398 0.22767584 -0.6650347 -0.20791411
000320 4d ed bc 3e 97 b1 29 bf 65 7e 21 bf 43 95 28 3f
       0.36899796 -0.66286606 -0.6308349 0.65852755
000330 8e ef 4e 3f f2 04 e4 be 4a 4c 89 be 34 35 8b bf
       0.8083428 -0.44535023 -0.26816016 -1.0875611
000340 1f 78 97 3e c0 73 88 3f 79 08 4c 3f fc 42 2f bf
       0.29583833 1.0660324 0.7970043 -0.68461585
000350 7b 6f 45 be a6 1b b6 3e a6 51 c3 3e 1a 1a 81 be
       -0.19280808 0.3556797 0.3814823 -0.25215226
000360 2f 1c c9 3d 6d 5b b0 3e ba 0b f9 bd 61 fd 2a be
       0.09819829 0.34444752 -0.1216044 -0.16698219
000370 08 39 10 bf f0 1a 67 be df 0f cf 3d 77 9a 84 bd
       -0.5633702 -0.2256887 0.10110449 -0.06474774
000380 ee c4 99 3d 61 3e 90 3f 0e bd fe bc b5 1c 21 40
       0.075082645 1.1269037 -0.031096008 2.5173771
000390 04 75 a1 bd 77 69 84 3c 35 4b da bd 39 8e 27 3f
       -0.07883647 0.01616357 -0.10658876 0.6545139
0003a0 be c3 01 be 3e 48 5d 3f 1d 05 aa 3d b9 f7 59 3e
       -0.12672326 0.8643836 0.083017565 0.21285905
0003b0 48 9c ab bd 76 08 8b bd 2f 54 2e 3e 22 2f 76 3f
       -0.08379418 -0.06788723 0.17024301 0.9616567
0003c0 35 c7 5d 3e df 22 2e 3f cd a3 05 3f a6 1c 31 3f
       0.21658023 0.6802196 0.52203065 0.6918434
0003d0 be 74 75 bf 65 93 31 bf 50 0d 5e bd 25 9d c7 bd
       -0.9588126 -0.6936553 -0.054211915 -0.0974677
0003e0 38 1c e4 be 0a 6a f8 3d 10 e5 0a 3f 09 d7 86 3e
       -0.4455278 0.121296 0.5425577 0.26335934
0003f0 d0 a5 2f 3d e5 a7 06 be 19 52 96 bd d3 78 8a 3e
       0.04288274 -0.13149984 -0.07339878 0.27045307
