results_N50_tr30_v10_te10/fourier_kan/best_model.pt (torch, 461160 bytes, 4 tensors)

layers.0.fouriercoeffs f4 [2, 64, 195, 4]
00000000: 1ebf 943d 9cc5 7c3d dd5a 143d e26a 62bd
00000010: a4b5 cc3c 01fc 27bc 1475 f53b 8749 bcbc
00000020: 5b1a e4bc 9d11 383c 6753 7c3c 4f71 a7b8
00000030: c5f0 ccbb 0a7f 6c3c 930a 7bba 7a1a c1bb
00000040: eb61 0a3d 35b9 c63b bfe9 b8bc 3879 d23a
00000050: ff18 7ebd fd8c fa3c 19c4 523b 7367 f7bb
00000060: 1e46 463d bced 1c3d c1a0 be3c b8fc 0c3d
00000070: 04da 4ebc 7fb8 5b3c fc45 fdbb 7702 c23c
00000080: 04be 46bd f9ce 1bbd e914 f7bc 039c 093d
00000090: 7f2d 293c e2c0 56bb 6f9f 733c a152 d4bc
000000a0: 0a5e 95bd 1914 383c 33c9 13bd bbae 9d3b
000000b0: 9d27 21bd 55c7 313d 0a26 0dbd f1c1 2f3c
000000c0: 87d5 0fbd 593a 29bd 30ee dabb 9de9 b5bb
000000d0: e479 60bc 2d86 fe3c 2a21 02bc e0f2 3fbc
000000e0: 0ec1 15bd 8a9e 26b9 deb5 28ba 3420 b63b
000000f0: d894 cfbb b9a3 3d3d 990b 66bd 894d ae3c
00000100: 1c03 c93c 9d97 a7bb f1f4 3fbc 0158 293c
00000110: 0906 e93c 6f11 e7bb a471 80bc 459d 433d
00000120: d4c7 cebc 94ca 6b3c 41ef f3bc 5732 d73c
00000130: 7387 4d3c 6d42 9e3b 6629 31bd 1df6 e83b
00000140: f440 103d 0469 c23c e93a c5bb 67f6 f73c
00000150: dab5 a3bc db77 123c 6e95 013d 4280 033c
00000160: 124f 853d 1df6 af3c 9422 66bb 8abf abbc
00000170: bfa5 67bd 3311 17bd 1ffb 133d 8097 27bd
00000180: 0ccd b0bd 0a22 ce3c 9849 f73c 6dc6 963c
00000190: fb76 f93c 37ac 433c 2a20 02bb 4915 b1bd
000001a0: e222 debb ceed f43c c99f 6a3c fc0d dcbb
000001b0: 7648 133c 99f1 ba3c a377 46bc fa37 23bc
000001c0: 8793 aabd 99f4 f8bc 912b 6abd 8821 7f3c
000001d0: 0e06 fd3c e824 0bbc 7017 04bd 762a 9bbc
000001e0: 77dd 133c f683 8dbc 2059 f93b cc4d 6cbb
000001f0: 94fd 573d af22 dd3c 296f 2b3d a845 013d
00000200: 287c 513d dd34 bb3b 1106 a1bd 4b5f b4bd
00000210: 6d29 06ba 7dd4 803d 35fb ef3c 18ea db3c
00000220: d748 833d 676b e93c 4472 02bd 8e33 8f3d
00000230: bb54 44bc 9f4d 183d 9692 a7bc d9a8 cd3c
00000240: 2a9c b5bc 05f4 1d3d 357a 393d 1796 3d3c
00000250: d848 0b3c da4c 3bbc dc9f 41bc 6a39 063c
00000260: 3741 423c 521a a13c 82e9 d4bc 0712 103c
00000270: 067d aabd 660c babb d28b 25bd ad03 3b3d
00000280: 291e afbc 1bb4 2f3c 62c6 a13c 2930 14bc
00000290: 8f11 a33c 6ed7 75bc 5e9f 0ebb 81ac 6d3c
000002a0: 0439 5bbd 58fe c13c 6492 f73b dc06 b2bc
000002b0: f54e 91bd c366 713c ba9e f9ba d42f d13b
000002c0: b2e0 d8bc c71b 0d3c fa5a d1bb 6ae5 833b
000002d0: bfa2 12bd edd7 7fbd 1d8c 14bd 3c66 66bc
000002e0: 54d6 29bc 65f8 d83b de60 5dbc 12e9 563c
000002f0: 0d3d 233d 2dc4 afbc 63c6 823c fcc0 333c
00000300: 391f 6f3d ac07 9bbc 92d4 e63c 72cc 99bc
00000310: c0c0 7abd a1ae 88bc 54c2 8bbc 762e 07ba
00000320: 0186 7bbc 7106 543c 1733 c73b f400 e5bb
00000330: 1e90 8e3a 624d a23c 2cb2 103d 0182 13bb
00000340: b124 94bc d639 cfbb ab56 a63c 92ff edbc
00000350: 29c4 913c 27b5 423c abad a53c 5b45 21bc
00000360: 44b3 a1bc 80d6 a83c 2007 96bd c085 2d3d
00000370: 3de8 c83c b11b f1bc 0826 81bc 8564 e73b
00000380: 4dba a43c 22a5 813d f30b e53c 1143 38bd
00000390: f3a8 d9bb 0beb 113c f63d 073a ff03 b23b
000003a0: fe30 26bc 7298 9dbb 9d4c 9fbc 8f76 b53c
000003b0: 02a1 083d e36b 233d 5139 383d f052 743d
000003c0: b1e6 8dbd 394a 4bba 3f4f 86bc d2a2 553d
000003d0: f795 e7ba 3252 893c 15d3 453c 7212 013d
000003e0: 04b7 273d 11f1 36bd d660 c23b 114f b0bc
000003f0: 6d3d c93c a840 e83c 1748 933c 6ace a03c
0.07263015 0.061711892 0.036219466 -0.055277713 0.024988957 -0.0102529535 0.0074907634 -0.02298428
-0.027844599 0.011234668 0.015400744 -7.984286e-05 -0.006254288 0.014434585 -0.0009576466 -0.005893049
0.033784788 0.006064559 -0.022572396 0.0016057855 -0.062035557 0.030584807 0.003216034 -0.007550174
0.048406713 0.03831266 0.023270013 0.0344207 -0.012625221 0.0134106865 -0.00772929 0.023682816
-0.048521057 -0.03803918 -0.030161338 0.03359605 0.0103257885 -0.0032768776 0.014869555 -0.025918307
-0.07293327 0.01123526 -0.03608055 0.0048120893 -0.03934442 0.04340299 -0.034460105 0.010727392
-0.035115745 -0.04131541 -0.006681226 -0.0055515305 -0.013700936 0.03106984 -0.007942477 -0.011715621
-0.036561064 -0.00015890054 -0.0006435792 0.005558038 -0.006334882 0.046298716 -0.056163404 0.021277206
0.024537615 -0.0051145093 -0.011716113 0.010335923 0.02844526 -0.007051639 -0.015679188 0.047757406
-0.02524177 0.01439156 -0.029777171 0.026269121 0.012544501 0.004829696 -0.04325237 0.007109417
0.035218194 0.023731716 -0.0060189855 0.030268861 -0.019984175 0.008939709 0.031636648 0.0080261845
0.06509222 0.02147966 -0.0035115825 -0.020965356 -0.056554552 -0.036881637 0.03612816 -0.040915966
-0.086328596 0.025162715 0.03018646 0.018405164 0.030452242 0.011942915 -0.0019855597 -0.08646638
-0.0067790607 0.02989855 0.014320322 -0.0067155343 0.008989444 0.02282028 -0.012113485 -0.009962076
-0.0832892 -0.03039007 -0.057170454 0.015571959 0.030886676 -0.008492686 -0.032248914 -0.018941145
0.009024969 -0.017274838 0.0076095015 -0.0036057113 0.052732065 0.026994077 0.041854057 0.03156057
0.051143795 0.005713089 -0.07862485 -0.08807238 -0.0005117867 0.06290529 0.02929459 0.026845023
0.064103775 0.028493596 -0.031847253 0.06992255 -0.011983092 0.0371834 -0.02045564 0.025104927
-0.022169191 0.038562793 0.04528256 0.011571429 0.008501254 -0.011431897 -0.011817899 0.0081923995
0.011856369 0.01966587 -0.025990251 0.008793361 -0.083246276 -0.0056777475 -0.040416546 0.045657802
-0.021376686 0.010724093 0.019747917 -0.009044685 0.019905834 -0.015004976 -0.002176247 0.01450646
-0.05352117 0.02368085 0.007555293 -0.021731786 -0.07095138 0.014733973 -0.0019044497 0.0063838754
-0.02647433 0.00861258 -0.006389019 0.004025151 -0.035799738 -0.062461782 -0.036266435 -0.0140624605
-0.010366041 0.006621408 -0.0135118645 0.013117092 0.039853144 -0.021455849 0.015963739 0.010971304
0.058379386 -0.018924557 0.028177533 -0.018774245 -0.061218977 -0.016684832 -0.017060436 -0.00051567645
-0.015351773 0.012940989 0.0060790884 -0.006988639 0.001087669 0.01981229 0.035326168 -0.0022507908
-0.018083902 -0.0063240333 0.020304998 -0.02905253 0.017793732 0.01188401 0.020224413 -0.009843196
-0.0197388 0.020610094 -0.07325578 0.042363882 0.024524802 -0.02943215 -0.015765205 0.0070615434
0.020108366 0.06330325 0.0279598 -0.044985835 -0.006642455 0.008906136 0.0005159074 0.0054326053
-0.010143517 -0.0048094327 -0.019445712 0.02215126 0.033356674 0.03989781 0.044976536 0.059649408
-0.069287665 -0.00077548955 -0.01639521 0.05215723 -0.0017668594 0.016762827 0.012074252 0.03151173
0.04094602 -0.044663493 0.005931954 -0.021522077 0.024565423 0.028351143 0.017978711 0.019629676

layers.0.bias f4 [1, 64]
00000000: 9cd0 033c 3b2e 913b f761 2a3b f236 acbb
00000010: e397 24bc ad62 eebb 53a4 18bb 891c c8ba
00000020: 0009 12bc 1af7 e239 7246 d33a 4312 3dbb
00000030: 17ce 4f3c 053a 5dbb 3296 e43b d68f e4bb
00000040: 3c87 ec3b 65c4 c73a 7c01 e9bb e015 64bb
00000050: bb4a 9f3b d55a 86bb 4406 b13b 4a76 92bb
00000060: b1ad 913c d47b 65bb 0a75 21ba 5b9c a0bb
00000070: 1e08 9b3b 61ae 473c 57e8 febb e63b 1cbc
00000080: 1d3e af3b cd8c 773b 0ab1 06ba abb9 68bb
00000090: a3b6 f6b9 ad3b 9d3b 1c76 0b3c d1b1 8cbb
000000a0: 19e2 ad3b af7c d1ba f7fd baba 8e32 f13a
000000b0: 98d0 293a 0174 2438 6bed c93a 0ca2 40bb
000000c0: 84b6 45b9 70c5 24ba 9bb0 d43b 755b 4bbc
000000d0: a7fc 97bb c03f 0dbb 4dab a6bb c6b7 2dbc
000000e0: b042 213b 987b 49bc b75c 1bba 5139 473a
000000f0: e21d 8bbb 9262 66bb 32a1 b5bc 8f10 6bbc
0.008045342 0.00443056 0.0025998333 -0.0052555734 -0.010045978 -0.0072749467 -0.0023291304 -0.0015267293
-0.008913279 0.00043290184 0.0016119017 -0.0028849996 0.012683413 -0.0033756506 0.0069759125 -0.0069751544
0.0072182696 0.0015241025 -0.0071107727 -0.0034803078 0.0048612035 -0.0041001835 0.0054023582 -0.0044696676
0.017783018 -0.0035016434 -0.0006159103 -0.0049014515 0.0047311923 0.012187571 -0.007779162 -0.009535765
0.0053479807 0.0037773133 -0.0005138075 -0.0035511057 -0.0004705685 0.0047983737 0.008512046 -0.0042936583
0.005306494 -0.0015982593 -0.0014266361 0.0018401907 0.0006477921 3.9208684e-05 0.0015405839 -0.0029393462
-0.00018855376 -0.0006285524 0.0064907796 -0.012411942 -0.004638273 -0.002155289 -0.0050863386 -0.010602897
0.00246064 -0.012297533 -0.00059265964 0.00075997884 -0.0042455057 -0.0035153967 -0.02217159 -0.01434721

layers.1.fouriercoeffs f4 [2, 29, 64, 4]
00000000: 6b12 67bd 7837 193e 9aab 483e c0a2 1abe
00000010: 36cc a5bd f17c 873c 6950 9fbd 7337 4cbe
00000020: 1b7e f0bd 7b7e c6bd 43d9 5bbc 8e97 4bbe
00000030: a4fc b53d 7ab6 81bc 64aa c9bd 373a e2bd
00000040: 5015 25bd 80ab 6cba b46d 0b3e 5dd6 e73d
00000050: 8baa b23d a97b 52bc 6394 9f3d fd3e 943d
00000060: 35bf 33bd bacc c1bd 74c1 febc b9c2 70bd
00000070: 753e 6ebd fb20 8b3d e3d3 32bc 39b9 85bd
00000080: 9f7b d23c 3112 e4bd e86f 883b ab3d 9cbd
00000090: 1e24 14be 5096 18bc dd41 b03d 2ce1 173d
000000a0: 5e8f 6d3c 85ee 043d 34cd 9fbb ff4b 053e
000000b0: 5818 a9bd b2c9 42bb 3fda 993d 71e0 b4bc
000000c0: c638 cbbd 8c46 b0bd 83f6 a0bd 444f 9ebd
000000d0: 22b5 0ebc 195c 33bc 3187 853d 240c e13d
000000e0: 20dc 5fbd 99f6 123d 2924 2e3d 7db6 d03d
000000f0: cfa5 fb3b 8251 79bd 4f66 bb3d 6a98 c43c
00000100: 5871 04bc e100 c0bd 81f7 a83b b291 0fbe
00000110: 90dc dcbc 9061 82bc 69f3 253d f83f 05bd
00000120: 3ec3 93bd f862 ec3b ccf0 aabd 4671 40bd
00000130: ff8a 32bc ce06 c83c 9cb0 d7bc a3ea 223d
00000140: 4ec6 bfbd 1e51 32bb 24ed 14be 8a83 5cbc
00000150: 9d9d 0dbd 21c0 3e3d 22ab bebd 77f3 953d
00000160: 63b6 623b 9e50 28bc 7e1c 073d 0ba3 0b3d
00000170: 125d bcbd 7dde f5bd 59b9 c9bd 4e1c b33e
00000180: ef04 47bd 4912 3bbb ceb5 853d 007a c23d
00000190: 15fe 733c 4aab 3abb c74d a03c 5fed 9a3d
000001a0: 93be 35bd fb3a e33d 4821 5d3e f60f f8bc
000001b0: 9875 20bc c107 d63d fc43 8e3d 10bd 03bd
000001c0: 0dbe 46bd 27b5 81bd 7c22 a3be d624 4ebe
000001d0: 0952 eb3c f1cf fc3d e203 a43b 5ba6 673d
000001e0: 15f3 1cbe 707b 0f3e cc5d 123e c229 08bd
000001f0: 0762 15bc a29d dfbd 972a 453d 8feb 01bd
00000200: b862 9dbd 433e be3d 7e91 943b 53b4 e43c
00000210: 793e 85bd 1300 233d e93f 843d f233 973d
00000220: 06d7 b73b b0ec c53d adbb 59bd b343 333c
00000230: 5d40 3fbd df6b d8bd f898 99bd 2b1d 2e3d
00000240: 273a ed3c 55f4 603c 84aa b33d 8668 e1ba
00000250: b377 f0bd e266 2ebd 7243 60bd edd3 0b3e
00000260: 5228 aabd 7287 bbbd f222 00be 466c 5ebd
00000270: 33ec c53c abed 913d 1f95 4b3b 6000 3bbd
00000280: 03ef c93d de3f 42bd 90d6 1fbd 23a2 783d
00000290: 2997 80bd c2ed abbc 4371 8fbd 13d5 8dbd
000002a0: 3653 9b3d cccb 203c a737 e93d c670 4bbd
000002b0: 3f13 b039 a339 7d3d 1e8d a2bc bf40 ef3d
000002c0: c63f fcbd ece9 b9bd 4ec0 aebd 5f4e aa3c
000002d0: 2a1e 8bbd b53f a4bc aab7 07be 6873 12bd
000002e0: 1f85 27bd 2933 b1bd a022 01be d127 b23b
000002f0: 2c88 2bbe 8f60 753d 6acb a3bc 811a 80bd
00000300: 413b 08be 92e2 c5bc cb6b 223e 8172 c7bd
00000310: a63a 23bd b47e 2dbd 3302 ec3c b8cf 9bbc
00000320: 4e6e 313d a7f5 da3c 2597 db3d d1c6 353c
00000330: b0a4 f2bd 1250 3f3c 4cf2 7abb 3cf9 42bc
00000340: a8ff b8bd a6d0 4fbc f169 85bd 47b1 f6bd
00000350: 073b 21bd aa20 00bd 385f 703d 17d5 dcbd
00000360: 38ed 1bbb 9a23 1cbd 6325 2a3d d595 193d
00000370: 396f 37bd 27f4 843c a670 573d 990b 9c3d
00000380: b261 8bbd f8e3 9e3d ee7d f7bb d27d 023d
00000390: 948c 743c ea2f 2a3d e07d fd3d f38c 0f3e
000003a0: 64df 94bd 400e e53b 89fc ddbc 1566 ec3d
000003b0: 0392 bcbd 914c debc 52ba fbbd 052c 693d
000003c0: 3c64 e8bd 1591 89bc 72fd 1fbd 4ab9 70bd
000003d0: 2674 80bd 35e6 23bd aaa5 8bbd dcb0 fbbd
000003e0: de27 aabb 6dd4 28bd 506a d4bc e9ac 00ba
000003f0: c8d4 dcbb 2070 bc3d 36a1 babd b79c 003d
-0.05641405 0.14962566 0.19596711 -0.15101147 -0.08095591 0.016539069 -0.07779009 -0.19943027
-0.11742803 -0.09692093 -0.013418498 -0.19882032 0.08886078 -0.015834082 -0.098469526 -0.1104626
-0.04030353 -0.0009028241 0.13616067 0.113201834 0.08723935 -0.012846866 0.077919744 0.072385766
-0.04388352 -0.094628766 -0.031098105 -0.058779452 -0.058165032 0.067934 -0.010914776 -0.06529469
0.025693713 -0.11136282 0.004163731 -0.0762895 -0.14466903 -0.009313181 0.086063124 0.037079975
0.014499513 0.032454032 -0.004876757 0.13017271 -0.08256596 -0.002972227 0.0751233 -0.022079678
-0.09922938 -0.08607206 -0.078595184 -0.077299625 -0.008710178 -0.010947251 0.06519926 0.10988644
-0.054653287 0.035879705 0.042514954 0.10191057 0.007679678 -0.060868748 0.09150373 0.023998458
-0.008083664 -0.09375168 0.005156458 -0.14020422 -0.026960641 -0.015915662 0.040515337 -0.03253171
-0.07214974 0.0072139464 -0.083467096 -0.046983026 -0.010897397 0.024417307 -0.026329331 0.03977455
-0.093639955 -0.0027208994 -0.14543587 -0.013459096 -0.03457414 0.046569947 -0.09309985 0.07321828
0.0034593574 -0.010273127 0.032986157 0.034091037 -0.09197439 -0.12005327 -0.098498054 0.34982532
-0.04858869 -0.0028544834 0.06528817 0.09495926 0.014892121 -0.0028483444 0.019568337 0.07564806
-0.0443712 0.11095234 0.21594727 -0.030281048 -0.009793662 0.10450698 0.06946561 -0.032162726
-0.04852109 -0.0633338 -0.31862247 -0.2013124 0.02872564 0.12344349 0.0050053457 0.056555133
-0.15327103 0.14011931 0.14293593 -0.03324295 -0.00911761 -0.10918738 0.04813632 -0.031718787
-0.07684845 0.09289219 0.0045339456 0.027918017 -0.06506056 0.039794993 0.064575024 0.07382955
0.0056103496 0.09664285 -0.053157497 0.010941434 -0.04669224 -0.1056745 -0.074998796 0.042508285
0.028958393 0.013730128 0.08772758 -0.0017197288 -0.11741581 -0.042578585 -0.05475182 0.13655062
-0.08308472 -0.091566935 -0.1251333 -0.054302476 0.02416048 0.0712541 0.0031064225 -0.045654655
0.09860041 -0.04742419 -0.039022982 0.0607015 -0.062788315 -0.020987395 -0.07004025 -0.06925406
0.075842306 0.009814214 0.11387568 -0.049668096 0.00033583675 0.061822545 -0.01984268 0.11682271
-0.12316851 -0.0907782 -0.08532773 0.020789323 -0.06792863 -0.02004991 -0.13253656 -0.03575459
-0.04089844 -0.08652336 -0.12610865 0.0054368754 -0.16751164 0.05990654 -0.019994456 -0.06255055
-0.13303854 -0.024155889 0.15861432 -0.09738637 -0.039850853 -0.04235716 0.028809642 -0.019019946
0.043318085 0.026728464 0.10722188 0.011094765 -0.11847818 0.011676805 -0.0038291393 -0.011900242
-0.090331376 -0.012684023 -0.06514347 -0.12045532 -0.039362933 -0.03128115 0.058684558 -0.10782831
-0.0023792516 -0.03811989 0.04153956 0.037496407 -0.044783805 0.016229702 0.052597664 0.076193996
-0.06805743 0.07758325 -0.007552854 0.031858273 0.014926095 0.0415496 0.123775244 0.14018612
-0.07269171 0.006990224 -0.027097957 0.11542908 -0.09207537 -0.02713612 -0.12291397 0.056926746
-0.11347243 -0.016792813 -0.039060064 -0.058770455 -0.062721536 -0.040014464 -0.06818707 -0.122895926
-0.005192741 -0.04121821 -0.0259296 -0.0004908578 -0.0067392327 0.09201074 -0.0911278 0.031399455

layers.1.bias f4 [1, 29]
00000000: 60e7 85bd 23b1 a03d 5d9e a0bc 63fe 82bd
00000010: d79b 69bd 5f8b 98bd 440e d0be 38d7 a3bc
00000020: 8c25 9a3e d8de 16bc 8667 783d e913 aa3d
00000030: f7ba 6d3b 147e 983e fab1 b5bd 6c33 31bd
00000040: 0dcd 21bd 5917 9c3c 01c4 453c 54e0 80bd
00000050: 1383 5d3c 5a78 c7bc 1735 92bb 1f8a f6bb
00000060: 90a0 3cbc 830e a2bc ca89 0d3d 763c dabc
00000070: 2c34 e7bc
-0.06538272 0.07846286 -0.019606763 -0.06396177 -0.057033386 -0.07448458 -0.40635884 -0.020000085
0.3010677 -0.0092084035 0.060645603 0.08304579 0.003627477 0.2978369 -0.08871837 -0.04326193
-0.039502192 0.019054102 0.012070657 -0.06292787 0.01352002 -0.02434938 -0.004461895 -0.0075237895
-0.01151289 -0.01978231 0.034555234 -0.026640158 -0.02822312
